tested_policies/go2/flat/exported/policy.onnx (onnx, 273175 bytes, 8 tensors)

actor.0.weight f4 [128, 260]
0	0xbd6ee6ef	-0.058325704
1	0x3dff888a	0.12477215
2	0x3e411d39	0.18858804
3	0x3dce285a	0.1006629
4	0x3d7f8440	0.062381983
5	0x3da3defe	0.08001517
6	0xbd6755f5	-0.05647846
7	0x3e97f777	0.29680988
8	0x3d5c184b	0.053734105
9	0x3e507068	0.2035538
10	0xbd9e7060	-0.077362776
11	0x3d281f42	0.041045435
12	0x3cb6ffe2	0.022338811
13	0xbd91e101	-0.07122994
14	0xbdea07a2	-0.11427237
15	0x3bc588bc	0.006028263
16	0x3df693f5	0.12039939
17	0x3b8f7669	0.0043781293
18	0xbce95220	-0.028481543
19	0xbe1831d3	-0.14862756
20	0xbe50a7f1	-0.20376565
21	0xbd03e05b	-0.032196384
22	0xbd468a15	-0.04847153
23	0xbe6000eb	-0.2187535
24	0x3d3369ea	0.04380218
25	0xbc840781	-0.01611686
26	0x3cb5a775	0.022174576
27	0x3d447609	0.04796413
28	0x3d151c5a	0.03640399
29	0xbd5d2add	-0.053995956
30	0x3c51d92c	0.0128081255
31	0xbc8e7bbd	-0.017392987
32	0x3b1d04ea	0.0023959228
33	0x3ab774b8	0.0013996577
34	0xbca84413	-0.020540273
35	0x3c80cc48	0.015722409
36	0xbb0b599b	-0.0021263126
37	0xbcb6978e	-0.022289064
38	0x3cbc4811	0.022983583
39	0x3d624994	0.05524595
40	0x3c312479	0.010811918
41	0xbcfc6d2e	-0.03081378
42	0x3d578004	0.05261232
43	0x3d15f23e	0.036607973
44	0x3c3ce952	0.011530237
45	0x3d35bae1	0.044367675
46	0xbbc3a2d0	-0.0059703365
47	0x3d14357c	0.03618382
48	0xbc93822c	-0.018006407
49	0x3c958b71	0.018254967
50	0x3cca3130	0.024681658
51	0x3d0a2e20	0.033735394
52	0xbdb7738f	-0.08957588
53	0x3dd3fbf5	0.10350791
54	0x3d96e7d9	0.0736844
55	0xbb737f9d	-0.003715492
56	0x3c86cae6	0.016454171
57	0xbb5eaed5	-0.003397872
58	0x3d71ee83	0.059065353
59	0x3e59a96d	0.21256037
60	0x3c0ac7e1	0.008470506
61	0x3e6bd9c0	0.23032284
62	0xbc6278f1	-0.01382278
63	0x3d887e31	0.06664694
64	0x3db90f21	0.09036089
65	0xbdf41123	-0.11917331
66	0xbe286bb0	-0.1644733
67	0x3c7b6f03	0.0153462915
68	0x3db40f78	0.08792013
69	0x3dc04992	0.093890324
70	0x3d57ac78	0.052654713
71	0xbdfbfe05	-0.1230431
72	0xbe1f7cd3	-0.1557496
73	0x3d19f272	0.03758473
74	0xbda7af8d	-0.081877805
75	0xbe5c0b56	-0.214887
76	0x3d7d8bcc	0.0619009
77	0x3bd8a730	0.006611727
78	0xbd95db77	-0.0731725
79	0xbd5f3dca	-0.054502286
80	0x3c29ab5f	0.010355799
81	0x3caeed84	0.02135349
82	0xbcab864f	-0.020938067
83	0xbc9c3ba9	-0.019071417
84	0x3d451724	0.04811777
85	0x3d892560	0.06696582
86	0xbd2586fe	-0.04041194
87	0x3d3f8bac	0.04676406
88	0xbd5321e4	-0.051545992
89	0x3d7c0337	0.061526503
90	0x3e093343	0.13398461
91	0x3d5a21b5	0.0532548
92	0xbd9bd612	-0.0760919
93	0xbd956cde	-0.072961554
94	0xbd837d53	-0.06420388
95	0x3d480cfd	0.04884051
96	0xbd1c823a	-0.03821013
97	0xbce0e75b	-0.027454069
98	0x3dc89867	0.097946934
99	0xbd1c33c1	-0.038135294
100	0xbce21f0c	-0.027602695
101	0x3d61656c	0.055028364
102	0x3d304d75	0.04304262
103	0xbd774121	-0.060364846
104	0xbe14c2f8	-0.145275
105	0x3e530130	0.20605922
106	0x3d81fc94	0.063470036
107	0xbcc2b1de	-0.023766454
108	0xbc6c5997	-0.014425657
109	0xbad87ef9	-0.0016517333
110	0xbd83faaf	-0.064442985
111	0x3ea1fb8b	0.31637225
112	0xbd3ecc9a	-0.046581842
113	0x3e4064bd	0.18788429
114	0xbd12a0ee	-0.035798006
115	0x3c055516	0.008137962
116	0x3d926f53	0.0715014
117	0xbd9d2a79	-0.07674117
118	0xbde0c523	-0.10975101
119	0xbd776937	-0.060403075
120	0x3c4036e1	0.011731834
121	0x3c77e9d1	0.01513143
122	0xbc9936e3	-0.01870293
123	0xbdfd8067	-0.123780064
124	0xbd8f71b0	-0.07004106
125	0xbd8f8915	-0.07008568
126	0xbdbf1c52	-0.093315735
127	0xbe13967d	-0.14412875
128	0xbd60d461	-0.05489004
129	0x3cc660ea	0.024216134
130	0xbcb90f07	-0.022590173
131	0xbd5c8861	-0.053841
132	0xbcb243e4	-0.021760888
133	0x3d89b5d4	0.06724134
134	0xbd31f2a3	-0.043444287
135	0xbb46cedf	-0.0030335707
136	0xbd7fa0ff	-0.062409397
137	0xbbe60889	-0.0070200604
138	0xbc2b4e9c	-0.010455754
139	0xbd09d398	-0.033649057
140	0x3d31f48b	0.043446105
141	0x3cb4a02a	0.022049028
142	0x3ab384c6	0.0013696186
143	0x3d923427	0.071388535
144	0x3a31498a	0.00067629723
145	0xbdce56ca	-0.100751474
146	0x3d4ec490	0.050480425
147	0x3d0678d0	0.03283006
148	0x3d82f0d2	0.06393589
149	0x3d4f0162	0.050538428
150	0x3d6c18b7	0.057640757
151	0xbc881d4f	-0.016615538
152	0xbdad0c63	-0.08449628
153	0x3d6dc6d7	0.058050957
154	0x3d3dc662	0.04633177
155	0xbdfb423d	-0.12268493
156	0xbe9d1575	-0.30680433
157	0xbd2d26a4	-0.04227318
158	0xbe40ea9b	-0.18839495
159	0xbdd3b0d9	-0.103364654
160	0xbd33fbca	-0.043941297
161	0xbd7f17e8	-0.06227866
162	0x3ce38fb8	0.027778491
163	0x3e95de22	0.29271036
164	0x3cfa8b75	0.030584076
165	0x3e0d0cfd	0.13774486
166	0xbc1d6cd9	-0.009608471
167	0x3d8d4291	0.06897462
168	0x3c27755c	0.010220852
169	0xbe2e82bb	-0.17042057
170	0xbde0bdbf	-0.10973691
171	0x3aa95314	0.0012918436
172	0x3c86cb65	0.016454408
173	0x3dbf40c2	0.093385234
174	0xbd56744a	-0.052356996
175	0xbe262777	-0.16225992
176	0xbda8390f	-0.08214008
177	0xbd4256b2	-0.04744596
178	0x3cc02e8c	0.023459695
179	0xbe6b59c3	-0.2298346
180	0xbd442a3e	-0.047891848
181	0xbb90d929	-0.0044204188
182	0xbd94e8c5	-0.0727096
183	0x3d33d6ce	0.043906026
184	0xbd1b376d	-0.037894655
185	0x3c4d0cba	0.012515241
186	0xbcd241a3	-0.025666064
187	0xbc7d48fb	-0.015459294
188	0x3cb80473	0.022463059
189	0xbd8de63c	-0.06928679
190	0x3d720b13	0.059092592
191	0xbd4700b3	-0.04858465
192	0xbc40cea9	-0.011768022
193	0x3db818d4	0.089891106
194	0x3e22f42f	0.15913461
195	0x3e15d79b	0.14633028
196	0xbddf7776	-0.10911457
197	0x3c6b333d	0.014355478
198	0xbd3401ec	-0.043947145
199	0x3dec11ea	0.11526854
200	0xbd2d5bff	-0.042324062
201	0x3d54cc4e	0.051952653
202	0x3caa51cc	0.020790957
203	0xbd8262b5	-0.06366483
204	0xbb9b744c	-0.0047440883
205	0x3db7c0c6	0.089723155
206	0x3dc19abd	0.09453342
207	0xbcb6cc89	-0.022314327
208	0xbeadbaa5	-0.3393146
209	0xbe071c1b	-0.13194315
210	0xbf104e19	-0.5636917
211	0x3f3075ce	0.68929756
212	0x3e9f0d9b	0.31065068
213	0xbdc43859	-0.0958106
214	0xbd4a8bac	-0.049449608
215	0x3e8f2772	0.27959782
216	0xbc847c1d	-0.016172463
217	0x3e8a3643	0.26994523
218	0x3d97f635	0.07420007
219	0x3d80fde8	0.06298429
220	0x3d7ae0b4	0.06124945
221	0xbe243650	-0.16036344
222	0xbe02d8a2	-0.12777951
223	0x3c042162	0.0080646
224	0x3d9a2c36	0.07527964
225	0x3d29c582	0.041448124
226	0xbbc0365d	-0.0058658556
227	0xbe04ce53	-0.12969331
228	0xbd2197af	-0.039451297
229	0xbc74a3d9	-0.014931642
230	0xbc8473ba	-0.016168464
231	0xbe8303a4	-0.25588715
232	0x3d423321	0.04741204
233	0xbdd1e054	-0.10247865
234	0x3d9d7eb5	0.07690183
235	0x3d4f9313	0.05067737
236	0x3bfa4bb4	0.007638419
237	0x3d929b00	0.0715847
238	0x3cc627d5	0.024188915
239	0x3d65f1b8	0.056138724
240	0xbbb86eb2	-0.0056284303
241	0x3dc68f1b	0.09695264
242	0xbccab892	-0.024746213
243	0xbd3f9ad6	-0.046778522
244	0x3cbbac0d	0.022909189
245	0x3d6e9818	0.058250517
246	0x3df698c2	0.12040855
247	0x3d3fcc16	0.04682549
248	0xbd657a81	-0.056025032
249	0x3d8f21a6	0.0698884
250	0xbd8109f8	-0.063007295
251	0x3e391ea8	0.180781
252	0xbdaa3327	-0.08310538
253	0xbdf0f737	-0.117659025
254	0xbdbc1e4c	-0.09185466
255	0x3e0eb1ae	0.13934967

actor.0.bias f4 [128]
0	0x3c0ebea1	0.008712442
1	0xbce80710	-0.02832368
2	0xbca79a04	-0.020459183
3	0xbd993ca9	-0.07482273
4	0x3cdf54b0	0.027262062
5	0x3d080146	0.03320434
6	0x3c6f241a	0.01459601
7	0x3c0f7213	0.008755225
8	0x3c831593	0.016001498
9	0x3dca6f25	0.098844804
10	0xbd991f76	-0.07476704
11	0xbdde1055	-0.10842959
12	0xbd1fe071	-0.039032403
13	0x3d414980	0.047189236
14	0x3cbe7129	0.023247318
15	0x3c970d9b	0.018439105
16	0xbd5cdc98	-0.053921312
17	0xbddb6f5e	-0.10714601
18	0xbdf56748	-0.1198259
19	0xbd9eb635	-0.07749597
20	0xbbb2346d	-0.0054383785
21	0x3d19d077	0.037552323
22	0xbdd42819	-0.103592105
23	0x3cd542df	0.026032863
24	0xbcaf410d	-0.021393323
25	0xbc3bd379	-0.011463993
26	0x3d7fe22a	0.062471546
27	0x3d881722	0.06645037
28	0xbbce0955	-0.0062877336
29	0x3b814585	0.003945055
30	0x3b07727d	0.0020667606
31	0xbd5236bf	-0.05132174
32	0x3c9fb6d3	0.019496357
33	0x3c9506cb	0.018191716
34	0x3a0bf05d	0.0005338246
35	0xbcf4b15f	-0.029869733
36	0xbc7e812b	-0.015533726
37	0xbcf7d960	-0.03025502
38	0xbd40ddf4	-0.04708667
39	0x3d898893	0.067155026
40	0xbcf02a3d	-0.029317016
41	0xbc9352cc	-0.017983817
42	0x3d3965b2	0.045263
43	0x3c480282	0.012207629
44	0x3d6de845	0.058082838
45	0xbd5e285f	-0.05423772
46	0x3b15d910	0.0022864975
47	0xbc5b1938	-0.013372712
48	0xbcc79b78	-0.024366125
49	0x3b1658e3	0.0022941164
50	0xbc377296	-0.011196753
51	0xbcbefb68	-0.02331324
52	0xbdb08221	-0.0861857
53	0xbd0191df	-0.031633254
54	0xbd124af8	-0.035716027
55	0x3d3fdbfb	0.04684065
56	0xbcfe0f9e	-0.031013306
57	0x3bab157d	0.0052210675
58	0x3c8a8e91	0.016913684
59	0x3ca033de	0.019555982
60	0x3cbe38bb	0.02322041
61	0x3c5515ee	0.013005717
62	0x3cdee46c	0.02720853
63	0x3c98a8b5	0.018635133
64	0x3c190718	0.00934007
65	0x3d506799	0.05088005
66	0xbbe444a5	-0.006966191
67	0x3d42990c	0.047509238
68	0xbcda5088	-0.026649728
69	0x3dc6127a	0.09671493
70	0x3d42c85f	0.04755437
71	0xbbbeb21d	-0.0058195726
72	0x3d323bf6	0.043514214
73	0xbb33027c	-0.0027314713
74	0xbc7a3e9b	-0.015273715
75	0xbd0ec7df	-0.03485858
76	0x3db44b11	0.0880338
77	0xbd40c332	-0.047061153
78	0xbd92a00a	-0.07159431
79	0x3be3617c	0.0069391113
80	0xbd577d81	-0.052609924
81	0xbd9f7f72	-0.0778798
82	0xbccfcb26	-0.025365423
83	0x3ba971b2	0.0051710242
84	0x3c0244da	0.007950986
85	0x3c0a8167	0.0084537035
86	0xbc39799a	-0.011320496
87	0xbcd1b051	-0.02559677
88	0xbd37f33a	-0.044909693
89	0xbd236e35	-0.039900023
90	0xbd4456b0	-0.047934234
91	0x3d68b74f	0.05681544
92	0x3d831cf7	0.06402009
93	0xbd48041f	-0.048832055
94	0xbcdf8231	-0.02728376
95	0xbc000c4d	-0.007815433
96	0x3d1fa6d4	0.03897746
97	0x3b8561ac	0.0040704813
98	0x3c398b97	0.011324785
99	0xba153cba	-0.0005692948
100	0x3c6565a9	0.014001288
101	0xbd480865	-0.04883613
102	0xbb7d2b66	-0.0038630604
103	0xbd2d5a30	-0.042322338
104	0xbcf1df0b	-0.0295253
105	0x3c4e8d6f	0.012606963
106	0xbd7abea5	-0.06121697
107	0xbcedfadb	-0.029050281
108	0x3b84ad84	0.004049005
109	0xbc4ef27c	-0.012631055
110	0x3b448abc	0.0029989919
111	0xbdded94f	-0.10881292
112	0x3c921397	0.017831607
113	0xbc950ea0	-0.01819545
114	0xbd11f293	-0.035631727
115	0xbb2b786b	-0.0026164304
116	0xbd2bac3b	-0.0419123
117	0x3cb7e18d	0.022446418
118	0x3c932e05	0.01796628
119	0xbc34cc94	-0.011035103
120	0x3da74b31	0.081686385
121	0xbd1ad67e	-0.037802212
122	0xbd582491	-0.052769247
123	0xbce148dc	-0.027500562
124	0xbb1a324c	-0.0023528514
125	0xbcf7c0e1	-0.030243339
126	0xbc689e91	-0.014197961
127	0xbcf43de4	-0.029814668

actor.2.weight f4 [128, 128]
0	0xbe2c4038	-0.16821373
1	0x3d1fb3fd	0.03899001
2	0x3caab8e3	0.020840114
3	0xbd4a6983	-0.04941703
4	0x3d496d4e	0.049176507
5	0x3d8e89f5	0.06959907
6	0x3d31fb74	0.043452695
7	0xbcad8e9c	-0.021186166
8	0x3e27964c	0.16365927
9	0xbd44bf6b	-0.048034113
10	0x3d373199	0.044725034
11	0x3d155669	0.03645936
12	0x3e3dbe87	0.18529712
13	0xbb2140cc	-0.0024605272
14	0xbd108904	-0.03528692
15	0xbd5634c7	-0.052296426
16	0xbc0005b0	-0.007813856
17	0xbd8d0ffd	-0.06887815
18	0xbda48859	-0.08033819
19	0xbd359a4d	-0.044336606
20	0x3b6c7ea8	0.0036086235
21	0xbdb1107a	-0.08645721
22	0xbc8e480a	-0.017368335
23	0xbda17d9f	-0.078852884
24	0xbd4d9663	-0.050192248
25	0xbd97fb1f	-0.074209444
26	0x3d44b64a	0.048025407
27	0x3dfcc3ae	0.123420104
28	0xbe05d944	-0.13071162
29	0xbd4f6fb7	-0.05064365
30	0xbd5e84c2	-0.054325826
31	0xbe0621ec	-0.13098878
32	0xbdcd2f56	-0.10018794
33	0xbdf917be	-0.121627316
34	0xbe08c738	-0.13357246
35	0x3d0e8755	0.03479703
36	0xbe045c19	-0.12925757
37	0xbd8b0269	-0.06787569
38	0xbcfccd0e	-0.030859496
39	0x3da288d1	0.07936252
40	0xbddce80e	-0.107864484
41	0x3e012b1e	0.12614104
42	0xbd995903	-0.07487681
43	0xbd8ad5ca	-0.06779058
44	0x3d20b25e	0.039232604
45	0x3dbe75b8	0.09299797
46	0xbbb89b54	-0.005633751
47	0xbd417f13	-0.047240328
48	0xbd1fbf20	-0.03900063
49	0xbd9c1650	-0.07621443
50	0x3c569d71	0.01309906
51	0xbd8647e9	-0.065566845
52	0xbc9c3fac	-0.01907333
53	0x3da34d12	0.07973684
54	0x3d1efd9f	0.03881609
55	0xbe212b52	-0.15739182
56	0x3d6622a3	0.056185376
57	0x3d0e9a23	0.034814965
58	0x3d4659ac	0.04842536
59	0x3d5bc55b	0.05365501
60	0xbe910b34	-0.2832886
61	0xb9a7a24a	-0.00031973637
62	0xbc2bd582	-0.010487916
63	0xbdeef013	-0.11666884
64	0xbccff1b8	-0.025383815
65	0x3e1e9eba	0.15490237
66	0xbbd3563e	-0.00644949
67	0xbd043a9a	-0.03228245
68	0xbda8f24c	-0.082493395
69	0xbe3b26fa	-0.18276587
70	0x3cfc7108	0.030815616
71	0xbe23e37d	-0.16004749
72	0xbdcd85c9	-0.10035283
73	0xbc8618f9	-0.01636933
74	0xbe5df5d3	-0.21675806
75	0x3cb45eb6	0.022017818
76	0x3d98a08d	0.07452498
77	0xbcab55be	-0.020914908
78	0xbd06f469	-0.03294793
79	0x3ca3cd17	0.019995255
80	0xbd437ada	-0.047724582
81	0x3d88a966	0.06672935
82	0xbd30e2e7	-0.04318514
83	0x3d8ea048	0.06964165
84	0x3deac023	0.114624284
85	0x3c19174e	0.009343935
86	0xbd847c1e	-0.06468986
87	0x3d59ac46	0.05314281
88	0x3d16ce0d	0.0368176
89	0x3d582b11	0.052775446
90	0xbd413087	-0.04716542
91	0x3c8f7146	0.017510068
92	0x3c95c4af	0.018282263
93	0xbd470b52	-0.04859478
94	0xbd1484b2	-0.03625936
95	0xbd8006d4	-0.06251302
96	0xbcf2390a	-0.029568214
97	0x3ad1c10b	0.0016002966
98	0xbe1b6f10	-0.15179086
99	0x3d30bae6	0.04314699
100	0xbdd20a2a	-0.10255845
101	0x3d8f0106	0.06982617
102	0xbb8bb799	-0.00426383
103	0xbd9bd61d	-0.07609198
104	0x3d023023	0.031784188
105	0x3dea35b3	0.114360236
106	0xbd230e79	-0.039808724
107	0x3d40db65	0.04708423
108	0xbdd5e5de	-0.10444234
109	0xbe2f3446	-0.17109784
110	0x3d350965	0.044198412
111	0xbd9c8611	-0.07642759
112	0x3cbe820e	0.023255374
113	0xbc084c2f	-0.008318945
114	0xbc7a9390	-0.015293971
115	0xbd4cfc49	-0.050045285
116	0xbe232156	-0.15930685
117	0x3e040ebd	0.12896247
118	0x3dafe517	0.08588617
119	0x3cc68e27	0.024237705
120	0xbcb9cb0a	-0.022679824
121	0xbd36bed3	-0.044615578
122	0xbe7111ac	-0.23541898
123	0x3dc384e4	0.09546831
124	0x3da242fa	0.07922931
125	0x3df6bbaa	0.12047513
126	0x3d45f915	0.048333246
127	0xbcec4828	-0.028843
128	0x3e4eca10	0.20194268
129	0xbd83e4f6	-0.06440155
130	0xbdbb71f2	-0.09152593
131	0x3d9b55cb	0.07584723
132	0x3cc4172f	0.023936836
133	0xbd3e207c	-0.0464177
134	0xbd8ba2bb	-0.06818148
135	0xbaf5c84e	-0.0018751712
136	0x3ce39535	0.027781108
137	0xbe534a02	-0.206337
138	0x3cf682bf	0.030091641
139	0xbd788ebc	-0.060682997
140	0x3d10801e	0.035278432
141	0x3d962a9f	0.07332348
142	0x3c933c95	0.017973224
143	0xbd855410	-0.06510174
144	0xbd1a0fd4	-0.03761275
145	0x3dde80f5	0.1086444
146	0x3bc99339	0.0061515835
147	0xbadfd208	-0.0017076144
148	0xbe084261	-0.13306572
149	0xbd4fa5e0	-0.0506953
150	0x3ca939ff	0.020657538
151	0xbdc05a36	-0.09392206
152	0x3d212c53	0.03934891
153	0x3d249d09	0.040188823
154	0x3d612360	0.054965377
155	0xbca2eb16	-0.019887488
156	0xbcbe3046	-0.023216378
157	0xbdfc32ea	-0.123143986
158	0xbdd073be	-0.10178326
159	0xbd0a4031	-0.033752624
160	0xbdccd5e5	-0.10001735
161	0x3d914195	0.07092587
162	0xbdd32a71	-0.103108294
163	0x3e1c1c96	0.1524528
164	0xbe192893	-0.14956884
165	0xbdb814ae	-0.08988319
166	0x3d237359	0.039904926
167	0x3cc9273d	0.024554843
168	0xbd9c007d	-0.07617281
169	0xbd4fde70	-0.050749242
170	0xbdab0d22	-0.08352114
171	0xbdb013a6	-0.08597498
172	0xbdd644bd	-0.104623295
173	0xbcf8c7aa	-0.030368645
174	0xbdeeea26	-0.11665754
175	0x3c954a66	0.018223953
176	0xbd073572	-0.033009954
177	0xbb4a6105	-0.0030880582
178	0xbd0ac3c1	-0.03387809
179	0xbe36151e	-0.17781493
180	0xbb9ea1b4	-0.004841054
181	0xbd5a57f6	-0.053306542
182	0x3d2a0e77	0.0415177
183	0x3ca5a71b	0.020221284
184	0xbd82a668	-0.06379396
185	0x3d4b34cb	0.049610894
186	0x3be56f0f	0.0070017646
187	0xbde20b01	-0.11037255
188	0xbcc8d29d	-0.02451449
189	0xbc0d45d0	-0.008622602
190	0x3d19e450	0.03757125
191	0x3aad544f	0.0013223978
192	0xbd469031	-0.048477355
193	0xbe09adee	-0.13445255
194	0x3d8584f0	0.065194964
195	0xbd668006	-0.056274436
196	0x3d896181	0.067080505
197	0xbd827f72	-0.063719645
198	0x3e1098b3	0.1412075
199	0x3cb31de1	0.021864833
200	0xbd1cd00b	-0.038284343
201	0xbc93a584	-0.01802326
202	0xbdba814d	-0.091066934
203	0xbd8edf4c	-0.06976184
204	0xbc836240	-0.01603806
205	0x3cea7df9	0.028624522
206	0xbdf68a9d	-0.12038157
207	0xbdc8b1bf	-0.097995274
208	0x3c5873db	0.013211216
209	0x3d2c2781	0.04202986
210	0x3da016e1	0.07816864
211	0x3ca0e81a	0.019641925
212	0x3c11effc	0.008907314
213	0xbdac9236	-0.08426325
214	0x3d772aef	0.06034368
215	0xbc823585	-0.01589466
216	0xbd230703	-0.03980161
217	0x3da94918	0.08265895
218	0x3d0a3420	0.033741117
219	0xbc8af81e	-0.016964015
220	0xbae4392b	-0.0017412057
221	0x3dc3c282	0.09558584
222	0x3d700ce3	0.05860604
223	0x3c841e37	0.016127689
224	0xbe2d9772	-0.16952303
225	0xbd26b350	-0.04069835
226	0xbdf4c975	-0.119524874
227	0x3d27d2b4	0.040972427
228	0x3d29828f	0.041384276
229	0x3d07837f	0.03308439
230	0x3da4a736	0.080397055
231	0x3dd7c7ca	0.105361536
232	0xbd9c8f6a	-0.076445416
233	0x3ded6721	0.11591936
234	0xbd2d02e5	-0.04223909
235	0xbe10e6cc	-0.14150542
236	0xbcb26c62	-0.021780197
237	0xbdab506a	-0.08364947
238	0xbc38c779	-0.011278027
239	0x3dfdcb08	0.12392241
240	0xbe156326	-0.14588603
241	0xbcd351a3	-0.025795763
242	0x3d300837	0.042976584
243	0xba0b0aee	-0.0005304058
244	0xbd9a0ea3	-0.07522323
245	0xbdf58079	-0.11987395
246	0x3d205d63	0.03915156
247	0xbdad8093	-0.08471789
248	0xbd14db8f	-0.0363422
249	0x3caa3834	0.020778753
250	0xbd8bb038	-0.068207204
251	0xbc6dd8fa	-0.014517063
252	0x3bd28599	0.0064246175
253	0xbd9b029f	-0.07568859
254	0xbe601b68	-0.21885455
255	0x3e2b9ae3	0.16758303

actor.2.bias f4 [128]
0	0xbdbcebbf	-0.092246525
1	0xbd9a4b2c	-0.07533869
2	0x3bcc63e9	0.006237496
3	0xbde6fee9	-0.11279089
4	0xbdb25e1d	-0.08709357
5	0x3d5e4136	0.05426141
6	0xbd8d4450	-0.06897795
7	0xbdc70195	-0.097170986
8	0x3d31f2e9	0.043444548
9	0x3c149d68	0.009070732
10	0x3d985a35	0.074390806
11	0x3d928e8a	0.071560934
12	0x3b8750f8	0.0041295253
13	0xbdd32526	-0.1030982
14	0xbd9c1df6	-0.07622902
15	0xbca5bb20	-0.02023083
16	0x3c7fa788	0.015603907
17	0xbd77367d	-0.0603547
18	0x3db92c34	0.09041634
19	0xbdab32f6	-0.083593294
20	0xbe37b2eb	-0.17939346
21	0x3ca5c735	0.02023659
22	0x3d4b35cb	0.049611848
23	0xbd21d92c	-0.039513752
24	0x3bb0d502	0.0053964863
25	0xbd40c544	-0.047063127
26	0xbc3e1ef8	-0.011604063
27	0x3d90d6bc	0.07072207
28	0xbe3a0726	-0.1816679
29	0x3c06b688	0.00822223
30	0xbd04ca09	-0.03241924
31	0xbcc46deb	-0.023978194
32	0x3d220f81	0.039565567
33	0xbd1f33e4	-0.038867846
34	0xbdf509d6	-0.11964767
35	0xbd72fda0	-0.059323907
36	0xbc0cc41b	-0.008591677
37	0xbd488162	-0.048951514
38	0x3d99bf88	0.07507235
39	0xbdd9b87d	-0.106308915
40	0xbd7ee042	-0.062225588
41	0xbd1e2fc5	-0.038619775
42	0xbd88cb33	-0.06679382
43	0xbe29ad4a	-0.16570011
44	0xbc7911d0	-0.015202001
45	0x3c437ce6	0.011931634
46	0xbcc4dc73	-0.0240309
47	0x3d0c42e9	0.034243498
48	0xbcad70ac	-0.02117189
49	0x3d092175	0.033479173
50	0xbd8d4026	-0.06897001
51	0x3ce57973	0.028012013
52	0x39809369	0.00024523892
53	0xbba448f1	-0.005013578
54	0xbd9b4853	-0.07582154
55	0xbd7066dc	-0.058691844
56	0xbddce658	-0.10786122
57	0xbe15e879	-0.14639463
58	0x3c400681	0.011720301
59	0xbdbb9b98	-0.091605365
60	0xbd8c82bd	-0.06860874
61	0xbd9099d3	-0.0706059
62	0xbd838c5f	-0.06423258
63	0xbdc1a9b5	-0.09456197
64	0xbd947b03	-0.07250025
65	0xbd09665d	-0.033544887
66	0x3db85568	0.09000665
67	0x3cddb3b2	0.027063224
68	0x3d0e771c	0.03478156
69	0x3e0b77fa	0.13619986
70	0xbd800b81	-0.06252194
71	0xbd31f680	-0.04344797
72	0xbd8788a4	-0.06617859
73	0x3d6e9fcd	0.058257867
74	0xbd60ebc4	-0.054912344
75	0x3d8d80a0	0.06909299
76	0xbd645afa	-0.055750825
77	0xbdf44494	-0.11927143
78	0x3d7b2210	0.06131178
79	0xbdf83243	-0.12118962
80	0x3d265027	0.040603783
81	0xbd8db3a1	-0.06919027
82	0xbd0fea5e	-0.03513562
83	0xbc5ccad6	-0.013476094
84	0xbd9ed221	-0.07754923
85	0x3da8649a	0.08222313
86	0xbcd2ede0	-0.025748193
87	0x3e2f6481	0.17128183
88	0x3dd8ceed	0.10586343
89	0xbde9200a	-0.11383064
90	0xbe545897	-0.2073692
91	0x3d1a7997	0.037713613
92	0xbd1adf5c	-0.03781067
93	0x3ddfffd8	0.1093747
94	0xbdb9a051	-0.09063781
95	0xbdd332ea	-0.103124455
96	0xbe063b97	-0.13108669
97	0xbdae9a94	-0.08525577
98	0xbe1b7b64	-0.15183789
99	0xbcb363c2	-0.021898154
100	0xbd0afcff	-0.033932682
101	0xbe01a945	-0.12662227
102	0xbd83c1dc	-0.0643346
103	0x3d6afe8b	0.057371657
104	0xbc585118	-0.013202928
105	0xbd66edc0	-0.05637908
106	0x3da52651	0.08063949
107	0x3d4cf4f1	0.05003828
108	0xbdfed63b	-0.12443205
109	0xbd9fd8ee	-0.07805048
110	0x3d3174e0	0.04332435
111	0x3cce0a47	0.025151385
112	0xbd5caa4f	-0.053873356
113	0x3c5d2706	0.013498073
114	0xbdaa46c8	-0.08314282
115	0xbd831d97	-0.06402128
116	0xbd857752	-0.06516899
117	0xbe1f54d8	-0.15559709
118	0x3d6eb2e0	0.058276057
119	0xbd60a9d8	-0.054849476
120	0xbda4ec40	-0.080528736
121	0xbcfd6361	-0.030931177
122	0xbcb25364	-0.02176828
123	0x3bb66023	0.0055656596
124	0x3d2709fd	0.04078101
125	0x3d025c1a	0.031826116
126	0xbe189b39	-0.14902963
127	0xbd96178d	-0.07328711

actor.4.weight f4 [128, 128]
0	0xb7743b9f	-1.4557415e-05
1	0xbdce7672	-0.100811854
2	0xbe6c5fb2	-0.2308338
3	0x3d9e96b6	0.077435896
4	0xbd4d1065	-0.050064463
5	0xbe443e4f	-0.19164394
6	0x3c773c44	0.015090052
7	0xbcad338c	-0.021142744
8	0x3e1b6d87	0.151785
9	0xbc9ad191	-0.018898757
10	0x3cbd41a1	0.023102583
11	0xbe6429f2	-0.22281626
12	0xbda40f86	-0.08010773
13	0xbdbf38ff	-0.09337043
14	0xbcfe7c82	-0.03106523
15	0x3db6b41a	0.089210704
16	0xbcbbd502	-0.022928718
17	0xbd79c041	-0.060974363
18	0xbda6844d	-0.08130703
19	0x3de76a15	0.112995304
20	0x3d5b661e	0.053564183
21	0xbe0fe1b1	-0.14050938
22	0x3c5de0b6	0.013542345
23	0x3dac62f1	0.08417309
24	0x3e459c4c	0.19297904
25	0x3d54f8d6	0.05199512
26	0x3dcb0cae	0.09914528
27	0xbd582bb3	-0.05277605
28	0x3dac8d7b	0.08425423
29	0x3def3482	0.11679937
30	0x3d0ab838	0.03386709
31	0xbced6156	-0.028977077
32	0x3e1bc5de	0.15212199
33	0x3de570fe	0.11203192
34	0x3ca4f60d	0.020136857
35	0x3db30b03	0.08742335
36	0xbc735aac	-0.014853161
37	0x3db43366	0.08798866
38	0xbda5f13b	-0.08102652
39	0xbe05d62d	-0.13069983
40	0xbc8a5efa	-0.016890991
41	0x3d9e12f8	0.07718462
42	0x3dc43290	0.095799565
43	0x3da67351	0.081274636
44	0x3dd2fc4d	0.10302029
45	0x3e109f52	0.14123276
46	0x3daa08f9	0.08302493
47	0xbdde6d8f	-0.108607404
48	0xbdac28da	-0.08406229
49	0xbe0ab3f5	-0.1354521
50	0xbcb6ca25	-0.022313187
51	0xbd989c9a	-0.074517444
52	0xbd63468e	-0.055487208
53	0xbd49e3f0	-0.049289644
54	0xbd008eed	-0.031386305
55	0x3cb9ce86	0.022681486
56	0xbd5dfe92	-0.054197855
57	0x3dd0b10b	0.10190018
58	0x3e529759	0.20565547
59	0xbd9114d4	-0.07084051
60	0xbccf713b	-0.025322547
61	0x3dd2be56	0.1029021
62	0xbd103cf9	-0.035214398
63	0x3b74bf85	0.00373456
64	0xbe8f3d48	-0.2797644
65	0x3e33c4aa	0.1755549
66	0xbdc68d12	-0.09694876
67	0x3dc19e81	0.0945406
68	0x3d0052ae	0.03132885
69	0xbca574aa	-0.020197231
70	0xbdd94840	-0.10609484
71	0xbdb14750	-0.0865618
72	0x3dba656c	0.09101376
73	0x3d67791e	0.05651199
74	0x3be14b8d	0.0068754614
75	0xbd72d1ea	-0.05928222
76	0x3cdeac8a	0.027181882
77	0x3dc7fabf	0.09764623
78	0xbdd967f5	-0.10615531
79	0xbd404be0	-0.04694736
80	0x3d885294	0.066563755
81	0x3d58b871	0.052910272
82	0x3d868b06	0.06569485
83	0xbcfdc3df	-0.030977188
84	0xbddb19b6	-0.10698263
85	0x3d85ba15	0.06529633
86	0x3d92694a	0.071489885
87	0xbe0f61f3	-0.14002208
88	0x3d73c0b1	0.059509937
89	0xbd028919	-0.031869028
90	0x3de78cb9	0.113061376
91	0x3b8c5384	0.004282417
92	0xbe2a484f	-0.16629146
93	0xbd7e490c	-0.06208138
94	0x3d01caea	0.031687655
95	0x3b1d3cc2	0.0023992513
96	0x3d101e5a	0.035185196
97	0xbd500703	-0.050787937
98	0x3ca9215a	0.020645786
99	0x3de02d1e	0.109461054
100	0x3dae911a	0.0852377
101	0x3b5296c0	0.003213331
102	0x3e22c911	0.15897013
103	0x3d85988d	0.065232374
104	0xbd16ac7c	-0.036785588
105	0x3a8b2db7	0.0010618482
106	0x3d9121a5	0.07086495
107	0xbdff708f	-0.12472641
108	0x3dcaae8f	0.09896576
109	0xbdf6686e	-0.12031637
110	0x3d8342d7	0.06409233
111	0xbcc79d64	-0.024367042
112	0x3da51f0f	0.080625646
113	0x3ccc1674	0.02491305
114	0xbdd1efba	-0.10250802
115	0xbdfdce0e	-0.123928174
116	0x3e21da75	0.15805991
117	0x3df8f329	0.12155754
118	0xbd8d2ee5	-0.0689371
119	0x3e182fc9	0.14861979
120	0xbd448d05	-0.04798605
121	0x3df77803	0.12083437
122	0xbc84c5c2	-0.01620758
123	0xbdc1a198	-0.0945465
124	0xbd87cd1e	-0.0663092
125	0x3cb0691b	0.021534493
126	0x3e0a54ea	0.13508955
127	0xbd016694	-0.031591967
128	0x3d0119cd	0.031518746
129	0x3dedf80e	0.11619578
130	0x3cb19f88	0.021682516
131	0xbd52f913	-0.051507067
132	0x3dd41677	0.10355847
133	0xbdc641fd	-0.09680555
134	0xbd875347	-0.06607681
135	0x3d3b582d	0.045738388
136	0x3daa22a8	0.083073914
137	0xbde3005d	-0.11084054
138	0xbe7a4fc4	-0.2444449
139	0x3d097dbf	0.033567186
140	0xbc9a803b	-0.018859973
141	0x3bb5b40a	0.005545144
142	0x3d70f121	0.05882371
143	0x3d7cfb1d	0.061762918
144	0x3d840630	0.06446493
145	0x3da466b8	0.080274045
146	0xbc71f5bd	-0.014768061
147	0x3d9cc9db	0.076556884
148	0x3e322a53	0.17398958
149	0xbdf29836	-0.11845438
150	0xbe079804	-0.13241583
151	0xbe0364fc	-0.12831491
152	0x3ddb83e3	0.10718515
153	0x3d618a20	0.055063367
154	0xbd08dfca	-0.033416547
155	0x3d8ef0c3	0.069795154
156	0x3dc148f1	0.094377406
157	0xbde3266c	-0.11091313
158	0xbdac6288	-0.08417231
159	0xbd00af59	-0.031417225
160	0xbe38d60e	-0.18050405
161	0x3d89a3c9	0.06720693
162	0xbab8a91d	-0.0014088486
163	0xbe4b164f	-0.19832729
164	0xbd5373ff	-0.051624294
165	0x3d98b782	0.07456876
166	0x3d5f3035	0.054489333
167	0x3d5be91a	0.0536891
168	0x3dc2cada	0.09511347
169	0xbe274ddb	-0.16338293
170	0x3d6759c2	0.056482084
171	0x3e075317	0.1321529
172	0xbd21f851	-0.039543454
173	0xbd86599b	-0.0656006
174	0x3d3b3ce3	0.045712363
175	0xbd841629	-0.06449539
176	0xbe217e9c	-0.15770954
177	0xbd848b24	-0.064718515
178	0x3d8bb461	0.06821514
179	0xbd3a4ef3	-0.045485448
180	0x3e296762	0.16543344
181	0xbd9feaca	-0.07808454
182	0xbe323e8f	-0.17406677
183	0x3e0ef74a	0.13961521
184	0x3da81bb4	0.08208409
185	0x3d898590	0.06714928
186	0x3ce11fa4	0.027480908
187	0x3da57e05	0.08080677
188	0x3d8c2e0f	0.068447225
189	0xbbf2aee3	-0.007406102
190	0x3e091cc9	0.13389887
191	0x3dbe3418	0.0928728
192	0x3da799a7	0.08183604
193	0x3d0a996c	0.03383772
194	0x3d0f49ed	0.03498261
195	0xbdc8a578	-0.09797186
196	0xbd870bbb	-0.06594034
197	0x3d8d60bd	0.06903217
198	0xbc7c90cc	-0.015415382
199	0x3d1479cf	0.03624898
200	0x3d159483	0.036518585
201	0xbe300135	-0.1718796
202	0xbd269cc8	-0.040676862
203	0x3be57755	0.007002751
204	0xbc886094	-0.016647615
205	0xbd684d1e	-0.05671417
206	0x3bfb2a24	0.0076649357
207	0x3d323550	0.043507874
208	0xbcd8d3a3	-0.026468104
209	0xbcb9709a	-0.0226367
210	0xbd2b93d0	-0.04188901
211	0xbd041a33	-0.032251548
212	0x3de835f9	0.113384195
213	0xbdc9fa6c	-0.09862217
214	0xbd9ce824	-0.07661465
215	0xbda5eb87	-0.08101564
216	0xbd6ce8ed	-0.057839323
217	0x3b469292	0.0030299765
218	0xbcd2aef4	-0.02571819
219	0xbb14c8c3	-0.002270267
220	0xbd5b11da	-0.05348382
221	0x3d2ed157	0.04268011
222	0x3d247c4f	0.040157612
223	0x3c806844	0.015674718
224	0x3d07a9a3	0.033120763
225	0xbdad3390	-0.084571004
226	0xbd6e0493	-0.05810983
227	0x3ca7af6a	0.020469386
228	0xbda8e964	-0.08247641
229	0xbe1b6afb	-0.15177529
230	0xbd1eee3e	-0.038801424
231	0xbc0dd433	-0.008656549
232	0xbcfebdda	-0.031096388
233	0x3daef690	0.08543122
234	0xbe0edf9f	-0.13952492
235	0xbd683931	-0.056695167
236	0xbb850b8a	-0.0040602135
237	0x3db00e15	0.08596436
238	0x3bee4db8	0.0072724484
239	0x3d08228f	0.033236083
240	0xbe23644e	-0.15956232
241	0x3dc9d3dd	0.09854863
242	0x3baccd21	0.0052734767
243	0xbd3972e5	-0.045275588
244	0xbd57ad08	-0.05265525
245	0xbe0c0392	-0.13673237
246	0xbd449dc8	-0.048002034
247	0xbd4b2ceb	-0.049603384
248	0x3d722518	0.059117407
249	0xbc81a4cf	-0.015825657
250	0xbdeb5a69	-0.11491854
251	0xbc51c2ab	-0.01280276
252	0x3d3a116d	0.045426775
253	0x3da38a30	0.079853415
254	0xbbc4d847	-0.0060072276
255	0xbe102041	-0.14074804

actor.4.bias f4 [128]
0	0xbdd82cf5	-0.1055545
1	0xbdaaf088	-0.08346659
2	0xbd5a736f	-0.053332742
3	0xbdd4906b	-0.10379108
4	0xbd3e6414	-0.04648216
5	0xbc92b528	-0.017908648
6	0xbd301710	-0.042990744
7	0x3dc07fe4	0.09399393
8	0x3d18dca7	0.037319805
9	0xbdc792e8	-0.09744817
10	0xbd8dc1e2	-0.06921746
11	0xbcdfb8e1	-0.027309837
12	0xbd64f9ba	-0.05590222
13	0xbe093d11	-0.13402201
14	0xbcf21969	-0.029553132
15	0xbd0e9bf6	-0.034816705
16	0xbc956875	-0.018238286
17	0x3ce3e7e0	0.027820528
18	0x3d06891e	0.03284561
19	0x3d08644f	0.033298787
20	0x3c397ff0	0.011322007
21	0xbd2c7c4d	-0.04211073
22	0x3cebb4bd	0.028772706
23	0x3d15de23	0.0365888
24	0x3c52415e	0.012832968
25	0x3c26a6e3	0.010171625
26	0xbb946ac0	-0.004529327
27	0xbdac4670	-0.084118724
28	0xbb534794	-0.0032238709
29	0xbd9620a3	-0.07330444
30	0x3d8b484d	0.068009
31	0xbc7e0286	-0.015503531
32	0x3d4a0c67	0.049328234
33	0xbd85d700	-0.065351486
34	0xbe11106b	-0.14166419
35	0xbe064667	-0.13112794
36	0xbe09fd39	-0.13475503
37	0x3d704a6e	0.05866473
38	0xbdad5cb4	-0.08464947
39	0xbe0dceaf	-0.13848375
40	0xbe27dea7	-0.16393529
41	0x3caf20d3	0.021377956
42	0xbdc78098	-0.09741324
43	0x3c3f42a3	0.011673602
44	0xbc4eb978	-0.012617461
45	0xbd491222	-0.04908956
46	0xbd4eefb9	-0.050521586
47	0x3cb881f7	0.02252291
48	0xbe23b760	-0.15987921
49	0x3d98084b	0.07423457
50	0x3c2aa067	0.010414219
51	0xbdb2c631	-0.08729208
52	0xbcc4387e	-0.023952719
53	0xbc0f12f8	-0.00873255
54	0xbdfb9d02	-0.12285806
55	0xbbd44473	-0.0064778863
56	0xbd60ee8d	-0.054915
57	0xbd717c52	-0.05895645
58	0xbd98bcc6	-0.07457881
59	0xbdafe2e1	-0.085881956
60	0xbc1578bd	-0.0091230245
61	0x3cc05559	0.023478197
62	0xbc5d587d	-0.013509867
63	0x3ceed24d	0.029153014
64	0xbdc00c68	-0.09377366
65	0xbd3c71e8	-0.046007067
66	0xbd2cb6d6	-0.042166553
67	0xbe66b064	-0.22528225
68	0x3d21b09a	0.03947506
69	0xbd76bd12	-0.060238905
70	0x3ca0702a	0.019584734
71	0xbc9fab8f	-0.019490985
72	0x3d89ab20	0.06722093
73	0x3d0fd5d9	0.03511605
74	0xbd1f08b1	-0.03882665
75	0xbd9954e7	-0.07486897
76	0xbd9cc81f	-0.076553576
77	0x3d2730c5	0.040817995
78	0xbbad65f2	-0.005291694
79	0x3d43f211	0.047838274
80	0xbe256d87	-0.16155063
81	0xbddc0d7f	-0.10744762
82	0xbd34f70e	-0.044180922
83	0xbe0aad8e	-0.13542768
84	0xbda55693	-0.08073153
85	0xbc4d20a4	-0.012519989
86	0xbdbc5024	-0.09194973
87	0x3da616d7	0.08109825
88	0xbe425922	-0.18979314
89	0x3c6bf753	0.014402228
90	0x3ba940f6	0.0051652147
91	0xbd810008	-0.06298834
92	0xbd5aea26	-0.053445958
93	0x3d15c95d	0.036568988
94	0x3d1d236e	0.038363867
95	0xbd9e5e29	-0.077328034
96	0x3d82a5b2	0.0637926
97	0x3d8feebb	0.07027956
98	0x3cbd29a2	0.023091141
99	0xbe062fbc	-0.13104147
100	0xbddbfe35	-0.107418455
101	0xbd884ac3	-0.06654885
102	0x3d74164d	0.05959158
103	0xbd6b3b6d	-0.05742972
104	0xbded9867	-0.11601334
105	0x3da8db0a	0.082449034
106	0xbca7abea	-0.020467717
107	0x3d93150d	0.071817495
108	0xbdda9a4c	-0.10673961
109	0xbdc1c48e	-0.09461318
110	0x3d0a876e	0.033820562
111	0x3d32b65f	0.043630954
112	0x3d50ef3b	0.051009398
113	0xbd54c582	-0.05194617
114	0xbd8e732d	-0.06955562
115	0x3d6a6a77	0.05723044
116	0xbdb1fbaa	-0.08690579
117	0x3da72f81	0.081633575
118	0xbe062a59	-0.13102092
119	0x3da3b8a2	0.079942
120	0xbde949d2	-0.11391033
121	0x3d5d87cd	0.054084588
122	0xbdeb3ad1	-0.11485828
123	0xbd028372	-0.031863637
124	0x3d3a24d7	0.04544529
125	0xbd99bd3d	-0.075067975
126	0xbcec158b	-0.028818866
127	0xbdb65053	-0.089020394

actor.6.weight f4 [12, 128]
0	0x3e042b38	0.12907112
1	0x3c89dde8	0.016829446
2	0x3d387fe4	0.04504384
3	0xbca70c8d	-0.020391727
4	0x3d48c085	0.049011726
5	0xbc0e4b1b	-0.008684899
6	0xbdcee35e	-0.101019606
7	0xbc77ada6	-0.015117085
8	0x3d58ebc7	0.05295923
9	0x3d4d43c2	0.050113447
10	0xbb35cb7f	-0.0027739701
11	0xbc3810b7	-0.011234454
12	0x3c9daa6a	0.019246299
13	0xbd327703	-0.04357053
14	0xbcd48c5c	-0.025945835
15	0xbca4f5a8	-0.02013667
16	0xbd513607	-0.051076915
17	0xbd08bbf3	-0.033382367
18	0x3cc67263	0.024224466
19	0xbd0cfa81	-0.034418587
20	0xbcd40cb4	-0.025884964
21	0xbd026ee2	-0.031844027
22	0x3acf27bb	0.0015804687
23	0x3b9b3704	0.004736783
24	0xbd133a1b	-0.035944086
25	0xbb92d4ce	-0.0044809347
26	0xbc081e9a	-0.008308077
27	0xbd8ba9ea	-0.06819518
28	0xbd201d03	-0.039090168
29	0xbd8fe776	-0.070265695
30	0xbb582fb3	-0.0032987415
31	0x3d1c1401	0.038105015
32	0x3d66edac	0.056379005
33	0xbcb8b221	-0.022545876
34	0x3d88ea78	0.06685346
35	0x3d36d3dd	0.044635642
36	0x3d98c4c2	0.074594036
37	0xbd6c9eda	-0.05776868
38	0x3be46e96	0.0069711907
39	0x3d90fe14	0.070797116
40	0xbdf6101e	-0.12014793
41	0xbcb08e0c	-0.021552108
42	0xbbe45bbd	-0.006968944
43	0x3c48e630	0.012261912
44	0xbc9e3a1d	-0.01931482
45	0xbd4bb90f	-0.049737033
46	0xbdc91aa3	-0.09819534
47	0xbbad8c53	-0.005296269
48	0x3cbf56d2	0.023356829
49	0x3b8cd37f	0.0042976732
50	0x3c28c2df	0.010300367
51	0xbd1fc6f7	-0.039008107
52	0xbb65a080	-0.0035038292
53	0x3bf3a678	0.007435616
54	0xbd212dcf	-0.039350327
55	0xbd437e34	-0.04772778
56	0x3d793fd9	0.060851905
57	0xbd1f513e	-0.038895838
58	0x3b098ebe	0.0020989622
59	0x3cd31080	0.025764704
60	0xbcb271d6	-0.021782797
61	0x3b542ca4	0.003237524
62	0x3d2550cc	0.040360257
63	0x3d0a09db	0.033700805
64	0xbc66a25a	-0.014076794
65	0xbd589a0b	-0.05288128
66	0x3d5ad482	0.05342532
67	0x3c94c030	0.018158048
68	0xbc94943d	-0.018137092
69	0x3d55b558	0.052174896
70	0xba4406a4	-0.0007477796
71	0xbc87eee2	-0.0165934
72	0x3b744ded	0.0037277893
73	0xbcac87a2	-0.021060769
74	0x3bf652db	0.0075172014
75	0x3bfb29aa	0.007664879
76	0x3c388f93	0.0112646995
77	0x3ca998b0	0.02070269
78	0xbca19cb5	-0.019728044
79	0x3c33d90a	0.010977039
80	0xbca56357	-0.02018897
81	0x3d4bdb07	0.049769428
82	0xbb3ae622	-0.0028518518
83	0x3dda2f6d	0.10653577
84	0x3c8c8726	0.017154288
85	0xbde3e235	-0.1112713
86	0xbcc86827	-0.024463726
87	0x3a8646c6	0.0010244481
88	0x3d832577	0.0640363
89	0xbc941ab5	-0.018079141
90	0xbd73f8a7	-0.059563305
91	0x3c2b2fc3	0.010448399
92	0x3d3290b4	0.04359503
93	0x3d033be9	0.032039557
94	0xbbe15557	-0.0068766284
95	0x3c3be137	0.01146727
96	0x3d3f16db	0.046652656
97	0xb9b9ec64	-0.00035462074
98	0x3c8ed070	0.017433375
99	0xbcc8685a	-0.024463821
100	0x3d8978da	0.06712504
101	0x3c5e8014	0.013580341
102	0x3c33376e	0.010938508
103	0xbbacbf57	-0.005271833
104	0x3d731d8f	0.05935436
105	0xbb4f5af4	-0.0031639906
106	0x3d95f704	0.07322505
107	0x3c2703d2	0.010193782
108	0x3cbca115	0.023026029
109	0xbc560bd9	-0.013064348
110	0x3d15b4c7	0.036549356
111	0xbcabeb78	-0.020986304
112	0x3c37e3a0	0.011223704
113	0xbc781dca	-0.015143821
114	0x3d31b907	0.043389346
115	0xbc55ac42	-0.013041558
116	0xb87a6cb5	-5.9705886e-05
117	0x3baa2521	0.0051924144
118	0x3d47ba00	0.048761368
119	0x3c455dc9	0.012046286
120	0xbcef864d	-0.029238844
121	0xbd3dec47	-0.04636791
122	0x3d8ba55d	0.0681865
123	0xbd49128b	-0.04908995
124	0xb93e8078	-0.0001816767
125	0x3c561f82	0.0130690355
126	0x3d53b168	0.05168286
127	0x3cdbf75a	0.026851345
128	0xbceee765	-0.029163072
129	0xbd350379	-0.044192765
130	0xbd824e4d	-0.06362591
131	0x3cbef96c	0.023312293
132	0xbd328359	-0.043582294
133	0xbbfa4c43	-0.0076384856
134	0x3d9f4475	0.07776729
135	0x3b7a1375	0.003815857
136	0x3d1a9a63	0.03774489
137	0xbcbe755f	-0.023249326
138	0xbc7b2c78	-0.015330426
139	0xbcd7212a	-0.026260931
140	0x3ca3b21e	0.019982394
141	0x3d9527c8	0.07282978
142	0xbbc367ae	-0.0059632873
143	0xbc9e0a52	-0.01929203
144	0x3d00a9bf	0.031411882
145	0xbd6b34bb	-0.057423335
146	0x3d66e7eb	0.056373518
147	0xbca3b372	-0.019983027
148	0x3d1d8974	0.038461164
149	0x3c87c708	0.016574398
150	0x3ba6a154	0.00508515
151	0x3c5ead3b	0.013591106
152	0xbcc88fcd	-0.024482632
153	0xbd1e4e96	-0.038649164
154	0x3d6c8be7	0.05775061
155	0xbd4edd61	-0.050504092
156	0xbd7a36c4	-0.061087385
157	0xbd0a36b9	-0.033743594
158	0xbc3c155d	-0.011479703
159	0x3b991033	0.0046711206
160	0xbb4dca6e	-0.0031401175
161	0x3d3a5d3e	0.04549908
162	0xbd98a525	-0.07453374
163	0xbb8df78b	-0.004332488
164	0x3d0bf9fe	0.034173958
165	0xbc012f98	-0.007884882
166	0x3b176509	0.0023100993
167	0xbc9c3bf7	-0.019071562
168	0x3d0a0d72	0.03370423
169	0xbca3253a	-0.019915212
170	0xbb8e4b14	-0.004342446
171	0xbc77975f	-0.015111773
172	0x3bc3699a	0.0059635164
173	0xbd418c46	-0.047252916
174	0x3d489a51	0.048975293
175	0xbc506e0d	-0.012721551
176	0xbd1b4404	-0.03790666
177	0x3b3bbcc6	0.0028646453
178	0xbbd84a2f	-0.0066006402
179	0x3dbe4276	0.0929002
180	0xbb96062c	-0.0045783725
181	0x3c6069a5	0.013697063
182	0x3d62dd7f	0.055387016
183	0x3d280de8	0.041028887
184	0xbc2f07f2	-0.010683047
185	0xbcf29aab	-0.029614767
186	0xbbeee6c8	-0.007290695
187	0x3d1e0276	0.038576566
188	0x3cb2092a	0.021732885
189	0x39157fc8	0.0001425735
190	0x3cd1bbc3	0.025602227
191	0xbca81a5e	-0.020520385
192	0x3d195696	0.03743609
193	0x3d384d8e	0.044995837
194	0xbd477c96	-0.0487028
195	0x3baa3d7f	0.005195319
196	0xbc086417	-0.0083246445
197	0xbc1c1502	-0.009526493
198	0x3bb865ae	0.0056273555
199	0xbc1a33cf	-0.009411766
200	0xbb1cc14e	-0.002391893
201	0xbb9c70f6	-0.004774208
202	0x3cb04908	0.021519199
203	0x3ca7f250	0.020501286
204	0xbd19aaac	-0.03751628
205	0x3d3a456c	0.045476362
206	0xbd96c999	-0.073626705
207	0xbc392214	-0.011299629
208	0xbaca0e7d	-0.0015415695
209	0xbdca2665	-0.098706044
210	0x3aeb71ca	0.0017962989
211	0xbdd3d61f	-0.10343575
212	0x3d91a4ce	0.07111512
213	0x3dea0084	0.114258796
214	0x3cfebb88	0.031095281
215	0x3aa072cf	0.0012241247
216	0x3cce081f	0.025150357
217	0x3c1c831a	0.009552741
218	0xbcb53d17	-0.022123856
219	0xbd415f78	-0.047210187
220	0x3cd3ae15	0.025839845
221	0xbd5888c0	-0.05286479
222	0xbb32b714	-0.0027269768
223	0xbca32618	-0.019915625
224	0x3c7c286d	0.015390498
225	0x3d42fa39	0.047601912
226	0x3ba67ca1	0.005080775
227	0xbd7663b4	-0.060153678
228	0xbc24af13	-0.010051507
229	0xba96112b	-0.0011449208
230	0x3d2db6e6	0.042410754
231	0xbd7fa3d8	-0.062412113
232	0xbcba9ac1	-0.02277887
233	0x3c112d54	0.008860905
234	0x3cddafe9	0.02706142
235	0x3c4b42fb	0.012406106
236	0x3b04e3be	0.0020277346
237	0xbd61ff51	-0.05517513
238	0x3d3c7d75	0.046018083
239	0x3d0d15e5	0.03444471
240	0xbc386e5c	-0.0112567805
241	0x3b41835b	0.0029527757
242	0x3d65fcf7	0.05614945
243	0x3db3c2fe	0.08777426
244	0x3c1516c7	0.009099669
245	0xbc09838a	-0.008393178
246	0xbca1803a	-0.019714464
247	0xbc359067	-0.0110817915
248	0x3a5fdba9	0.0008539507
249	0xbbcc55f9	-0.0062358347
250	0xbdc0d4dc	-0.094156
251	0x3c864030	0.016388029
252	0x3b3f407f	0.002918273
253	0x3bc393f2	0.005968564
254	0x3d0b20f1	0.033966962
255	0x3c7cb657	0.015424333

actor.6.bias f4 [12]
0	0xbd4cbe08	-0.049985915
1	0x3cf4d44b	0.029886385
2	0xbdc3c8a7	-0.09559756
3	0x3ceb9e4d	0.028762007
4	0x3c83d5bd	0.01609313
5	0xbda0a7a5	-0.07844476
6	0xbd275268	-0.040850073
7	0xbc11976d	-0.0088862
8	0x3d63d49e	0.05562269
9	0xbac6b17e	-0.0015159098
10	0x3e03172b	0.12801807
11	0x3cc5bce3	0.02413792
