tested_policies/go2/go2_flat_cuncurrent_se/exported/policy.pt (torch, 283062 bytes, 8 tensors)

weight f4 [128, 260]
00000000: b5cd 51bd 6cba 2f3d 27d3 673d 24b8 78bd
00000010: 2d12 2c3d 2c66 f03d a284 ad3e c13f 27be
00000020: cf76 50bb 6888 6fbe 4d78 aabd d31f 6dbd
00000030: ca3c 373e 3411 fdbd 7b32 8b3c 8108 54bb
00000040: 3867 393e 3cbf c5bc 1531 b5ba dcf0 b0bd
00000050: 782b e23d e343 0ebe b9bb dabc 0061 953d
00000060: fa06 53bd a048 98bd 70b6 4d3d 8e37 973b
00000070: 18f5 ed3c ea6d 843b 5bfa 373d b526 adbc
00000080: 69a2 013d 1ec4 fb3c 0a2d edbd 037d 90bb
00000090: 1934 d03d 03fc c8bc 82cf b03c adbe 4a3c
000000a0: 0b24 d6bc 582b 06bc e8d7 1ebd 1e84 ccbc
000000b0: 4193 883d 431a ad3d 301f c1bd 607e babd
000000c0: 5518 a03c 3f29 39be b239 74be 48ca a63d
000000d0: 69b7 00bd 2a05 c9bc ecca e33c caf9 9d3d
000000e0: 9f1c d63d 4ee3 293d 61c4 d93e 7af0 39be
000000f0: 216a 9e3d 956a 2dbe e35f 6ebd dc03 00be
00000100: 9859 0c3e a5c4 5ebe 79b9 123d edf4 c43d
00000110: 4d7d 513e 0421 1b3b 17dd 153d 2e1c cc3b
00000120: 630b 963d 84b1 07be aa1d d6bc d45c 173d
00000130: 4176 3e3d afde 7abd 9545 b93d b7d4 803c
00000140: 98da 73bd 00b7 133c 10f3 8cbc 284f fdbb
00000150: f4f5 eb3c 756b 61bc a4fe 84bc 8e53 863d
00000160: 1b6a 8b3d a557 353d 56fc a03b 1ac0 753d
00000170: 45d2 88bc 5267 bfbd f6ab a5ba 380b 53bd
00000180: 5da2 2e3d 1227 813c 4eab 24bd 3a68 a0bc
00000190: a95e d93c 2f55 59be 1c6e 38be d7bb 933d
000001a0: af5e e13d 539b 4ebe 6bf2 2cbd bc5e cc3d
000001b0: b7fc 353d b60f 863d 39f0 d83e c4a8 79be
000001c0: 285a 993d e7ee 51be 0a62 d7bd 7d8a eebd
000001d0: 58a1 513d 9367 81be 733c 923a 5efb 193d
000001e0: 66d9 4f3e dd12 fb3b 57aa adbb c14a 55bd
000001f0: f52e 3e3e 10b3 06be fa37 60bd 5977 523d
00000200: 47d0 69bc 53d9 50bc a2f0 6e3d c63f 9bbc
00000210: d8aa 8a3d 9f66 053c 98ab a83c f29d 73bc
00000220: be66 3dbc 59c0 863c 1533 c0bd 6c2c d2bc
00000230: d242 983c b227 803d 1622 9b3d 8e31 50bd
00000240: cdc2 f43b 1f92 4f3d 8a27 00bd d080 84bc
00000250: a748 f6bb a48b cf3c 7e24 9bbd 67a5 80bc
00000260: 912a 463c 8a32 01be 80d5 14be 0303 503d
00000270: 4c7c 933e d8cf d0be ab6b aabc 7825 4e3e
00000280: 8fb1 64bc 96ca 403d 8bf7 e23e 55cf 50be
00000290: 87ec 273c 620a 82be b5b5 7dbd fff9 e1bc
000002a0: 7e34 0c3e 728b 43be 49d5 abbd e08c 443d
000002b0: c451 0f3e c31e 83bc 6f6b 443c 9738 8dbd
000002c0: 624d 773e 1d41 b3bd af03 d0bd 4ee4 ecba
000002d0: 4c7c 453d 9fec b4bd 20f8 643d 47a4 4c3c
000002e0: 9e19 b13d 9571 ed3c 9155 7a3d a523 c2bd
000002f0: 6580 403c d5fd 9abc 38de a7bd 9c3b 0c3c
00000300: b1ac 663d cce8 143e 8bfc 49bc ed03 a53c
00000310: 1e22 233d 8c0c 9ebd c654 383d 3a17 143c
00000320: 488f 8c3d 58af 5a3d 7ae1 89bc 8b68 e7bd
00000330: da1a 18bd 5c79 4abd 597f a4bc 7284 5e3d
00000340: 88cd 1d3f bb86 54bf 51c6 d1bc 5e67 423e
00000350: 4f7d 2e3e bf90 acbd a2d8 da3e 466d 5dbe
00000360: 4781 58bc 41f3 a4be f326 e8bc 4ebd 5a3d
00000370: 5336 9f3d 5993 63be df91 4bbd bdd4 a33d
00000380: 51a1 8b3e b067 633d e247 edbb ff12 55bd
00000390: 08a4 4f3e e3f2 0dbe c3e6 83bd 0ba1 bbbb
000003a0: a625 68bd 4735 383c adab 0e3e bcfa a53b
000003b0: 591f 193d f981 bebc 2335 d83d 3e64 3cbc
000003c0: 11c2 9a3c 8aae 253d 084f 31bd 03ca 533d
000003d0: 86d7 973d 1e8b 863e 22e0 77bc 677d dd3c
000003e0: 968d 163e 7810 b7bd 0650 043e 276b a23d
000003f0: b23b 04be 49b7 f03d 7085 153d 3240 24be
-0.05122157 0.042902395 0.056597855 -0.060722485 0.04200952 0.11738238 0.33890253 -0.16332914
-0.0031809097 -0.23391879 -0.08323727 -0.057891678 0.17894283 -0.12356797 0.016991844 -0.0032353702
0.18105781 -0.02413904 -0.0013823832 -0.0863969 0.11043447 -0.13893084 -0.026700841 0.07293892
-0.051520325 -0.07435727 0.050222814 0.004614777 0.029047534 0.004041423 0.044916492 -0.021136621
0.031649027 0.030733164 -0.11580856 -0.004409434 0.10166187 -0.024534231 0.021583322 0.012374562
-0.026140234 -0.008189045 -0.038780123 -0.024965342 0.066687115 0.08452275 -0.09429777 -0.09106135
0.019542852 -0.1808214 -0.23850134 0.08144051 -0.031424914 -0.024538595 0.027806722 0.07713659
0.10454678 0.04147654 0.42532638 -0.18158141 0.07735086 -0.16935189 -0.058196913 -0.12501472
0.13706052 -0.21754701 0.03582141 0.096170284 0.20457955 0.0023670802 0.0365878 0.006228945
0.073263906 -0.1325131 -0.026137192 0.036953762 0.046499494 -0.061247524 0.09046475 0.01572643
-0.05953464 0.009015799 -0.017205745 -0.0077303834 0.028803803 -0.01375853 -0.016234703 0.065589055
0.068073474 0.044273037 0.0049128933 0.059997655 -0.016701827 -0.09345879 -0.0012639749 -0.05152437
0.04263531 0.0157657 -0.04020243 -0.01958095 0.026534395 -0.21223901 -0.18010753 0.07213562
0.110043876 -0.20176439 -0.042223375 0.09979007 0.04443046 0.065459654 0.42370775 -0.24380785
0.07487899 -0.2050129 -0.10516746 -0.11647508 0.05117926 -0.25274333 0.0011156931 0.037593238
0.20297775 0.007662161 -0.005299847 -0.052073244 0.185726 -0.13154244 -0.054740883 0.05138335
-0.014270849 -0.012747127 0.058334954 -0.018951308 0.06770867 0.008142143 0.020589635 -0.0148692
-0.01156014 0.01644914 -0.09384743 -0.025655948 0.01858655 0.06257571 0.07574861 -0.05082851
0.007469511 0.05067646 -0.031287707 -0.016174704 -0.007515985 0.02533514 -0.0757532 -0.01570387
0.01209511 -0.12616935 -0.14534569 0.050784122 0.28805768 -0.40783572 -0.020803293 0.2013148
-0.013958349 0.0470682 0.44329485 -0.20391591 0.010249264 -0.25398546 -0.061940867 -0.027585028
0.13691899 -0.19096163 -0.0839029 0.04798591 0.13996035 -0.01600588 0.011988505 -0.06895559
0.24150613 -0.08752654 -0.101569526 -0.0018073411 0.04821424 -0.088341944 0.055900693 0.012490339
0.08647464 0.028984824 0.06111676 -0.09479455 0.011749362 -0.018919865 -0.08196682 0.008559134
0.056317035 0.1454193 -0.012328277 0.020143474 0.03982746 -0.07717237 0.04500272 0.009038741
0.06863266 0.053389877 -0.016831148 -0.11299237 -0.037134983 -0.049432144 -0.020080255 0.05432553
0.6164174 -0.8301808 -0.02560726 0.18984744 0.17039989 -0.084260456 0.42743403 -0.21623716
-0.013214416 -0.32216838 -0.028338885 0.05340319 0.077740334 -0.22224177 -0.04969966 0.07999561
0.27271512 0.055518806 -0.007241235 -0.05202007 0.20277417 -0.13862185 -0.06440499 -0.005725985
-0.05667653 0.011243171 0.13932677 0.0050652903 0.03738341 -0.023255335 0.1055701 -0.011498509
0.018891366 0.040449657 -0.04328826 0.051706325 0.07414155 0.26278013 -0.015129121 0.027037336
0.14702448 -0.08938688 0.12921152 0.07930594 -0.12913397 0.11753709 0.03650421 -0.16040114

bias f4 [128]
00000000: 9472 88bd f9f9 f43c 471b 39bd 6d5a 4d3d
00000010: 996d 41bd 8bd8 94bd 9c12 383d bf30 b8bc
00000020: 0a3c 163d a54c d7bc 594d d13c 08a3 1c3d
00000030: 2d1a a23c 3d32 e23c 9dd6 d4bb edc0 24bd
00000040: 5f7d ba3c 0cf2 4ebc 5728 af3d b498 4dbd
00000050: c2b8 44bc 0c55 c1bc 413d 083c 11cb bf3c
00000060: 1f19 0e3d f44e a7bc 05aa c3bc 25c6 0fbc
00000070: ca0b 8ebc c492 2cbd 647e 40bd 2658 87bd
00000080: bc3a 543d 1354 b13b 3a28 1d3a 053a fdba
00000090: 5ba3 7d3d 5282 45bd 8405 aabd cbb1 623d
000000a0: 52d7 83bd 5a33 3dbc d0af 8d3d 1284 40bc
000000b0: be37 913d 51a3 0c3d ab46 a6bc 9e0f 0bbc
000000c0: 303b 813d 8109 2abd d965 2fbd 4223 87bd
000000d0: 8cce 3fbc 6432 113d c48c 7abd d8a7 a5bc
000000e0: 05da 843d efa2 8439 24ca e0bb 1e26 d13c
000000f0: 4059 91bd 907c 2cbc 25e8 f0bc f863 58bd
00000100: b93d d7bd fbd5 81bc a746 e7bd f00f 743d
00000110: bae9 05bd 08da 8d3c 2934 85bd e08f cbbb
00000120: aa79 8a3c feed debd 88ff 2bbd 8887 b9bd
00000130: b782 5f3d 3ccc 7bbc 8839 6f3d 8574 6e3d
00000140: 3295 d6bd 2e8e a7bc b73c 00bc ae92 c1bd
00000150: ce47 293c b1b8 333d 0137 03bd 2458 0a3d
00000160: 2bbc 053d 7851 7c3d d801 93bb ab31 c8bb
00000170: aa20 8e3b 5c03 5d3c 2e27 b7bd d9a9 493d
00000180: b591 4ebd 8866 8ebc a7e3 023d 1ba8 5ebd
00000190: 134b 81bd 1655 79bc 958e 81bc b73e aebd
000001a0: 8d52 6b3b 5066 c83c d8dd f9bd 36eb 183d
000001b0: 1a4a d6bc fae8 b3bb 3f85 473c 0783 35bc
000001c0: 0260 8ebd 5dc0 4d3d aec6 e9bc 7eca 5bbd
000001d0: 69bb ebbc a969 79bd aedf 813c 91d9 31bd
000001e0: d410 db3c 3e54 703d 9919 5dbd 2f31 72bb
000001f0: 9292 b9bb 1d29 8dbb 7f5f 9e3d 55e4 ad38
-0.06662479 0.029904353 -0.04519203 0.050135065 -0.04722366 -0.07267865 0.044939622 -0.022484181
0.03667835 -0.026281664 0.025549578 0.038241416 0.019787872 0.027611846 -0.0064953105 -0.04022305
0.02276486 -0.012630951 0.08552616 -0.050194457 -0.01200694 -0.023600124 0.008315385 0.02341226
0.034691926 -0.02042339 -0.023884783 -0.008775269 -0.017339606 -0.042132154 -0.046995535 -0.0660861
0.051813826 0.0054116338 0.0005995069 -0.0019319659 0.061923366 -0.048219986 -0.08301833 0.055345338
-0.064375535 -0.011547888 0.06918299 -0.011750238 0.0709071 0.03433544 -0.020297369 -0.00848761
0.06310117 -0.04151297 -0.04282174 -0.06598522 -0.011706959 0.035448447 -0.0611694 -0.020221636
0.064868964 0.00025298397 -0.0068600345 0.025530871 -0.07097101 -0.010527745 -0.02940757 -0.052829713
-0.105098195 -0.015849104 -0.11292773 0.05958551 -0.032693602 0.01731588 -0.065040894 -0.0062122196
0.016903717 -0.10885237 -0.04199174 -0.09059054 0.05456802 -0.0153685175 0.058404475 0.05821659
-0.104776755 -0.020453539 -0.007826976 -0.09451805 0.010332061 0.043877307 -0.032034878 0.033775464
0.032650154 0.061601132 -0.004486304 -0.0061094365 0.00433739 0.0134895705 -0.0894302 0.049234245
-0.050431926 -0.017382875 0.031955387 -0.054359537 -0.063131474 -0.01521804 -0.015815059 -0.08508056
0.0035907358 0.024462849 -0.122005165 0.03733369 -0.026158381 -0.0054904195 0.012177764 -0.011078603
-0.06951906 0.05023228 -0.02853712 -0.05365991 -0.028775888 -0.06089178 0.01585373 -0.043420378
0.026741423 0.05867409 -0.05397949 -0.0036955585 -0.0056632245 -0.0043078796 0.07733058 8.291813e-05

weight f4 [128, 128]
00000000: 6340 80bd 3614 47bd 1391 823d a2fa 0cbe
00000010: fcce 353e 42dc 303d 6182 4cbc 092e 6aba
00000020: 7619 c83c 0bdc 9e3c 542a 3f3c b40c 83bd
00000030: 88af c8bd 533f 953d 34b9 a33c b00d 65bd
00000040: 2673 de3d a691 d93d 1e63 493d 548e db3d
00000050: 50a2 ad3d d61b 583d e200 18be 540c de3b
00000060: 4f2f 503d 81c6 c2bd 9c1e 42be ee00 f0bd
00000070: 1aa4 59bc 2c7d 833c 3af3 11be 7691 cabd
00000080: 998e e6bd 0180 d63d b299 2bbe fcee 60bd
00000090: 32cf dcbd 8528 6e3d 8ca2 d9bd abec 4fbd
000000a0: 85d1 fc3a 0b80 e2bd dd1b debb 17e4 033e
000000b0: 685e bbbd 58c8 e03d c673 fa3d 6dfa 33bd
000000c0: ee77 81bc 1c60 5cbc f0a7 963d 7a50 993d
000000d0: b0a6 81bd b63e de3d 4277 a1bb a623 9fbc
000000e0: 3979 26be f1c1 f7bd f5c7 cbbc f993 b0bd
000000f0: 5554 633d 6770 0d3d 020e 7ebc 52f9 b3bc
00000100: ffdc 103d cc1d be3d 3648 db3d 590a 583c
00000110: 9cb2 3dbd 09a4 5339 0854 b1bd e019 24be
00000120: 83d3 e2bb d28b a5bd e4c9 0e3c 0b1f c0bd
00000130: 04ff c63c ce06 29bd c207 22bd 4f1c 8dbd
00000140: 3a7e 893c f12b 923d c950 aabc b932 5ebd
00000150: a34f d539 7e0b 603d ab27 dbbc 7511 c63d
00000160: 57c9 f9bd 2af9 883d d8a6 073d b5e2 2abd
00000170: ea76 823c 5df9 2bbd 220c 2bbe 6a72 023d
00000180: ee26 2abd 2990 e8bd 8770 af3d de9d e13b
00000190: cacb 96bc 954d 2b3d 788d d9bd 8701 2dbc
000001a0: 71bb bd3c 7bc0 883d 8a4d 2dbd a9d9 c9bc
000001b0: ca3c 7fbd 3a32 21be b2aa a23b e33c 3f3d
000001c0: d5cd 1b3b 1602 b73c 48b0 05be 242f a2bd
000001d0: 4704 0b3e 6c3d 733d 97d7 8ebd 33a0 933d
000001e0: 1f68 933d cbe7 47bc 6b51 ec3b a67f b3bc
000001f0: 2578 c93c cb81 b23d 6c12 173e a536 f9bd
00000200: 86aa febd b25d c7bc 8bb7 373d 8e00 5f3d
00000210: a930 f2bd a349 23bd ffcc debd 673e 82b9
00000220: eba4 a3bd 9e1e 00be 069a 2abd 99c2 f23d
00000230: 8ece 99bd 699f db3d ce76 5cbe 7547 f4bc
00000240: 60c6 60bd 4aeb f5bd 76f2 2fbb f2e2 f0bc
00000250: f1eb aaba 3b7c b73d 2968 be3d 9a98 1dbc
00000260: 5563 88bd b726 ce3c a98f 53bc 7be9 c6bd
00000270: f6e3 123b acd5 e63c 3219 c43b ad41 21be
00000280: 9c64 84bd f292 48bc 66d0 03bd 2a0d db3a
00000290: f568 0f3d f514 25bd 5513 9fbb 9414 2fbb
000002a0: dbea 19bc 9d95 22be f366 cbbd bd99 00bd
000002b0: 8ff3 b1bd 6e9e 5abd a1de 103c 8a37 7abe
000002c0: fa6f 29be 7527 383e 9c2c 82bc c397 68bb
000002d0: 643e 6e3c e9c4 f23d 08b5 523e 6781 00be
000002e0: 4f1f 30be 773d a33d 10c2 edbd 771b 8c3d
000002f0: a0f0 ca3d d737 8a3d bc3e 023d f6ce 9fbd
00000300: dfd7 a3bb 5aa4 0e3e 6933 47bd 0c51 f7bc
00000310: d20f 71ba ea3c bd3c 3f62 d6bd d1e7 9b3d
00000320: d343 4c3d 4857 02be 1bbb 34ba c9ab d73c
00000330: d44a 8fbd a65f 8c3b cc65 c83d aaf0 16be
00000340: b166 073e 5fd3 b7bb 05f4 3abe b371 623d
00000350: d496 2a3e dd65 f3bc 0701 153e 9f6d 04be
00000360: d4d2 4abd 7be1 c83b a263 1cbe a8e9 c93d
00000370: 34c6 e93c 56fc e1bb e9c0 10bd b436 49be
00000380: 5dce af3d 28ad 23be d2e8 01be 8e09 b73d
00000390: 3a55 9f3d 4899 07bd 3da1 0b3e e074 68bc
000003a0: 0517 09be c87b 3d3e 0e14 f1bc 2512 cebd
000003b0: 47b9 31bd c872 b5bd 46cb 79bd 33dd aabd
000003c0: 7a4b 94bd 6d71 1dbe 3a43 84bc a77c 0cbe
000003d0: 1344 6bbc 7e21 133b 7ea2 143b 7811 c1b9
000003e0: 74a5 273d b7ce 943d 2486 40bd 6785 cc3d
000003f0: d581 913d 97bb 563d 5c08 cabc 4340 0c3b
-0.06262281 -0.04860326 0.06375327 -0.13767484 0.1775474 0.043178804 -0.012482257 -0.00089332514
0.024426203 0.019392034 0.011667807 -0.06398907 -0.09799105 0.07287469 0.019985773 -0.055921257
0.108618066 0.10623483 0.04916679 0.10720506 0.08478224 0.05276092 -0.14844087 0.006776372
0.050826367 -0.09510518 -0.18956989 -0.11718927 -0.013283754 0.016050898 -0.1425294 -0.09891026
-0.11257667 0.104736336 -0.16757849 -0.054915413 -0.10781707 0.05814411 -0.106267065 -0.050762814
0.0019288516 -0.110595785 -0.006778224 0.12879978 -0.09148866 0.109757125 0.12229113 -0.043939997
-0.015804257 -0.013450649 0.0735625 0.07486053 -0.06330621 0.10851805 -0.0049275467 -0.019426178
-0.1625718 -0.12097538 -0.02487562 -0.086219735 0.055500347 0.034531023 -0.015506269 -0.021969471
0.03536701 0.09283027 0.107071325 0.013186061 -0.046312913 0.00020183636 -0.08658606 -0.16025496
-0.006922187 -0.08083309 0.008715127 -0.09380921 0.024291523 -0.041266255 -0.03955818 -0.06890165
0.016783822 0.071372874 -0.020790474 -0.05424759 0.0004068586 0.05469846 -0.026752314 0.096712984
-0.12196606 0.06688149 0.0331181 -0.04172011 0.015925843 -0.04198586 -0.16703847 0.031847395
-0.041541032 -0.11355621 0.08566385 0.0068852743 -0.018407721 0.041822035 -0.10622686 -0.010559446
0.023160668 0.06677338 -0.042310275 -0.024639921 -0.062313832 -0.15741816 0.004964196 0.046688925
0.0023773808 0.022339862 -0.13055527 -0.079191476 0.1357585 0.05938475 -0.06974714 0.0720829
0.07197594 -0.01220126 0.007211854 -0.021911453 0.024593422 0.08716162 0.14753121 -0.12168626
-0.124348685 -0.02433667 0.044852775 0.05444389 -0.118256874 -0.039865147 -0.10878944 -0.00024842026
-0.0799044 -0.1251168 -0.041650794 0.11853523 -0.075101 0.107237644 -0.21529695 -0.02981923
-0.054876685 -0.120077685 -0.00268474 -0.029405091 -0.0013040287 0.08959242 0.09297211 -0.009618903
-0.06659571 0.025164945 -0.012912669 -0.097125016 0.0022413707 0.028178059 0.005984449 -0.1574771
-0.06464502 -0.012242066 -0.032181166 0.0016712297 0.035012204 -0.04030319 -0.0048545995 -0.0026715146
-0.009394373 -0.15877385 -0.099317454 -0.031396616 -0.08689033 -0.053373747 0.008842141 -0.24435249
-0.16546622 0.17983802 -0.015890412 -0.0035490848 0.014541242 0.11853964 0.2057687 -0.12549363
-0.17199443 0.07970708 -0.1160928 0.06841176 0.09909177 0.06748932 0.03179811 -0.078031465
-0.005000099 0.13929883 -0.048633013 -0.030190013 -0.0009195778 0.023100335 -0.10467958 0.07612575
0.04986937 -0.12728608 -0.0006894336 0.02632703 -0.06996694 0.004283863 0.09785041 -0.14740244
0.13222767 -0.005609914 -0.18257149 0.055284213 0.16659099 -0.029711658 0.14551173 -0.12932442
-0.049517468 0.006130395 -0.15272382 0.098590195 0.028536893 -0.006896536 -0.035340223 -0.19649774
0.085842825 -0.15984023 -0.1268647 0.08937369 0.077799276 -0.033105165 0.13635726 -0.014188021
-0.13387688 0.1850425 -0.029428508 -0.100620545 -0.043389585 -0.088597834 -0.060984872 -0.08342972
-0.072409585 -0.153753 -0.016145337 -0.13719426 -0.014359492 0.0022450383 0.002267986 -0.00036824844
0.040929273 0.0726599 -0.047002926 0.09986382 0.071048416 0.052424993 -0.02466219 0.0021400608

bias f4 [128]
00000000: ea9f 84bd 3d48 22bd eb64 553d 6391 42bd
00000010: 6264 f6bd 2034 f8bd edff 873b 8ea0 2bbe
00000020: c8d7 e6bd 82fc e23c c979 a5bd a665 d4bd
00000030: 1f47 61bd 469a 83bd cc65 ac3c 30ec f7bd
00000040: 3ee4 353c 6785 a2bd b1a8 f4bd d069 29bd
00000050: 9035 f5bd 5640 313c 1064 863c a1dd a7bb
00000060: 956f 843d d8e0 f0bd 8207 5abc 2520 893d
00000070: 048b 10be 4eef c5bd 2bdf 26bc b379 803c
00000080: 0c36 8bbd 5341 d33c 761d 543b a517 71bd
00000090: a51a 1e3d 8107 8dbd d6bc bb3c 870e 683d
000000a0: 47f9 683d e939 723c 620f 68bd 1fd0 02be
000000b0: 2273 c8bd a6b3 8fbd 2ada dbbc f507 0ebe
000000c0: b552 0fbd 5c71 75bd 5742 863d d5b5 34be
000000d0: 5db4 0f3d 0a87 debd 3c38 c2bd d000 16bd
000000e0: b2bf 0fbb 0e6f b5bd 6246 b03c 5541 15be
000000f0: 4ebc 79bc eaaa c8bd 7c42 0cbc 6b9e a8bd
00000100: 854c 88bd cfbf efbd 6762 60bd b928 c9bd
00000110: 174f 5f3d bab8 cebc eaba c03c 4c8f e53d
00000120: cdfc d9bd 1a08 4abc ab84 1abe 50c8 78bb
00000130: b291 e13c cb67 5cbd c05f b83c e389 88bd
00000140: 87e2 fb3c 3142 b53d 8fc6 2437 7e6b 92bd
00000150: 0116 a5bd 049c d13c 2626 3fbd f75d 94bd
00000160: 316d 463d 8b6c 0fbd a1fb aa3c 03cf 6ebd
00000170: 35bc cfbd 80e3 cd3c 1597 043e d5f3 86bd
00000180: 1aee 88bd 617d debd 57c4 ccbd cc4d f93d
00000190: 1ae1 a5bd f700 ccbd 507e 4cbd 88ce 1abd
000001a0: 8b3c 3b3d 72fd 53bd 5d01 943c 5434 e1bd
000001b0: 3bdb 2ebe 4b37 8e3c f335 c03b fdb1 e0bc
000001c0: f683 cbbd c333 813c 16f6 b6bd 5ffd dbbd
000001d0: 087f 183d 13bb 423c eefb 1ebe 1fbd 4abe
000001e0: b437 96bd 50c1 ad3b bd60 a4bd 7d14 45be
000001f0: 8889 8cbd 689b cabc 6b1f 14be 4a1b 04bd
-0.06475814 -0.039619673 0.052098196 -0.047501933 -0.12030865 -0.12119317 0.004150382 -0.16760466
-0.11271626 0.027708296 -0.08079869 -0.103709504 -0.054999467 -0.0642591 0.021044634 -0.12105596
0.01110178 -0.07935601 -0.11946238 -0.041360676 -0.11973107 0.010818562 0.016405135 -0.005122856
0.06466595 -0.117616355 -0.013307454 0.06695584 -0.1411553 -0.09664784 -0.010185043 0.01568303
-0.06797418 0.025787985 0.0032366193 -0.05886044 0.03859963 -0.06886197 0.022917192 0.05665448
0.056878354 0.014784315 -0.056655295 -0.12774704 -0.09787585 -0.07016687 -0.026837427 -0.13870223
-0.034990985 -0.05992256 0.06555622 -0.17647488 0.035084117 -0.108656004 -0.09483382 -0.03662187
-0.0021934328 -0.088590726 0.021517936 -0.14575703 -0.015242649 -0.09798224 -0.008560773 -0.08233341
-0.0665522 -0.117065065 -0.054781344 -0.0982222 0.054518785 -0.025234569 0.023526628 0.11208972
-0.10643921 -0.012331033 -0.15089671 -0.0037961192 0.027535293 -0.053809922 0.022506595 -0.06666925
0.030747665 0.08850516 9.821392e-06 -0.07149409 -0.080608375 0.02558709 -0.04666724 -0.07244485
0.048443977 -0.035015624 0.02087194 -0.05830289 -0.101433195 0.025132895 0.12948258 -0.06589476
-0.06686039 -0.10863758 -0.09998386 0.12173042 -0.08099575 -0.099611215 -0.04992515 -0.03779462
0.045712035 -0.051755376 0.018067056 -0.10996309 -0.17075817 0.01736035 0.0058658062 -0.027428621
-0.09937279 0.015771752 -0.08933656 -0.10741686 0.03723052 0.011885422 -0.15525791 -0.19798706
-0.07334843 0.0053025857 -0.08026264 -0.19246097 -0.068621695 -0.024732307 -0.1446511 -0.032252587

weight f4 [128, 128]
00000000: 6444 48bd ad1b 01bd 9f5a afbc af44 843d
00000010: 0ec2 ff3d 8319 be3d 225d eebd 7c07 d93c
00000020: 0971 bd3d 9465 77bd 2d3e d1bb 30a5 12bd
00000030: 58df 8abd dc78 52bd fa7c bcbb a8f8 d03c
00000040: 515f 61bd 9204 f73c 3113 02bd b538 15bc
00000050: 1564 bdbd f014 403d 0eee 333d fb78 6c3d
00000060: 45c0 933d 2780 63bc 99b7 923d 4083 923d
00000070: 88b0 78bd c99a 023e bbdd 943d c997 2c3d
00000080: 2dbd 80bb f19d 44bd 90c9 c23d d154 063d
00000090: 4537 95bd f7fc 283d 89e8 76bc 8a1b 5f3d
000000a0: 20ba 893d cd2c cc3c b02b bfbd ab9a 38bd
000000b0: ae05 bf3d 8469 423d db6d 823a d591 d5bc
000000c0: 3467 cabd 84f2 8dbd 9a80 81bd 905f c9bc
000000d0: e393 183d 645d 9c3d 69d5 1a3d d724 9b3d
000000e0: fda5 89bd 0f2a 073e addb 50bd a385 a93d
000000f0: b340 c83c 4bfa 86bc 02d8 7ebd 07f0 97bd
00000100: ea72 613c d84a 38bd 8a4c b43d 3478 893d
00000110: 313c 95bc 0a50 0cbd 46fa f73d 4c19 b8bb
00000120: 102f 0b3d fb5b adbb 7830 54bd b9cf 003e
00000130: 0dec a53c 6477 04bd d929 39bb f65a 113c
00000140: ae26 843d 0a32 623d 4141 5cbd b4bc 163d
00000150: dd0a 953d 2d68 cb3d b617 34bd 1398 aebc
00000160: 8449 78bd 8c9f 983d 6df1 be3d 4b48 743d
00000170: 7016 bbbd b740 aa3d e525 563c 715e b5bd
00000180: dfcd fa3c 0d4e c53d a19e 37bc b6e9 7ebd
00000190: ead8 db3d 2c02 923d 052c eb3d 3ba7 e0bd
000001a0: d7af 21bd f0ec fa3c b5e0 cd3c f85a 1dbd
000001b0: 42a6 443d 8d5a 48bd a41d 74bc b7d8 febc
000001c0: 1554 143d b0ca 943d 27fd 623d 6ae3 eebd
000001d0: 5fbe ba3d bc3f e43c 65c6 773d 0c67 8fbd
000001e0: 2bf4 23bd 0800 8bbd ac4e 823b 5a8a 8bbd
000001f0: d614 3d3d 333c 8d3d 288f b23d 6d65 033d
00000200: 086b 32bd 6e61 22bd 5765 da3a 1e38 e33d
00000210: a689 1abd 80fc bbbd 7919 6fbd d42d e73c
00000220: 5b18 3dbc c8bc 213d a898 8d3d a627 a6bc
00000230: f5ef 05bd 56b3 a93d 2b8c 1b3d 3546 643d
00000240: 2492 4fbd 9ef9 2b3d 2909 45bd 1ad9 d13d
00000250: 92f8 93bd 4d36 3b3b 3f57 e23b 7f2a ac3c
00000260: 278a 10bd 7234 c13d 8ae1 833d 322e 7f3d
00000270: 08a6 55bd 6656 0c3d 6a9a c13d 72cc ec3b
00000280: ff82 313d fe06 91ba b282 acbc cb77 0fbd
00000290: 400d 863d 115c 463d f672 92bd 0913 833a
000002a0: 93b6 913d 0633 c5bb 0cb4 123d 0cd7 91bd
000002b0: 127f 4ebd 4581 19bd 136a febb c1e6 74bd
000002c0: cf16 943c c6fc 84bd e2dc 233c 2a8f 83bd
000002d0: 1998 b6bd 0472 87bc f7ec 9a3d bcac 073d
000002e0: 8c22 d9bb cf4a 9e3d 97da 13bd 65ae 06bd
000002f0: b94c 553d ac14 f93c 2aee ec3b da51 973c
00000300: a961 82bd c5a9 c6bb a827 b6bc 64a9 b5bd
00000310: 6c02 713c 73b4 aa3d edaa 2cbc e8d6 9cbc
00000320: c552 563d f0c3 1a3d e7ff 42bd 6939 673d
00000330: 6e51 15bd 0538 5d3c 2dac 27bd fb57 2e3d
00000340: e5e1 f13b 1082 93bd 133f 98bd ff1b 6d3d
00000350: 8927 04bd 7167 babd 5512 63bd 26f0 163d
00000360: ded3 093d cde0 ea3c c907 2d3d 0eb9 febb
00000370: 4967 7abd 9aa6 3fbd d856 16bc 5512 793d
00000380: fa92 4fbd 9f65 263d 9e57 54bd 0f27 afbb
00000390: ff73 6fbd 034d e4bc 3879 a1bc 7ae4 8b3d
000003a0: 8e4b d93c de1e b23c 6640 f13c a307 563b
000003b0: 5322 bf3c 0422 3ebd d373 2fbd b573 0ebd
000003c0: b350 383c 0119 44bb 29f8 873b b2d3 c5bd
000003d0: 5e41 85bd 8831 f5bc e3ac 2b3d 0345 9bbc
000003e0: 837b 14bd 7841 82bd ff35 9d3b e318 643d
000003f0: 6e3e cebd 5ca3 df3c 266d d73d c297 693d
-0.048893347 -0.031520534 -0.021405516 0.06458413 0.12488185 0.0928221 -0.116388574 0.026492827
0.09250075 -0.060399607 -0.0063855858 -0.035802066 -0.06780881 -0.05138479 -0.005752203 0.025509194
-0.05502254 0.030153546 -0.031756584 -0.009107758 -0.09247605 0.046894968 0.0439282 0.057732563
0.07214407 -0.013885534 0.07163925 0.0715394 -0.06071523 0.12754358 0.07268854 0.04213694
-0.0039288015 -0.048002187 0.09511101 0.03279573 -0.072859325 0.04125687 -0.015070089 0.054469623
0.06724954 0.024923706 -0.093345046 -0.045069378 0.09327255 0.04746391 0.0009950952 -0.026070515
-0.09882966 -0.06931022 -0.06323357 -0.0245817 0.03725041 0.07635 0.03780118 0.07575386
-0.06721113 0.13199638 -0.05099075 0.08277442 0.024444913 -0.01647677 -0.06221772 -0.074188285
0.013760308 -0.04499325 0.08803661 0.0671238 -0.018217178 -0.03425602 0.12108283 -0.00561825
0.03398043 -0.005290506 -0.051804036 0.1257924 0.02025416 -0.032340422 -0.0028253703 0.008871784
0.0645269 0.055223502 -0.05377317 0.036801055 0.07277463 0.09931979 -0.043967925 -0.021312749
-0.060616985 0.07452306 0.09323392 0.059639256 -0.09135139 0.083131246 0.013070558 -0.08855904
0.030615745 0.09634028 -0.011207254 -0.062234603 0.107347324 0.071293205 0.114830054 -0.10969397
-0.039474335 0.030630559 0.025131563 -0.038416833 0.04801012 -0.04891448 -0.014899645 -0.031109197
0.036213 0.07265222 0.055417206 -0.116644695 0.09118342 0.027862422 0.06049194 -0.070020765
-0.04002778 -0.06787115 0.0039766636 -0.06813498 0.04616245 0.06896248 0.08718711 0.03207915
-0.043559104 -0.039643697 0.0016662282 0.11094688 -0.037728928 -0.0917902 -0.058373902 0.028220095
-0.011541451 0.039486676 0.069138825 -0.020282578 -0.032699544 0.08286159 0.03797547 0.055731017
-0.05067648 0.0419861 -0.04810444 0.10246487 -0.072251454 0.0028566301 0.006907373 0.021016357
-0.035288002 0.09433831 0.064395025 0.062299915 -0.052160293 0.034262083 0.0945328 0.00722652
0.04333782 -0.0011064706 -0.021058414 -0.035026353 0.06545496 0.048427645 -0.07150833 0.001000018
0.071149014 -0.0060180454 0.035816237 -0.07121095 -0.050414152 -0.037476797 -0.00776411 -0.059790377
0.018077282 -0.06493525 0.010001393 -0.06423791 -0.08915729 -0.01653386 0.07564729 0.033123717
-0.0066264328 0.07729112 -0.036097135 -0.03288116 0.05207512 0.030405365 0.00723054 0.018471647
-0.063662834 -0.0060627186 -0.022235706 -0.08870199 0.01471005 0.08335199 -0.010538799 -0.019145444
0.05232503 0.037784517 -0.04760733 0.056451235 -0.03645461 0.013502126 -0.040935684 0.042564373
0.007381665 -0.07202542 -0.074339055 0.057888027 -0.032264266 -0.09101761 -0.055437405 0.036850117
0.033649318 0.028671646 0.042243753 -0.007773525 -0.061133657 -0.046789743 -0.009175979 0.0608085
-0.050677277 0.040624257 -0.05184137 -0.0053452323 -0.058460232 -0.027868753 -0.019711122 0.06830688
0.026525285 0.021743234 0.029449653 0.003265836 0.023331797 -0.04641916 -0.042835068 -0.034778316
0.011249709 -0.002992213 0.004149456 -0.09659518 -0.065066084 -0.029930845 0.041912924 -0.018953806
-0.036250602 -0.063601434 0.0047976966 0.055687796 -0.10070501 0.027299576 0.10518865 0.057029493

bias f4 [128]
00000000: 640f 023e 589b 0ebd a258 c0bd 2368 c93c
00000010: 31dd 893a e329 dc3d 7745 5a3b dccf c7bd
00000020: dcf1 213d a7bf febd 6b7b 2bbe a7d5 f8bd
00000030: 1a56 ee3b 8fb2 94bd 8add 793a e184 f1bb
00000040: c9e4 e1bd 7ea3 4b3d 8d37 f1bc 1b8c 8c3c
00000050: f23b c13c f742 fcbd 1b60 6bbd 3b9d 413d
00000060: 3ec6 09bc b320 693d f1ee 55bd 3151 3abc
00000070: 13c2 c2bd b869 afbd 3c19 993c b48b 68bd
00000080: 8164 33bd 22aa babc 2373 163c 7c10 43bc
00000090: 4d9a f9bd 24c5 4abd 40aa 79bd 12a8 cebd
000000a0: cb3c c7bc 8571 663d 575a 9ebd f5ec ecbc
000000b0: 9ec6 093d 93fc 1dbe 0d90 29bd 226b 0b3c
000000c0: 8977 41bd 4b73 283d 637c 3dbe 36fb fdbd
000000d0: 8313 c7bd 732d 913d f9b5 26bd 0584 843c
000000e0: 87b0 34bd 6e09 11be 94df b43d b83d 74bb
000000f0: a47b 44bd 6a9e 863d cf5e 0f3d 04d8 13bd
00000100: 6bad c23d ac2f 8abc f77d 96bc 0bed c0bd
00000110: 6040 763b f7a6 c9bc 6093 a83d 7cb5 893c
00000120: 8033 09be 327a ccbd 1635 7a3d d014 2d3d
00000130: 30d0 82bd 87bf 333d 13c4 86bd 034e ee3b
00000140: cb01 7abd a243 543d 9b4a a4bd 819e f4bc
00000150: c901 78bd 7fbe 8b3d 2d22 953d bdb2 103d
00000160: 9e43 32bd d163 2dbe 5788 97bd def1 353d
00000170: b7ca eb3c c8db ffbc 3478 f2bd ce47 e4bd
00000180: 9b3d 04be ce57 42be d4ea 78bd 6746 103c
00000190: 60d2 74bd d5b2 5fbc ce94 38bd 7253 21be
000001a0: 1b45 5a3c e9e5 8f3d 2328 9b3b d6dd 0dbd
000001b0: 1c16 a1bd 7709 b6bc 78e5 a9bd da04 8a3c
000001c0: 8677 d9bd 5f01 a2bc 8526 003d 1332 6e3c
000001d0: de3d d1bb ea41 c6bc d53c 07bd 0b4a c4bd
000001e0: 8968 a8bd 393d abbd ca06 26be a1b7 99bd
000001f0: 5bbc cfbd 311b a9bd 5097 c1bd 1d5f 89bd
0.12701184 -0.034816116 -0.09391905 0.02458579 0.0010518191 0.10750177 0.0033305564 -0.09756443
0.039537296 -0.124388985 -0.16746299 -0.12150126 0.0072734477 -0.0726062 0.0009531608 -0.0073705767
-0.110299654 0.049716465 -0.029445434 0.017156651 0.023588154 -0.1231746 -0.0574647 0.047269087
-0.008409081 0.05691595 -0.052229825 -0.011371897 -0.09509673 -0.08565086 0.01868879 -0.056773856
-0.04379702 -0.022786204 0.009182724 -0.011905786 -0.12187634 -0.049504414 -0.06095338 -0.100906506
-0.02432098 0.056260604 -0.07732075 -0.028921584 0.03363668 -0.1542838 -0.041397143 0.008509429
-0.04723314 0.041125577 -0.18504481 -0.1240143 -0.097205184 0.07088747 -0.040700886 0.016176233
-0.044113662 -0.14163753 0.08831707 -0.0037268233 -0.047969475 0.06573184 0.035002526 -0.03609468
0.09505733 -0.016868435 -0.018370612 -0.09420212 0.0037574992 -0.024615748 0.082312346 0.016810171
-0.13398552 -0.099842444 0.061085783 0.042256176 -0.06387365 0.043883827 -0.06580367 0.0072724833
-0.061036866 0.051822312 -0.08022042 -0.029860737 -0.060548577 0.068234436 0.07281909 0.035326708
-0.043521516 -0.16932608 -0.07399052 0.044420116 0.028783185 -0.03123273 -0.11839333 -0.11146508
-0.12914126 -0.18978807 -0.060770825 0.008805848 -0.05977094 -0.013653477 -0.045063786 -0.15754488
0.01332214 0.07026274 0.0047350093 -0.034635387 -0.07865545 -0.02222131 -0.08295721 0.016848017
-0.106185004 -0.019776044 0.031286735 0.014538306 -0.006385549 -0.024201352 -0.033017 -0.09584435
-0.082230635 -0.08361287 -0.16213527 -0.075057276 -0.10143348 -0.082571395 -0.09452689 -0.067075945

weight f4 [12, 128]
00000000: 709b b9bc c7a6 c73b 92c5 56bd 135e 273d
00000010: bc57 2bbc 2782 6d3d 8616 70bc 660f 113c
00000020: 5556 ad3c f041 7b3b 971c 583c 87e3 8d3b
00000030: 85eb 103d 4d79 013d a51a b43d 7677 59bd
00000040: ddf6 d93c 2cb4 f93c 6516 85bd 019c 653d
00000050: dfa6 e2bc 0ecd 87bc e234 b63a 137b 90bb
00000060: e7fd 33bc 7753 e5bc a828 103c 49b7 5a3d
00000070: 9422 3e3c 4273 02bd 9ac6 d93b c55b 36bc
00000080: dc2b df3c 75da 773d b2df e3ba c578 22bd
00000090: 6568 a6bd a00c 123d 736b 8fba 6fe3 9f3c
000000a0: f372 d1bc b5ed b73c 0230 133d 9efb 4f3c
000000b0: da9a 0f3c aa2a f23d 7f3e 3b3c 91ba f43c
000000c0: 7de5 1ebd f724 a03b 8e49 d0bd 78e0 66bd
000000d0: b3d7 09bd f3a6 2fbc fac0 d4bc 0aed a8bc
000000e0: d254 cbbc c0e7 893b ae8d 633d ef3c 20bd
000000f0: 5bdb 953d 965d b63c 7919 cbbc 8e99 b0bb
00000100: fda8 eebc d4c0 aa3c 0c64 1d3d 7069 e23d
00000110: f126 01bd 508d 59bc 53f4 683a 18ae b9bc
00000120: 1d09 c03c a80b 763d 162f 8dbc 202e c33c
00000130: 4ed1 153b a961 ef3b 1a7a 7b3d e206 a7bc
00000140: f8be 7f3c 9e83 1fbd 5596 c9bc fdab 8a3d
00000150: 9529 c43c 0b6e 5e3c bfb9 c6bc 2cc6 99bc
00000160: 775c 53bc a461 133e e2a6 093d c79d 02bc
00000170: ddce c1bd f3bb db3c 6bb8 0d3d cb78 2d3b
00000180: 7c12 013d 05c6 9b3d b02b ed3c 3ca9 a4bb
00000190: a065 18bc 4d10 f4bb 6bec d03b ddbe 54bd
000001a0: fccc 5cbb c0c4 083d a0e3 80bc 602d 20bd
000001b0: 81e6 423d 9bf8 5abc 4a35 e83c 4a00 6cbc
000001c0: 8b94 363d 7e0a 5bbd dbbb 82bd 1c32 2fbc
000001d0: d2ad e1bc ba43 1a3b 90c5 65bc 9987 19bc
000001e0: ffae 5a3b 425c 7dbc 9559 2ebc ba63 67bd
000001f0: 48d5 b73d f50d 233c 2355 1f3d 5384 96bd
00000200: 96b9 e23b e4da 9ebb 9e94 b2bd ffb9 20bd
00000210: 7175 06bb 0454 a53c 0722 39bd 71c6 26bd
00000220: 576d 483d 8e3a dbbc fcf2 83bd ebf4 bc3c
00000230: 22b6 6abc 7877 bb3c 396e 433d c76c bf3c
00000240: 0411 2b3c 31d8 32bc 2673 db3c 5290 debb
00000250: ac31 87bc ac49 803c aa6c e33b 0e3a c33b
00000260: 0090 a43b f589 22bc 9624 913c da36 21bd
00000270: 4ca7 6ebc fc0c 393d 0531 773c 31e5 56bc
00000280: 29b4 d6bc 1e6f b2bc 2f7d 8ebd 4cfe ee3c
00000290: 40fc 9ebc 46b3 54bc ab05 4c3d adbe 3abd
000002a0: 7bce a9ba 7fda 383d be92 f5bd 63e3 ad3b
000002b0: b10f 063d 1911 f53c f016 65bc 14a0 793d
000002c0: 4a0e 9e3d 049e 973c c249 fe3d 2e47 38bc
000002d0: ffa6 36bc 7fed 913c e3eb 033d ebfb 083b
000002e0: c609 4439 9fca 32bc 3108 733d fdb6 a83c
000002f0: 2710 213d b491 7a3d f0c7 7fba 4faf a5bc
00000300: 2b7d d63c 4e83 173d f036 983d 67f9 b2bd
00000310: a168 a8bd 0741 2ebb 47c6 6dba 4268 043d
00000320: d766 abbc 63f9 9cbd 6fe2 763c 61f3 943d
00000330: 7a65 ddbb c37f 43bb 5ac2 003c 78cd 3a3c
00000340: aac1 a5bc 1777 543c 0ced f1bc d3fb 3bbc
00000350: a600 fdbc a622 193c cc0a 02bc 8930 d7ba
00000360: fa07 ff3c 27e8 8b3c a14f a73c 40a7 68ba
00000370: 1960 e03c b82b d23c 62d6 9bbd f4ea 823d
00000380: a7d6 4f3b 021b 9dbd 87ca 26bd c04f 84bc
00000390: 62a8 10bb b460 f7bc f9e0 c7bd 103a 783d
000003a0: 8c3f 013c f1b5 9a3c 086c 79bc 699a 763d
000003b0: b61f 8c3c 28ad 97bc 9a38 eebc 2034 dabb
000003c0: 51bb 32bd 195b 863c 722b 8e3c 5e51 c03b
000003d0: b160 f4bc f029 04bc 0234 30bd 6034 c8bc
000003e0: 9a09 013c b0be 95bb b3a4 6fbd c824 09bd
000003f0: 418f 7dba 6e71 00bc b857 52bd 4901 51bc
-0.022657126 0.0060928795 -0.05243451 0.0408612 -0.010457929 0.05798545 -0.0146538075 0.008853769
0.02115933 0.0038338862 0.01319041 0.004330102 0.03538086 0.031609822 0.087941445 -0.053092442
0.026606971 0.03048142 -0.06498412 0.05605698 -0.027667461 -0.01657727 0.0013901258 -0.004409203
-0.010985828 -0.0279939 0.008798756 0.05339745 0.011604924 -0.0318482 0.0066459896 -0.011130278
0.027242593 0.06051107 -0.0017385392 -0.039665956 -0.081253804 0.03565657 -0.0010942057 0.019517628
-0.025567507 0.022452215 0.035934456 0.012694268 0.008764947 0.11824544 0.011428474 0.029874118
-0.038793076 0.004887219 -0.101702794 -0.056366414 -0.033652972 -0.010720956 -0.025970925 -0.020620842
-0.024820719 0.004208535 0.05555504 -0.03912061 0.07317229 0.022261422 -0.02479242 -0.005389399
-0.029133314 0.0208439 0.03842549 0.11055267 -0.031531278 -0.01327832 0.0008886505 -0.022666022
0.023441846 0.06006971 -0.017234366 0.023825705 0.002286035 0.007305343 0.061395742 -0.020389024
0.015609495 -0.03894388 -0.024607817 0.067710854 0.02394561 0.013576041 -0.024258493 -0.018771254
-0.012900463 0.14392716 0.033606417 -0.007972187 -0.09463284 0.02682302 0.034599703 0.0026469703
0.03151177 0.076061286 0.028951496 -0.005025057 -0.009301573 -0.0074482323 0.0063758395 -0.051939834
-0.0033691516 0.03339076 -0.01573354 -0.039105773 0.047583107 -0.013364936 0.028345723 -0.014404366
0.044575255 -0.053476803 -0.06383487 -0.010693099 -0.027548704 0.0023538903 -0.014024153 -0.009370708
0.0033368466 -0.0154638905 -0.010641475 -0.05649159 0.08976227 0.009952058 0.038899552 -0.073494576
0.006919096 -0.004847871 -0.08719753 -0.03923988 -0.0020516778 0.020181663 -0.045198467 -0.040716592
0.0489324 -0.02676132 -0.0644283 0.023066005 -0.01432565 0.022884116 0.04771254 0.023367299
0.010441069 -0.010915802 0.026788305 -0.0067921067 -0.016503178 0.01566013 0.006940444 0.0059578484
0.005022049 -0.009920587 0.01771764 -0.03935895 -0.014566254 0.0451784 0.015087371 -0.013116167
-0.026208954 -0.0217815 -0.069574706 0.029173993 -0.019407392 -0.012982195 0.049810093 -0.045592
-0.0012955213 0.04513025 -0.119908795 0.0053066476 0.03272981 0.02991538 -0.0139825195 0.060943678
0.07717569 0.018507965 0.12416412 -0.011247439 -0.011148213 0.017813442 0.03220738 0.0020902108
0.00018695657 -0.010912566 0.059333984 0.020595068 0.039322045 0.06117411 -0.0009757271 -0.020225195
0.026182732 0.036990456 0.074323535 -0.08738976 -0.082230814 -0.0026589052 -0.0009070378 0.03232599
-0.020923061 -0.07664754 0.015068634 0.07272983 -0.0067564817 -0.002983079 0.007858837 0.011401527
-0.020233948 0.012967846 -0.029531978 -0.011473614 -0.030884098 0.00934664 -0.0079371445 -0.0016417663
0.031131733 0.017078472 0.020423712 -0.000887502 0.027389573 0.025655612 -0.0760925 0.0639247
0.0031713636 -0.07671167 -0.04072049 -0.016151309 -0.002207302 -0.030197479 -0.09759707 0.060602248
0.007888686 0.018885585 -0.015223511 0.06020585 0.017104965 -0.018515185 -0.029079724 -0.006659046
-0.04363567 0.01640086 0.0173547 0.0058690747 -0.029831262 -0.008066639 -0.04301835 -0.024439037
0.007875824 -0.004569851 -0.05850668 -0.033482343 -0.00096725306 -0.007839544 -0.051353186 -0.012756654

bias f4 [12]
00000000: ef4d 6f3b 80e7 533d 1d26 233c c252 143d
00000010: a6f3 603d 449c c0bd 895b 36bc 5b1c 0ebd
00000020: af95 883c c988 0a3e f998 de3d 1d6b b53c
0.0036514958 0.051734447 0.009957817 0.036211737 0.05491986 -0.09404805 -0.011130222 -0.03469501
0.016672937 0.13528742 0.10869021 0.022145802
