tested_policies/go2/flat_cuncurrent_se/exported/cuncurrent_state_estimator.pth (torch, 170873 bytes, 6 tensors)

fc1.weight f4 [128, 260]
00000000: d57f b63a c1c0 5f3b 35ae 643a 36a6 9dbd
00000010: 5be1 253d 1459 b2bc d510 9d3e d511 b5bc
00000020: fa12 003d 2701 b0ba a65b 853e 869d ddbc
00000030: 3d87 07be a47c fcbc 7f13 68be 72ad 56be
00000040: 181d 2cbd f85e 2dbd 50f8 173a a9a5 d3bd
00000050: 0b86 04be 2cc6 373c d9ab 553c 506a feba
00000060: 7523 9fbc 2f3c 033b ec86 063b d5a5 cbbc
00000070: 1a2b 503b f8b1 123c 38da 85ba 0415 e73a
00000080: 794d b3bb 4132 363c 1675 51bc 1c23 c13c
00000090: d95c b7bc 3f39 ef3b 9d76 a23b 9c11 033d
000000a0: e9c6 4eba 8d76 81bc 5621 80bc 4b1a 413c
000000b0: be11 43b9 9ac9 d5bc ad02 4f3d 4202 59bd
000000c0: e27e ba3c 58f3 b2bb 9ace f4b9 2163 963d
000000d0: 0df2 423b 5155 de3b bf39 f33a 280d 173d
000000e0: 8bfa 54bc 9fa1 85bd 411b 543e 5c1a cabd
000000f0: a8e3 47bc 4250 7c3d 9f28 853e 4190 a8bc
00000100: 1df1 abbd d3aa 66bd 23a0 7fbd 07ec b2bd
00000110: 59b7 e63c 38a1 613d 3a4c 1b3e 58fc 78bd
00000120: 22da cc3d 5453 6a3c 16dc e4bd bce0 053e
00000130: 5838 5cbc 0ac8 10bb 6f6d 89bc 679a 3fbc
00000140: 8d43 2cbb 68a8 3bbb 3d4b 0b3c fd69 babb
00000150: e3fc 9bbb 6983 433b c370 5139 743d 033c
00000160: 43b4 9e3b 3705 243d 2efa 853d 8b14 5d3d
00000170: b5e0 023c 7c3e 493b 4312 85bb 7667 c83c
00000180: 04de 92bc bf04 d9bc f58d 473b 0115 31bc
00000190: daf0 67bb b251 e63c 3961 893c 09f1 14bd
000001a0: ab76 603b c718 233c a5a1 923b 75fd 693f
000001b0: 62fd 443d b0e2 b1be fb61 c53c 0e84 07be
000001c0: 3b08 94bd 8dbc 0c3d 2d95 973e e7e8 233c
000001d0: 261e 12ba ebd2 dd3c 516b ed3c b6eb 8dbc
000001e0: 47b9 e1bd dc86 87bd fec3 763b d4e7 8cbd
000001f0: 6c66 9d3d 029f debd 6ee1 a9bc f86c 94bd
00000200: f1d1 b2bc f019 533b cd30 003a 5b7e 483f
00000210: 9ff5 83bb beca 32bc 24f8 19bc b563 bfbc
00000220: 3b67 1fbc 6319 ac3c 1ca6 20bc 0b05 5bbd
00000230: cf26 dabc ba23 353c fb07 c6bb 0bfe 2a3e
00000240: 65c9 3f3c fcdd ef3c 0a7b ab3c 60c1 4b3d
00000250: 5442 c63a d92c c7bd 398a b6bc 1b18 e63a
00000260: 0655 91bc 43e8 0f3b b0e5 17bc bf95 61bd
00000270: 1bb5 40bb efef 40bc 0ee2 a1ba 835a 78bd
00000280: bdeb f23c 4039 d739 baae 013e d531 54be
00000290: 1493 2f3b 8ed1 5dbd 36f5 603e 78a2 e53c
000002a0: d9c1 5fbc bbaa 68bd f0bd 763b f739 ce3d
000002b0: 8bdb d8bc f4b8 b53d d1be 82bc 4a12 dabd
000002c0: 52f5 633e 9d6a 14be 795c 893d 4526 00bd
000002d0: 8611 a2bc 660a 27bb e076 90bc 3ffd 0cbd
000002e0: 1027 c2bb 905f 98ba f572 b7bb ced9 39b8
000002f0: 30b2 283c 7078 c2bb 4aac d8bb 4a56 e63c
00000300: 0126 d73c 7ffb f43c 4bf7 b13c 3624 513d
00000310: 737d 803d a26c 293c 2579 443d 2b6c a23c
00000320: 2758 a9bd 49d4 9d3c f256 763c 53ad a4bc
00000330: a347 403c c335 c1bb cf84 fcba fe2d d7bb
00000340: f7e9 22ba c5c7 30bc f72c 9739 62bb f1bd
00000350: 2fec b43c c2f8 7bbd c1a5 0fbe f60f 50be
00000360: b384 3ebd 8fae 873c af71 893e d59f c23a
00000370: d462 153d f9f8 ce3c de33 9c3d 151a 353e
00000380: 897f e83c 281e ac3d c018 74bc 4709 043d
00000390: 8d0f 503e fe60 8abd 33d5 013e 6aec 13be
000003a0: 91dc 03bd 9723 44bb 5adc 60ba 13fb 07bd
000003b0: 2be1 96bb cc46 493c 2ed9 6b3c 09c8 22bc
000003c0: 7ca9 df3a df6c 8d3b 8116 aebb 944d 013c
000003d0: 6e43 183d 16d8 ef3c eaca 3f3d c5a4 de3c
000003e0: e5cf 843c 5731 bcbc 9b5f b4bb d9ce 08bc
000003f0: 2b4a 37bd 3443 1abd 1d69 843c 9b9e 8ebc
0.0013923595 0.003414199 0.00087234686 -0.07697718 0.04049812 -0.021770991 0.30676904 -0.02210323
0.031268097 -0.0013428078 0.26046485 -0.027052652 -0.13235183 -0.030821152 -0.22663687 -0.20964602
-0.042019933 -0.042326897 0.00057971943 -0.103343315 -0.12941758 0.011216681 0.01304146 -0.0019410346
-0.019426087 0.0020024886 0.0020527197 -0.024859348 0.0031763972 0.008953564 -0.0010212129 0.0017630165
-0.005471882 0.01112038 -0.012784263 0.023576312 -0.02238314 0.0073005254 0.0049579875 0.031999215
-0.0007887916 -0.0158036 -0.015640896 0.011786054 -0.00018603259 -0.026097108 0.05053966 -0.05298067
0.02276558 -0.0054611377 -0.00046693237 0.07343126 0.0029746324 0.006785073 0.0018556638 0.03687778
-0.012999187 -0.065249674 0.20713522 -0.09868309 -0.012200274 0.061599977 0.26007554 -0.020576598
-0.08395598 -0.056315254 -0.062408578 -0.08736425 0.028163599 0.05508539 0.15165797 -0.06078753
0.10002543 0.014302094 -0.111747906 0.1307401 -0.013441168 -0.0022091889 -0.016775815 -0.011694527
-0.002628538 -0.0028634313 0.008501825 -0.0056889043 -0.004760371 0.0029832965 0.000199738 0.008010257
0.004843266 0.040044036 0.065418586 0.05397467 0.007988145 0.003070741 -0.004061015 0.024463397
-0.01792813 -0.02649152 0.0030449603 -0.01080823 -0.0035391361 0.028115127 0.016769992 -0.03636268
0.003425042 0.009954638 0.004474836 0.9140237 0.048093207 -0.3474326 0.024094572 -0.13233969
-0.07228132 0.034359504 0.29606 0.010004259 -0.00055739505 0.027078113 0.028981837 -0.01732431
-0.11021667 -0.06617519 0.0037653442 -0.06880155 0.07685551 -0.10870172 -0.020737376 -0.07247347
-0.021828623 0.0032211505 0.00048900844 0.78317803 -0.004027083 -0.010912595 -0.00939754 -0.023362974
-0.009729202 0.0210082 -0.009805229 -0.053471606 -0.026629834 0.011055881 -0.006043432 0.16698472
0.011705731 0.029280655 0.020932693 0.049744964 0.0015125968 -0.09725351 -0.022282707 0.0017554791
-0.017740738 0.0021958507 -0.00927107 -0.05507445 -0.0029404822 -0.011775955 -0.0012350695 -0.060633194
0.029653424 0.0004105065 0.12664309 -0.20722134 0.0026790546 -0.054154925 0.2196854 0.028031573
-0.013657057 -0.056803446 0.0037649833 0.1006965 -0.026471874 0.08873168 -0.015960129 -0.106480196
0.22261551 -0.14493795 0.06707091 -0.031286497 -0.019783746 -0.0025488376 -0.017634809 -0.0344212
-0.005925067 -0.001162516 -0.0055984207 -4.4310284e-05 0.010296389 -0.0059347674 -0.0066123353 0.028117318
0.026263239 0.029905079 0.021724364 0.051059924 0.062739275 0.0103408415 0.047967095 0.01982697
-0.08268767 0.019266265 0.015035378 -0.020102179 0.0117358295 -0.0058963015 -0.0019265654 -0.006566762
-0.0006214673 -0.010789816 0.00028834466 -0.118033186 0.022085277 -0.06151653 -0.14028074 -0.20318589
-0.04651327 0.016562728 0.26844546 0.0014848659 0.036471203 0.025265204 0.076270804 0.17685731
0.028381126 0.08404189 -0.014898479 0.03223541 0.20318432 -0.06756781 0.12678985 -0.14445654
-0.03219277 -0.002992844 -0.0008577757 -0.033198427 -0.004604479 0.012284946 0.014395041 -0.009935387
0.001706406 0.004315957 -0.0053127413 0.007892031 0.03717368 0.029277842 0.046824373 0.027178178
0.016212413 -0.022972746 -0.005504561 -0.008350098 -0.044748466 -0.037661746 0.016163403 -0.017409613

fc1.bias f4 [128]
00000000: 8905 0e3d 3e8b d13d f1c1 1a3c 4e72 f1bd
00000010: 0bc5 b73d f3ce 6bbe a432 bbbd 2663 ee3d
00000020: 2427 583d a694 523c daec 123e adfb 82be
00000030: 5bb7 6dbc 5447 d93d a52e 6abd 689b ccbc
00000040: 08b1 253d a3a6 31bd 394e f7bc aac3 6a3d
00000050: d0f7 a83c d262 c73e f4d2 fdbb 1597 263d
00000060: 80df 7bbd 3835 1e3d 10ce 79bd e602 3c3d
00000070: 6db0 363d b1ae 20bd c0df 083e 44ad 77bb
00000080: 714e 473e fd97 e03d 3ade 143e d45e 9fbc
00000090: ac76 0f3e cdaf 783b 118c c83d 7225 153d
000000a0: cc21 60bb a366 04be abc1 0fbe d6b2 f1bd
000000b0: 1695 d83c 9203 d83d b3b5 a63d 15b8 5ebf
000000c0: 9c92 adbd c337 133e 6e40 333d d40a 1e3d
000000d0: 8f4e 60be 6e8e 3a3e b188 ec3a 7e36 80bd
000000e0: 683d a43d 7628 3cbe c404 143e fc45 a9bd
000000f0: 8bcd de3d 4943 473d cd9d 6cbd 709b 723d
00000100: 22e8 9d3b 431e d4bd d047 c83b 9718 963b
00000110: 726f 1dbd 2a8c 023e 443d d43d 418b ac3d
00000120: d5b6 613e 7a4f e43c 92f5 2f3e 585e 0abd
00000130: 888a c93d 326a 1abe c3ec d6bb 5b26 f9bb
00000140: 476a a5bd 596e 853d 916f c0bc 8a08 51bc
00000150: 942d c83c 533d 39bc f05a 0b3e 7ab5 95bd
00000160: 97f0 90bd f56c 12be 348e 6dbd 8367 253d
00000170: 8788 a73d d0ad 9abb 2bb8 9cbc e693 cfbd
00000180: 0961 e23d b82c f7bb 9e4b 7f3a 6df6 bebc
00000190: 4112 4a3d 9ebc 2ebe 7558 ca3d d0a4 a4bd
000001a0: 0de6 bebc 3068 cc3c 2345 0abd 10ab aebc
000001b0: a609 3b3d 1c71 89bd 6509 9d3d f440 cdbc
000001c0: 8cb7 363e 393c e3bd 02a7 cdbd f1c2 933c
000001d0: c9b8 543c 1fa0 c53c ee00 6dbd 960c 57bd
000001e0: 4006 a03d 3085 ad3c 9209 233e 6459 6bbf
000001f0: 5f43 1abc b72c b2bd f090 ba3d 3b60 08be
0.034673247 0.102316365 0.009445653 -0.1178938 0.0897313 -0.23028164 -0.09140518 0.11640005
0.052771702 0.012852823 0.14348164 -0.25582638 -0.014509047 0.10609308 -0.05717339 -0.024976447
0.040452033 -0.043371808 -0.030188667 0.057315506 0.020625979 0.3894258 -0.007746095 0.040671427
-0.061492443 0.038624972 -0.060987532 0.0459012 0.044601846 -0.0392291 0.13366604 -0.0037792483
0.19463517 0.109664895 0.14537898 -0.019454397 0.14010113 0.0037946582 0.097923405 0.036412664
-0.0034199832 -0.12929778 -0.14038722 -0.118016884 0.026438277 0.10547556 0.08140125 -0.86999637
-0.08475229 0.1437674 0.043762617 0.038584545 -0.21904968 0.18218395 0.0018046108 -0.062603936
0.08019525 -0.1837481 0.14454943 -0.082653016 0.10879048 0.048648153 -0.057767678 0.059230268
0.004818932 -0.103573345 0.0061120763 0.004580568 -0.03843636 0.12748781 0.10363248 0.08424998
0.22042401 0.027869929 0.17183521 -0.03378138 0.09840876 -0.15079573 -0.006558986 -0.0076034493
-0.080769114 0.06515188 -0.023490699 -0.0127583835 0.024435796 -0.011306125 0.13608909 -0.073100045
-0.07077139 -0.14299376 -0.057996944 0.04038192 0.081803374 -0.004720427 -0.019130787 -0.10135631
0.11053664 -0.0075431727 0.0009738746 -0.023310864 0.049333815 -0.17064139 0.09880153 -0.08039248
-0.023303056 0.024952024 -0.03375734 -0.021321803 0.0456635 -0.06711027 0.076678075 -0.025055386
0.17843455 -0.11095471 -0.1004162 0.018037291 0.012983509 0.024124203 -0.057862215 -0.052502237
0.07813692 0.021181673 0.1592162 -0.91933274 -0.009415477 -0.08699935 0.09109676 -0.13317959

fc2.weight f4 [64, 128]
00000000: b2ca 133d 3936 64bd ccc0 bfbd 4933 49bd
00000010: 9d50 5c3d ffc7 453c 7a25 a23d 701f 75ba
00000020: 9bb7 aebd 8301 633c c1ab 00bd bac2 3abd
00000030: 949d a23d 0cbc 6ebb d72f e73c e0b0 8fbc
00000040: 7a96 1dbb 8728 82bd 51d7 583c 1230 3ebd
00000050: 6d71 943d 269c e83c 5f84 9d3b aad7 c93e
00000060: e86c 6abd b29a ec3c 50a1 c23c 833b 26bc
00000070: 5578 55ba 1b42 12bd d19d 843d da71 ffbd
00000080: 496c 94bb 7b1c 463d 134b 4abe 30bc 09be
00000090: 8bb5 90bd da21 acbc 32d9 ffbc 96f8 42bd
000000a0: 52e0 8fbd b9f8 833d fe81 e2be c708 9e3d
000000b0: 3682 16bd 7313 f03d 1078 cc3d 7ff4 6ebf
000000c0: 858d 01bf 1acb 1fbc 2e05 86bc f70e bd3d
000000d0: e903 c83c eb2e da3d d757 c5bc f04b fb3a
000000e0: 6f99 51bd 3c23 5f3c c268 ca3c f8a2 a6bd
000000f0: 8bf1 4e3e add9 b93d 7dfe d0bc 934e fbbb
00000100: 0f41 93bd 0ba7 2b3c 9ad3 253d 0404 3c3d
00000110: 1249 41bd 7b89 6abd 35ec aebc cb1e d33d
00000120: 17a5 cdbd bbba 56bd 31b6 6abc b9ef b3bd
00000130: 41ac a7bc df86 c3bc ed73 fc3d c032 423e
00000140: 3abc 823d 0ee3 4bbc 7844 c73d bc0d 11bd
00000150: 6521 e73c c50d 0c3c 7249 ecbd e325 a23d
00000160: 05e2 9f3d 1ae4 ad3c ff43 44bd a563 a7bd
00000170: d9e2 8bbe ff59 cb3c b71f 743d 647a 9dbc
00000180: ee83 af3d 0f34 ae3b 8e1a 8b3d d56b b6bd
00000190: 3edb 2cbb 1a1b f5bb 4388 973c 679b 99bd
000001a0: d845 143c c708 523c aee9 5a3d 4342 6cbc
000001b0: bfe5 62bd d317 fbbd 4061 56bd 99fa debc
000001c0: badf b3bd 842e 62bb 4108 3b3d d71d 423c
000001d0: e455 41bc b4e9 14bc c29a 833d a7bc c0bd
000001e0: b763 2abb 9d0c 813c f43e 83bb a5ab 55be
000001f0: a16c 6f3b 534c e8bd a839 0c3d 3917 303d
00000200: 930f f43d 4b99 023e 6869 a1be d736 953c
00000210: dc6a 2cbd c0c4 32bd b821 09be 11ee 30bd
00000220: 3275 b13d 551d 12be 5fca 73be 2d18 dbbe
00000230: 013d 813e 244c a6bd 9644 d83d 5d22 a73c
00000240: fc28 48bd 617c eb3d 1cae 773e a35c 42bf
00000250: 2fba d6be aa31 bf3c 69b0 f83d de92 03be
00000260: 4d54 53be fb6b 253d 81ac 893d 4bc2 04bc
00000270: b5da b4bd 78aa 76bd 97c9 d8bc d85e 04bc
00000280: d010 8ebd d8a3 94bc 37a7 83bc e2af ae3c
00000290: 8e7b 16be 18b6 a3bc 3a10 c03d 4135 6e3d
000002a0: cd2d e7bd fc85 4fbe 0198 db3d 2664 7f3b
000002b0: 2f9f 40be f139 093d 48f7 953c 04f2 b73b
000002c0: 09a5 473e e3a6 4dbc cb44 c93d 5b60 9fbd
000002d0: 63f4 283c 7d83 d03c b5f0 183d 60d0 d8be
000002e0: d895 933d 5998 0d3e 386d 5b3e 9fb9 40be
000002f0: 3f9e c83d 5c5c 0abe 3540 803d 9e50 5ebe
00000300: 908d a2bd fcc8 943e d060 c23d aded 3c3c
00000310: 7cfd fe3c 6198 52be e15b 253c 4a5d f73d
00000320: c9ef b33c ae1d 45bd 5650 34be 8a09 84bc
00000330: c6c1 84bc 5f55 f93d 0ac8 3dbe 381f 043e
00000340: 00fd 413d a74d 1f3d 6292 c43d 5038 05be
00000350: c3b2 093e 548b 5fbd be57 f0bd 2279 98bb
00000360: 1c7c a4bd 42cf 0b3e 0504 26be 9cc3 e33d
00000370: 38dd 63be 11d7 103e ebfb 63bd 60af 02be
00000380: b090 a7bd c91c ce3d 763c 223d 9dbd a23d
00000390: 1da5 823d 7a1e 42be 64a7 3bbe 6074 ab3d
000003a0: 943f 4ebe c1cd 2ebd c4a7 c53d bd9c e83d
000003b0: c22f a13d d4f2 5e3d c0fe 663d a9d2 1e3e
000003c0: bb84 32be 893b 3ebc b800 51bd d5e8 0ebd
000003d0: 3fde b6bd 059f 7abe 41a8 05bd 830b aebd
000003e0: 7980 513d 42b7 dfbc 722a 0fbe 49c4 73bd
000003f0: 0c8c 793d 6d4e 283d 2cbc e2bc fe4f 263e
0.036081977 -0.055715773 -0.09362945 -0.049121175 0.053787816 0.012071609 0.07917304 -0.0009350693
-0.08531114 0.013855341 -0.031413797 -0.045595862 0.07940212 -0.0036428003 0.028221054 -0.017540395
-0.002404599 -0.06355386 0.013234929 -0.046432562 0.07248197 0.02839477 0.0048070396 0.3942235
-0.057232767 0.028882358 0.02375856 -0.010146025 -0.0008143236 -0.035707574 0.064754136 -0.12472887
-0.00452951 0.048367005 -0.19755201 -0.13450694 -0.070658766 -0.021012235 -0.031231496 -0.04760035
-0.070252076 0.064439245 -0.442398 0.07716518 -0.036745273 0.1172246 0.099838376 -0.9334182
-0.50606567 -0.009753013 -0.016359892 0.0923137 0.024415927 0.1065348 -0.024089737 0.0019172411
-0.051171716 0.01361924 0.024708156 -0.081365526 0.20209329 0.090747215 -0.025511974 -0.007669279
-0.07190143 0.010476838 0.040485002 0.045902267 -0.047188826 -0.057260018 -0.021352867 0.10308608
-0.10041254 -0.052424174 -0.014325664 -0.08785958 -0.02046788 -0.023868022 0.123267986 0.18964672
0.063835576 -0.012444271 0.09729856 -0.03541349 0.028214166 0.008548205 -0.11537446 0.079173826
0.07806782 0.021226931 -0.04791641 -0.081733026 -0.2732151 0.024823187 0.059600558 -0.0192234
0.085700855 0.0053162645 0.06792174 -0.08907286 -0.0026375796 -0.0074800374 0.018497592 -0.07500344
0.009049855 0.0128194755 0.05344551 -0.014420095 -0.055394884 -0.122604035 -0.05233884 -0.027219104
-0.08782907 -0.0034512589 0.04566217 0.011847935 -0.011800263 -0.009088922 0.06426002 -0.094109826
-0.0025999376 0.015753085 -0.0040053073 -0.20866258 0.0036533254 -0.11342683 0.034234673 0.042990897
0.11917033 0.12753789 -0.3152573 0.018214626 -0.042094097 -0.043644667 -0.13391769 -0.043195788
0.08664931 -0.14269002 -0.23807667 -0.42791882 0.25241855 -0.081199914 0.10559957 0.020402128
-0.04886721 0.11498333 0.24187511 -0.759226 -0.41938922 0.023339111 0.121430226 -0.12848994
-0.20637627 0.04038618 0.06722356 -0.008102964 -0.088307776 -0.060221165 -0.026463313 -0.008079253
-0.069368005 -0.018144533 -0.016070945 0.021324102 -0.1469557 -0.01998429 0.09378095 0.058156256
-0.11288033 -0.20265955 0.10722352 0.0038969605 -0.18810724 0.033502523 0.01830639 0.0056135673
0.1949655 -0.012551996 0.09827574 -0.0778205 0.010312173 0.025453323 0.03733893 -0.42346478
0.07206315 0.13827647 0.21428382 -0.18820809 0.09795808 -0.13511795 0.062622465 -0.2171044
-0.07937157 0.2905959 0.09491122 0.011531276 0.03112673 -0.2056594 0.010092706 0.1207834
0.021964924 -0.048124008 -0.1760877 -0.01611783 -0.01620568 0.12174486 -0.1853334 0.12902534
0.04736042 0.038892414 0.09598233 -0.13009763 0.13447098 -0.054576233 -0.117354855 -0.004653112
-0.080314845 0.13653281 -0.16212471 0.11121294 -0.22252357 0.14144541 -0.05566017 -0.12762213
-0.08181894 0.10064084 0.03960844 0.07946322 0.06379149 -0.18956938 -0.18325573 0.08371806
-0.2014144 -0.04267669 0.096511394 0.113580205 0.07870437 0.054430798 0.056395292 0.15510048
-0.17433445 -0.011610874 -0.051026076 -0.034890015 -0.08929109 -0.24474724 -0.032631163 -0.084982894
0.05114791 -0.027309064 -0.13981035 -0.059513364 0.060924575 0.041090418 -0.027677618 0.16241452

fc2.bias f4 [64]
00000000: 9be7 de3d 9f4e 0cbe 595f 4fbd 8787 8d3d
00000010: 9592 b1bb f350 0f3e a569 aa3c 39f7 f63c
00000020: 295d 7bbc 6657 61be df24 a13d 7dd3 373c
00000030: 3897 bebd 6769 16bd d7e7 f1bd 09e5 0f3e
00000040: cffe 37bd 1deb 80bd 146a 273d 448f 13bd
00000050: 2b0b 04be 450f 9d3d 74bc d33d 2ca0 703d
00000060: 45da 5b3c b09d 8abe cfa6 a9bb 6d3f 8dbc
00000070: 91b5 313c 7879 8abd eb69 cc3d 0ba7 ac3d
00000080: 0967 c93c 8ce6 b0bd c98a bebb c139 673d
00000090: 160e 02bc afb8 c6be 1400 203e 014f cfbd
000000a0: 0c94 02be ee82 fb3d 59c6 20be 0006 88bd
000000b0: 51f0 75bd a756 ebbb 1d4d eabb bc21 73bd
000000c0: 9605 593d 1f6a 873d 38e2 ccbd e9a9 313c
000000d0: 53f5 823c 74ec 42be cda8 46bd 15ac 3bbe
000000e0: 6b3d 9dbc f779 713d f3dd f63c 3482 50ba
000000f0: 6d4f 53bd de51 a5bc 4cab db3d 41b5 d8be
0.10884019 -0.13701867 -0.05062804 0.069106154 -0.0054190853 0.13995723 0.020802328 0.030147182
-0.015342035 -0.22005996 0.07868361 0.011219856 -0.093061864 -0.036721613 -0.11811798 0.14052214
-0.04492074 -0.06294844 0.04087265 -0.0360253 -0.12894885 0.07668928 0.10338679 0.0587465
0.013418739 -0.2707343 -0.005177356 -0.017242158 0.010846511 -0.067614496 0.0998114 0.084302984
0.024585264 -0.08637723 -0.0058148843 0.056451563 -0.007937929 -0.38812777 0.1562503 -0.10122491
-0.12751788 0.12280832 -0.15700664 -0.066417694 -0.060043637 -0.0071819606 -0.007150306 -0.059358343
0.052983843 0.06612038 -0.10004085 0.010843732 0.01598612 -0.19035512 -0.048500825 -0.18327363
-0.019194325 0.058954205 0.03013513 -0.0007953972 -0.05158942 -0.020180639 0.10726032 -0.42325786

fc3.weight f4 [3, 64]
00000000: 8253 043e 972b 92be 0b40 66be dddb a9bc
00000010: cbc9 943d 8e8d adbd 0e8f fb3c 02e1 d73d
00000020: b1b0 d43c 80a2 6ebe aea6 ca3d 4da6 e33c
00000030: 5e71 3abd a48a 38bd f010 83bd 280a 81be
00000040: d1d0 943d 50d1 d7bd 0d9b 3a3d 9dfd c13e
00000050: 910d b23d 4449 edbd c8d6 4abe faa8 8f3d
00000060: f707 c53d 1848 f3bd 2889 963d 01b6 bbbd
00000070: 8928 5c3c 49f0 f6bc a821 adbd 6b68 0e3e
00000080: 4e9c 8f3d 493c aebd df9a c03c fd58 54bd
00000090: 717b bfbb 7dca 5e3d 1a4b 883c 8a3e a93d
000000a0: 909b 3a3e e003 6b3d 8e07 533e cadc ebbd
000000b0: 904f 18bd 85f6 233e 331b 7dbd 0a6c 0ebe
000000c0: d981 0abd d895 bebd 67fd dfbd a9a2 92bd
000000d0: 17a4 773d ad72 d5bc 0560 66bd 07c2 e83e
000000e0: d6f2 51bd df14 c23d 2ebf b5bd b058 fc3c
000000f0: 8b64 853d 411c 05bc ecbf ae3d a259 1bbd
00000100: 5257 8b3c 215a 15be aec0 4639 187e cfbd
00000110: 9607 ecbd dc9b 80be 9bc0 95bd 3e15 f8bb
00000120: 73f3 473d 174c 183c f4b5 d8ba 30ab 2dbc
00000130: bbe5 ffbc e69d 91bd 42fd 5ebc e48d 573d
00000140: 6a3e 253e 5a0c 26bc 0dc4 c53d af30 923d
00000150: 5982 02be f6d4 3b3d 1ddb 1b3e a9fd e43c
00000160: 5393 38bd 2766 703d 2de4 77bd 12d7 083e
00000170: 9e7c 8e3b 1e15 d5bd e661 79bd e872 aabd
00000180: fcfb 5b3d d294 ea3c d4ba 63bb 5d8b e9bb
00000190: bdb5 c63d 1542 3c3e b2e9 813e b071 9abe
000001a0: f970 8abd 2777 173e 5f69 b03d 3e7b 883c
000001b0: e8df 0ebe 2789 a93d 2ddb 0e3d 43f7 e7bd
000001c0: 6472 87bc d561 0cbd 26a1 67bd 13cd c93d
000001d0: 2702 a5bd d262 adbb 9580 48be 8c1c 3cbe
000001e0: a86f 07bd be5a f73c 0dc4 a43d ff3e 083d
000001f0: 76af a93a 88ab d53b cab4 8abc 97c9 103e
00000200: 5ba6 093d 6bd9 2cbd f33f 09bd ad4c 0d3c
00000210: 5d92 ac3d e5c3 fcbc 9ce8 bbbb d076 e83c
00000220: 5708 e1bd 0f79 21bc 5ea8 883d defc fc3d
00000230: ed1f c13d c932 c23c 25cd 0fbd 3516 9c3e
00000240: 6e6e 93bc 7d79 9fbc 04fb 173d 91bc 493d
00000250: 7a16 b33c 1fd6 563a 5734 35bb 20a6 b63c
00000260: e634 823d 8d17 cf3d 39ac b8bd bf02 5d3b
00000270: 1cbf 453d 17ba cf3d ca82 a0bd 4fc0 97bc
00000280: d90b 57bd 7eef 11bd 8590 ed3d b0ec d53d
00000290: 0c9d b53c 3b0b 31bc cd6d 713c b3aa be3d
000002a0: ef43 ca3e b6ab 613d f91b aebd 1215 35bc
000002b0: 7a16 beb8 d536 cdbd 75c9 dc3d 9d35 46bc
000002c0: 3cfc 61be 7e04 a2bd 16ec 37be 4da7 8b3d
000002d0: e01b c8bc 6ab1 9c3d bdc5 4a3c bd3e d73d
000002e0: 0674 1abd 6502 d0bb 11d1 8d3d cf37 d6bd
000002f0: d7db 01bd c775 51bd d305 0fbb be42 853e
0.1292248 -0.2854888 -0.22485368 -0.020734722 0.072650515 -0.08474265 0.030707862 0.10540964
0.02596316 -0.23304176 0.09895073 0.02778926 -0.04551827 -0.045054093 -0.06399715 -0.2520306
0.07266391 -0.1053797 0.045558024 0.37888804 0.08693994 -0.1158624 -0.19808495 0.070146516
0.0962066 -0.11878985 0.07350379 -0.09165574 0.013437399 -0.030143874 -0.08453685 0.1390702
0.07012235 -0.08507592 0.023511348 -0.05184268 -0.005843573 0.054392327 0.016637374 0.082638815
0.18223405 0.057376742 0.2060835 -0.115167215 -0.03718525 0.16012008 -0.061793517 -0.13908401
-0.03381524 -0.09305924 -0.109370045 -0.07159931 0.060459223 -0.026055658 -0.056243915 0.4546053
-0.051256977 0.09476637 -0.08874355 0.030804008 0.06513318 -0.008124412 0.085327 -0.037927277
0.017009411 -0.14585163 0.0001895453 -0.10131472 -0.115248844 -0.2511891 -0.07312127 -0.0075708916
0.048816156 0.009295485 -0.0016533718 -0.010599896 -0.031237474 -0.07110195 -0.013610186 0.05262555
0.1613709 -0.010134781 0.09656534 0.07138192 -0.12745036 0.045857392 0.15220304 0.027952986
-0.045062374 0.05869117 -0.06052034 0.13363293 0.0043483516 -0.104044184 -0.06088438 -0.08322698
0.053707108 0.028635416 -0.003474881 -0.007127209 0.097026326 0.18384583 0.25373608 -0.30164862
-0.06759829 0.14791547 0.08613848 0.016660329 -0.13952601 0.08278113 0.03487699 -0.11326458
-0.016534038 -0.034272987 -0.056550168 0.09853568 -0.08057051 -0.0052913213 -0.195803 -0.18370265
-0.033065468 0.030194636 0.08045206 0.033263203 0.0012945968 0.0065206923 -0.01693191 0.141394
0.033605915 -0.042199533 -0.033508252 0.008624238 0.08426354 -0.030855129 -0.0057345163 0.028376967
-0.10987919 -0.009855523 0.066727385 0.12352918 0.094299175 0.023705857 -0.03510775 0.30485693
-0.017996993 -0.01946711 0.03710462 0.049252097 0.021861304 0.00081953587 -0.0027649605 0.022296011
0.06357746 0.10111914 -0.09017224 0.003372356 0.04827796 0.10142916 -0.07837446 -0.018524317
-0.052501533 -0.03562879 0.115998305 0.10445535 0.022169612 -0.0108059 0.014735651 0.09309902
0.39504954 0.055095397 -0.08501429 -0.011052387 -9.0640926e-05 -0.10020224 0.107806124 -0.012097743
-0.22068876 -0.07911013 -0.17961153 0.068190195 -0.024427354 0.076510265 0.012376246 0.10510013
-0.037708305 -0.0063479417 0.06924642 -0.104598634 -0.031703796 -0.05113771 -0.002182354 0.26027483

fc3.bias f4 [3]
00000000: 0113 cabc 1182 463c 22c6 bbbd
-0.024667265 0.012115971 -0.0916865
