tested_policies/go2/flat_cuncurrent_se/exported/policy.onnx (onnx, 273175 bytes, 8 tensors)

actor.0.weight f4 [128, 260]
00000000: 477e 903c 1e8a b93d 019a 6ebd b91f 3cbd
00000010: bf9e e9bc 1016 a93d f1d0 e03e 6c1f 4abd
00000020: b9b2 73bc 82fb 2bbe 4816 93bc ccb7 cb3d
00000030: 5504 e2bb 18ba 69bd 955b 02bc 0ea2 33bd
00000040: 9a1f e73d 8789 593c cfff ad3c ec3c 0ebe
00000050: add1 953d 0a5a bcbd 8880 d9bc 8a5f 513d
00000060: 431d 23bd f1d1 253d d192 7dbd a138 e8bc
00000070: 2946 d63c fba0 953c 9e84 ba3c 523c a3bc
00000080: 37be 60bc 436e 2b39 90c9 9abc 6b3b 30bd
00000090: 6b0b 073d 43de 853d c192 4d3d 0e34 99bc
000000a0: 5889 e13c d03b 43bc 2527 98bd 9823 9b3c
000000b0: 2ad9 ec3d 14b1 8c3d 960c 91bd 18d0 a0bc
000000c0: 5ff5 2bbd 791a 10be 1449 4abe 0665 9d3c
000000d0: 83c9 603d a1d9 c33c 94ae e7bb 82a6 923d
000000e0: 59ef 253e 1ea1 f73c 3839 033f 388c 41bd
000000f0: 278d 863d 86e6 03be 191f 86bc 479f 3d3d
00000100: 1a33 81bd 3b03 03be 9422 213c 6627 603d
00000110: bad9 1a3e f74e 793d e365 5e3d 47d8 2abd
00000120: 7eb6 203d 5aee c8bd 017d 26bc b2d1 6ebb
00000130: df8f ff3b 6181 79b9 b2ed 113d 8efa 96bc
00000140: 443a 7cbc 9b15 8b3d 508a fb3c 0f66 ebbb
00000150: d677 ffbb f678 58bc 91c1 123d bee3 033c
00000160: eb35 fdbc eeab cf3d 0fc2 32bc 29b7 08bd
00000170: cb3e f63c 453a 11bd 7874 fc3c 5500 53bd
00000180: b15d 6a3c 17a0 7c3d 4d3f 39bc c434 eebc
00000190: 436e 353c 0805 93be e0ed 82be 7f00 663d
000001a0: 6afc 4c3e 73fe 03be 86ff 303e 214c c63c
000001b0: d2ab 303c 4238 82bc 99e9 f73e b036 d9bd
000001c0: d54b 813d 65e1 3bbe b57f a8bd dadb 003d
000001d0: 5f86 0cbe c03a 1bbe 4e7e d5bc 5cec 983c
000001e0: 6de5 1e3e b92a 813d 9e0a 193c df16 cdbd
000001f0: cc72 0d3e 9303 bbbd 4948 a6bc 96c0 01bc
00000200: 93d6 7cbb 0e21 46bd 22a4 ae3b df89 6ebb
00000210: 3b30 e03c 1222 96bd 8855 fdbb 2090 d03c
00000220: 59fa af3b 027c b93b c628 f53b 4fe7 00bd
00000230: 63d8 08bc 8697 693d d836 b93d 30dc 64bd
00000240: d897 6abc 7ce3 32bc d2c7 9c3c f0af c8bd
00000250: 3ed6 823c 4c44 363d a460 87bd 5966 4d3d
00000260: e6f4 cc3c 9cb1 50be b774 64be 993c 823d
00000270: ca5f a43e c579 92be 0deb a03d 6950 5b3d
00000280: 3980 3e3d 3931 43bd badd fa3e 433a f5bd
00000290: 2512 5abb ac73 60be b562 dfbc 7ce7 3f3d
000002a0: b0cf 49bd a970 a5bd 00bb e6bd f344 db3c
000002b0: 62b2 cc3d 15e2 923c af90 c53c f5c0 f6bd
000002c0: d520 353e a225 fbbb 75f4 63bd 1576 f6bc
000002d0: 5ca2 d93c 51ae 29bc 3303 c93c 6114 28bd
000002e0: 09ed 5e3d 45ac 173d 69e2 cc3c 5f90 d0bd
000002f0: c765 013d 5b6e 4ebc 583f c4bb eeb7 433c
00000300: 9d2f f4bb 728b 3f3e ed89 e83b 2d7d dfbc
00000310: 3f74 313d 51e5 1ebd 8925 5c3d 79d5 1dbd
00000320: 1811 13bc 1cae 4c3d a7b4 3a3b 37fb 86bd
00000330: 9cad f8bb a995 03be 87d0 c8bd e15c aa3d
00000340: e2a7 1e3f d342 48bf 2ddd 36bd a63e 783e
00000350: 0e0e c83d f113 023e 0091 f13e 6875 24be
00000360: d4db dcbc 8480 9cbe 07df b83d 6072 513d
00000370: 85e3 d3bd 51e3 e8bd 5212 bebd 6834 493d
00000380: fe46 653e 57a3 de3d 0a4f 9abb 1057 05be
00000390: 2c75 083e 8532 75bd 0278 1dbc 09f2 5ebd
000003a0: eddd 383c d905 1d3d 8793 b93d d370 48bc
000003b0: b8d5 c93c 7bc8 1abb 8065 c03d 8c76 8dbc
000003c0: 0b82 87bb 82c3 1d3d b013 cbbc 12a0 ef3b
000003d0: 5260 d53c c71c 623e d4b4 113d e4e4 e9bc
000003e0: 7d58 ee3c 2cfc d23d ed6a 9d3b b338 8bbd
000003f0: 977f e4bd b668 873d d6ef f6bc f1e6 33be
0.017638339 0.09059547 -0.05825234 -0.04592869 -0.028518079 0.08256161 0.4390941 -0.049346372
-0.014874154 -0.16795161 -0.01795496 0.09947166 -0.006897489 -0.05706224 -0.007956405 -0.04385572
0.112853244 0.013277418 0.021240143 -0.13890427 0.07315383 -0.09196861 -0.026550546 0.051116504
-0.039822828 0.04048342 -0.061907593 -0.028347315 0.026156502 0.018265238 0.022768315 -0.019926224
-0.013717226 0.00016348907 -0.01889494 -0.043025415 0.032969873 0.06536534 0.050188784 -0.01870158
0.02753131 -0.011916116 -0.07429341 0.01893787 0.11564858 0.068697125 -0.07082479 -0.019630477
-0.04198205 -0.14072599 -0.1975444 0.01921321 0.054879677 0.023907484 -0.007070372 0.07160665
0.16204585 0.030228194 0.51259184 -0.047252864 0.065698914 -0.12880906 -0.01637225 0.046294477
-0.06308575 -0.12794201 0.009834904 0.054725073 0.15122119 0.060866322 0.054296385 -0.041710164
0.039236538 -0.09811087 -0.010161639 -0.0036440906 0.007799133 -0.00023794688 0.035627075 -0.01843002
-0.015394751 0.0679123 0.030705601 -0.007183797 -0.007796268 -0.013212433 0.03582913 0.008049903
-0.0309095 0.10140215 -0.010910525 -0.0333778 0.030059239 -0.03545596 0.030817255 -0.05151399
0.014304564 0.06167611 -0.011306596 -0.029077895 0.011073652 -0.28714776 -0.2557211 0.056152817
0.20018163 -0.12890033 0.17284974 0.024206223 0.010783153 -0.015895966 0.48420408 -0.10606134
0.06313292 -0.183477 -0.08227483 0.031459667 -0.13723134 -0.1515913 -0.026061203 0.018667392
0.15517206 0.06306977 0.00934091 -0.10014128 0.13813323 -0.09131541 -0.02029814 -0.007919451
-0.0038580045 -0.048371367 0.0053296247 -0.0036398096 0.027366748 -0.07330717 -0.0077311434 0.02545935
0.00537042 0.005660535 0.007481667 -0.031470593 -0.008352372 0.05702927 0.09043664 -0.05587405
-0.014318429 -0.010918494 0.01913825 -0.097991824 0.0159713 0.044498727 -0.066102296 0.050146434
0.02501912 -0.20380253 -0.22310148 0.06359214 0.3210433 -0.28608528 0.078573324 0.053543482
0.046509 -0.047654364 0.4899729 -0.11974003 -0.0033274975 -0.21919125 -0.027268747 0.04685162
-0.04927033 -0.08078129 -0.11266136 0.026766276 0.09994961 0.01793007 0.024116842 -0.120485224
0.17688306 -0.0076643983 -0.055653054 -0.030085603 0.026566677 -0.010356502 0.024537658 -0.04103506
0.054425273 0.037029523 0.025010305 -0.101837866 0.031591203 -0.012599553 -0.0059889965 0.011945708
-0.007451965 0.18705538 0.00709652 -0.027281368 0.04332375 -0.038792912 0.053746734 -0.03853366
-0.008976243 0.04997073 0.0028489025 -0.06590884 -0.007589055 -0.1285006 -0.098053984 0.083184965
0.6197492 -0.78226966 -0.044644523 0.24242648 0.09768306 0.1270292 0.4718094 -0.16060412
-0.026960291 -0.305668 0.09026914 0.051134467 -0.1034613 -0.11371482 -0.09280838 0.049122244
0.22390363 0.10870998 -0.004709129 -0.13021493 0.13325948 -0.059862632 -0.009611132 -0.05443004
0.01128338 0.038335655 0.09061342 -0.012233931 0.024638042 -0.002361803 0.093943596 -0.017268442
-0.0041353754 0.03851653 -0.024789661 0.007312783 0.026046906 0.2208129 0.03557284 -0.028551526
0.029094929 0.10302004 0.0048040063 -0.06797924 -0.11157148 0.06611769 -0.03014366 -0.17568566

actor.0.bias f4 [128]
00000000: 0308 60bd afd2 183d 383d 1bbd 3b35 7a3c
00000010: 75ba febc a1e1 c8bd 4b8f 3c3d 603e 20bc
00000020: da4d 033d 4ee6 53bd 13b0 d93c 01e7 e13c
00000030: 4350 f6bb ccb4 043a d8b8 833c 3cfb 18bd
00000040: 0aa5 1cbc 1b1d 52bd 886d 733d 7888 a4bd
00000050: 01f7 433d 77e0 003a 4bc4 843c 31b3 673c
00000060: d937 b63c 6907 3bbd b7f6 08bc 640e 4dbb
00000070: 0d59 c2bb 6cdd 7ebd 3687 fabc 5651 46bd
00000080: a6de 233d 8cfb d2bb 0c3c 28bd b1c6 cc3b
00000090: 0520 893d 63b3 0dbd c11f 5cbd 3d76 583d
000000a0: 9907 26bd 3b2e 96bb b250 d13d 726f 01bd
000000b0: ad77 5e3d a841 103d 0316 32bd 769c 7dbd
000000c0: 2e9c 933c d5a6 dcbc 14d2 85bd 9ecd 75bd
000000d0: d725 41bd 9dd8 373d ca97 a0bd 11f0 14bd
000000e0: 556d 25bc 56ae 35bd 33dc 46bd e068 f43c
000000f0: 0fb5 d6bd 95f2 a9bb 38cf 6cbd f952 2bbd
00000100: 7b50 e0bd c23f 713d 9b29 7cbd 5633 893d
00000110: 3da7 18bd 9376 91bc 6265 80bd 3359 06bc
00000120: 3430 fd3a fcf3 a3bd 8a23 75bc fbf0 a2bd
00000130: 7209 c63c e924 05bd b188 db3d 3e29 833d
00000140: dd57 c1bd 8c61 afbc b3f7 ab3c f629 c1bd
00000150: 5d39 803c 2198 fd3b 728d 05bd d9ab 173d
00000160: e850 f63c d577 463d 0721 c1bc d67c af3b
00000170: 54a2 88bc 5f41 423d 2800 7dbd 9f74 be3c
00000180: 89c4 a0bd 7db5 3fbd 75b1 c73c 5634 30bd
00000190: 210e adbd 4116 3abc 62b5 a9b9 e126 15be
000001a0: 079c 063c 1944 673c 435b bdbd ddd2 563d
000001b0: aa2e 9cbb a570 40bd 14b8 403d bdce 32bd
000001c0: 6d3a 62bd 8c2f 833d bd99 13bd baa5 2fbd
000001d0: 03d1 45bd abbc 52bd 1f47 ce3c 4fe2 05bd
000001e0: 2ed0 203c 6bfe 9d3d 85d3 e6bc deff 04bd
000001f0: 4b5a afbc 08f7 b3bc 131a 333d c18d 7fbc
-0.05469514 0.0373103 -0.03790018 0.01527148 -0.031094769 -0.0980866 0.046035092 -0.009780496
0.032056667 -0.051733308 0.026573217 0.027575972 -0.007516892 0.0005062341 0.016079351 -0.03734897
-0.009560833 -0.05129729 0.05943063 -0.08033842 0.047842983 0.00049162604 0.016206881 0.014141844
0.022243427 -0.045661364 -0.008359603 -0.0031289095 -0.005931026 -0.062222883 -0.030582052 -0.04841741
0.040007256 -0.006438678 -0.04107289 0.006249272 0.0669556 -0.034594905 -0.05374122 0.052847136
-0.04053459 -0.004583148 0.102204695 -0.031600423 0.05431335 0.035218865 -0.043478023 -0.06191679
0.018018808 -0.02693502 -0.0653421 -0.060010545 -0.047155228 0.044884313 -0.078414515 -0.036361758
-0.010096868 -0.044355713 -0.048549842 0.029835165 -0.10483753 -0.0051863887 -0.057814807 -0.041827176
-0.109528504 0.058898695 -0.061563116 0.06699245 -0.037268866 -0.017756736 -0.06269337 -0.008199978
0.0019316734 -0.08005521 -0.014962086 -0.079561196 0.024174426 -0.032505903 0.10719431 0.06404351
-0.09440587 -0.021408819 0.020992136 -0.094318315 0.015652353 0.0077390824 -0.032605596 0.03702912
0.030067876 0.048454124 -0.023575319 0.005355458 -0.016678967 0.047425624 -0.061767727 0.023248969
-0.07849986 -0.04680394 0.02437661 -0.04301866 -0.084499605 -0.011357845 -0.00032369333 -0.14565612
0.008215911 0.014115357 -0.092459224 0.05244719 -0.004766305 -0.046982426 0.04705055 -0.043654192
-0.0552315 0.06405553 -0.036035288 -0.04288266 -0.048295032 -0.05144946 0.025180398 -0.032686528
0.009815259 0.07714542 -0.028177032 -0.032470576 -0.02140536 -0.02196838 0.04372604 -0.015597762

actor.2.weight f4 [128, 128]
00000000: cfea a9bd 9d95 b43c 4efa c53b 94b5 05be
00000010: 48af 223e 9797 12bd 4e70 123c 820e 373d
00000020: 106a 3b3d a4f9 10bc 9321 c33c f6db afbd
00000030: 914e bfbd 927e 5d3c e3ba 153d 38c5 f0bc
00000040: fc16 3bbc 8609 8d3c 9a9e fc3c 680b e83d
00000050: c62a f13c baa1 e9bb 79a1 b5bc 4d30 92bd
00000060: 3bc5 813d 17d6 c7bd 7efb f0bd f95a 30be
00000070: bfef 0b3d 4b39 a83d b86e 82bd 45b4 d7bd
00000080: 353a 33be 6a48 033e 890b bbbd 36bc 7ebd
00000090: 721c 02be b169 61bd 7f5e c4bd 92be a73d
000000a0: 1e93 14bd c075 85bc 58ca c4bd 700b cf3d
000000b0: 7c1f c0bd 10f0 a93d 7be7 ce3d 172b 02bd
000000c0: 4c14 6c3c 51ac fbb8 85c4 fdbc e270 a83d
000000d0: 2c27 233b 0f5f 2c3c d118 2f3b 3e48 09bd
000000e0: 8250 83bd 2c1b f7bd 46ed 3dbd 2e9d 12bd
000000f0: ba83 c83d d4b9 ca3c 2cde 8fbd 0040 abbc
00000100: ac49 0a3e aaf3 973d 7042 b0bc cf0f 013d
00000110: d789 1abe 82d3 ab3d 7ec3 97bd c3be c9bd
00000120: d788 563b a8ef a0bd 1f8f d1bc 36b6 53bc
00000130: 7322 d1bd c69c 68bd 7648 b7bd 3337 5bbd
00000140: 5d76 8abd 5a8c 863d c087 8cbd ab93 46bd
00000150: 16f7 eebd 879e 3f3d 36d4 f43c 8148 c03d
00000160: b5a3 19be 7a27 b83d 93ab 823d 7916 01bd
00000170: 7036 d53a cd4b 3d3d a5e3 f3bd c598 fdbc
00000180: ec7c 6abd 326c b5bb 65b4 d8b9 32b8 7a3d
00000190: eb05 9cbc 8b5d 533d 6366 17be 8569 ac3c
000001a0: f294 213c 9722 213c b36d 69bd 4d17 a5bd
000001b0: 93a6 c7bd 7e27 863c 565f 623d 9016 dc3d
000001c0: 4785 cc3b f814 843d 063a 6cbd 5c8c b13c
000001d0: ff57 6d3d 48ed 493d 36a1 0bbd 967f 443d
000001e0: 11be 0c3d ef31 77bd 165d cd3b e236 223c
000001f0: a235 e2bc 54e9 ec3d 4f90 123e e363 d7bd
00000200: 71de 923b 04a3 e9bd 80ae 10bd bfb3 bc3c
00000210: fe8c 24bd 15ca 063e 9375 58bd 86e5 2cbd
00000220: acac dbbd 1f17 c53d aa8b 1fbe d005 023d
00000230: 2544 b73d f075 953d cb12 00bd d742 0fbd
00000240: 7758 3cbd 3683 79bd fa76 5a3d 42e3 55bc
00000250: fb94 cb3c 465a 983d 6de3 89bd 218d eab9
00000260: e84e b9bd cbe5 573d 636e f0bd fc46 93bd
00000270: 252b 133e 0c9a d33d 42e9 853c f738 a1bd
00000280: 6b59 cbbd 12a1 05bd d420 343e 079d 10be
00000290: f7a0 723c b029 6dbd 35be 52bd 8b0c 843d
000002a0: 4f8b 6fbd 1881 20be 4784 b0bc 220a 50bb
000002b0: f761 ad3c 7dae 003d af45 073d 9f58 a33b
000002c0: ba9b a4bd bf49 1a3e 5e18 233e 7cc1 f2bc
000002d0: 6b34 c53d 30e9 1dbd ac54 ac3d a3e9 dfbd
000002e0: bfaf 57bc 5d9b 963d c5c6 7dbd 0e8f 643d
000002f0: 90b8 9f3d 46ab 123e 8fdd f83d b3e5 f6bd
00000300: 584d 5fbc 0fb0 3abc 3ecb c23b b83b 153d
00000310: 482d 833d 6a7f b13d fe1e 6f3d cc2a 64ba
00000320: c45e 2f3e 44b8 14be e872 363c 2524 ee3c
00000330: 68d1 873d fddc 463c 1f1d 31bc e461 42bd
00000340: b4bc 3a3d 7b6d 283d 3bf1 c9bd 1987 8d3d
00000350: 5034 053e d3af 0cbd c2fe a33d 7a0a 8abd
00000360: d115 f4bd 4c92 9fbc ff94 2cbd 8540 f63d
00000370: f2b1 3abd c139 56bd 487b 3d3d 8fd0 ecbc
00000380: 0cc3 0ebd 98be bcbd 3a63 55be c1f1 6e3c
00000390: cf4a 0a3e f939 a13d e3b2 c53d 2c6c a83c
000003a0: 78c5 e8bd dcf4 253e a48d 0ebe dd02 b7bd
000003b0: 4c08 93bd 3b74 54bd b529 28be 7fcd 973d
000003c0: aba1 ab3d beb7 53bd 9130 c23c 96d1 a5bd
000003d0: 1deb aabc a490 d3bd 0b73 1cbd e490 c13d
000003e0: c5b6 f3bc 5aa0 11bd 4595 61bd 0d2d a83d
000003f0: 2947 903d 7f84 c93c 53bd 36bc 40d6 ac3c
-0.08296739 0.022043997 0.0060418015 -0.13057548 0.15887177 -0.0357891 0.008937908 0.04469157
0.045755446 -0.008848581 0.02381972 -0.08586876 -0.09341157 0.013518946 0.036555182 -0.029390916
-0.011419054 0.017216455 0.030837346 0.113303006 0.029439341 -0.007129875 -0.022171723 -0.07138119
0.06336447 -0.09757631 -0.11766718 -0.17222203 0.034164187 0.08214053 -0.06368774 -0.105324306
-0.17502673 0.12820593 -0.091330595 -0.06219121 -0.12706164 -0.055032436 -0.09588336 0.08190645
-0.036273114 -0.0162915 -0.096089065 0.101096034 -0.09381005 0.082977414 0.10102745 -0.031779375
0.014409136 -0.00012000709 -0.030977497 0.08224656 0.0024895174 0.010520711 0.0026717673 -0.03351616
-0.0641184 -0.120657295 -0.04636886 -0.03579443 0.0979075 0.024746813 -0.07024798 -0.020904541
0.13504666 0.07419522 -0.021516055 0.031509217 -0.15091644 0.08389951 -0.07410334 -0.09850838
0.0032735371 -0.07858211 -0.02558094 -0.01292186 -0.10211649 -0.056790136 -0.08949368 -0.05351944
-0.06760857 0.06569739 -0.0686183 -0.04848067 -0.11668222 0.046782043 0.029886346 0.09388829
-0.15003856 0.089919046 0.063803814 -0.031515572 0.0016266834 0.046214867 -0.11908654 -0.030956635
-0.05724804 -0.0055365795 -0.00041333135 0.06121082 -0.01904579 0.05160288 -0.14785151 0.02104641
0.0098621715 0.009834907 -0.056989383 -0.08061085 -0.097485684 0.016376253 0.0552667 0.10746491
0.006241474 0.06449312 -0.057672523 0.021673374 0.057945248 0.049298555 -0.03408929 0.047973238
0.03436095 -0.060350355 0.0062672 0.00990078 -0.027613465 0.11567941 0.14312862 -0.10517099
0.0044820835 -0.11408046 -0.035322666 0.023034928 -0.040173523 0.13163026 -0.052846503 -0.042211078
-0.10726294 0.096235506 -0.15580621 0.031743824 0.089485444 0.072978854 -0.031267922 -0.034975853
-0.045982804 -0.060916148 0.05333612 -0.013054671 0.024851313 0.07439093 -0.06732831 -0.00044737107
-0.09048253 0.052709382 -0.117398046 -0.071912736 0.14371927 0.103321165 0.016346578 -0.07872193
-0.099291645 -0.03262431 0.17590648 -0.14122401 0.014808885 -0.057901084 -0.051450927 0.06447705
-0.058482464 -0.15674245 -0.02154745 -0.003174432 0.021164877 0.031416405 0.03302544 0.0049849297
-0.08037515 0.15067194 0.15927264 -0.029633276 0.096291386 -0.038552463 0.084145874 -0.109332345
-0.01316446 0.07353852 -0.06195714 0.05580049 0.077988744 0.14323148 0.12151634 -0.120555304
-0.01362928 -0.011394515 0.0059446385 0.036433905 0.06405121 0.086668804 0.058379166 -0.0008703887
0.17125994 -0.14523417 0.011135794 0.02906997 0.06631738 0.012137649 -0.010810166 -0.047456637
0.045590118 0.041120034 -0.09860464 0.069105335 0.13008237 -0.034347367 0.080075756 -0.067402795
-0.11918224 -0.01947894 -0.04213428 0.12024025 -0.045579858 -0.052301172 0.04626015 -0.028908042
-0.03485398 -0.092160404 -0.20838633 0.014584006 0.135051 0.078723855 0.096532606 0.020559393
-0.11365789 0.16206688 -0.13921219 -0.08936093 -0.07179317 -0.05186866 -0.1642216 0.07412242
0.08380445 -0.051688902 0.023704799 -0.08096616 -0.020864064 -0.103303224 -0.03819565 0.09451464
-0.029750237 -0.035553314 -0.055073995 0.08211718 0.07044823 0.024599312 -0.011153537 0.021098256

actor.2.bias f4 [128]
00000000: 9d7d f8bd 3987 bfbc 410f 273d ff71 9fbd
00000010: 4285 17be 1f97 debd 9a87 91bb 59e3 18be
00000020: b953 bfbd d9dc 2b3d ce01 3dbd b08e 14be
00000030: 993a 8fbd b7a8 babd 4ade 1e3c 593d bcbd
00000040: f24f 043d 6837 ddbd dd1b 04be 2b11 d7bd
00000050: 5109 99bd 5937 9f3c acaa 1c3d 2fff cabd
00000060: b5ff 913d 6457 0fbe baaa 4fbd 6464 343d
00000070: d3c9 05be ae02 e4bd 3328 15ba c1f4 203c
00000080: 8c8b 9ebd 9a4a 5e3d 7f64 0cbd e58d a4bd
00000090: dce0 72bb 3c47 a2bd 4f7c 9f3a a31b 0b3d
000000a0: 58a5 163d ffc1 d03a 9a08 87bd 295f ebbd
000000b0: 8dfc 41bd bb64 d2bd 7e66 b33c f8fb 06be
000000c0: 6338 92bb d9cb 8abd 511a 8b3c 8ea2 29be
000000d0: 7373 653d 76e2 e9bd 2f36 dabd 2759 dc3b
000000e0: 7175 d2bc f3b0 a0bd 5353 403b b50e 17be
000000f0: 152a 7fbb 1911 f6bd 07d3 d23c 62cb 6fbd
00000100: 69f4 2bbd f64d 3bbe 770a 01bd 49be e5bd
00000110: f751 0e3d 1cc8 b33c 4857 3c3d 5604 a13d
00000120: ac3b 24be 3071 803b 4fd2 2fbe 1e59 853b
00000130: a748 f5bc a115 b1bc 96bd c6bb 4a6e a7bd
00000140: 8277 423d 82ea 8f3d c2be 43bd 5f92 afbc
00000150: de30 62bd 6158 2c3b 5c97 6bbd 80a8 debd
00000160: 412d 943d eb4a 82bd 3d61 5a3b 5ccc 78bd
00000170: af1f 11bd ba45 793a ee2d 303e 9d85 94bd
00000180: ac90 153c 4b86 bbbd c662 f8bd 75f4 993d
00000190: 60a9 e7bd 1ad7 f5bd 4f33 b4bd bd63 17bd
000001a0: 0737 b03c d58a d5bd 84d2 88bc c809 ecbd
000001b0: 431d c1bd 0f8f 583d 33f9 f0bc 6d56 65bc
000001c0: 91aa 8fbd 0618 db3b b4f6 b0bd c430 06be
000001d0: c9f6 3c3d e985 c33c 97b1 f8bd a70d debd
000001e0: 52c7 b5bd 1c35 343d 3095 efbd 0b0b 60be
000001f0: e43b 38bd 0ef7 c9bd fe1d 2dbe e85f f13b
-0.12133334 -0.023379909 0.04078603 -0.07785415 -0.14796928 -0.10868668 -0.004441214 -0.14930476
-0.09342141 0.041958664 -0.0461443 -0.14507556 -0.069935985 -0.09114211 0.0096965525 -0.09191389
0.032302804 -0.108015835 -0.12901254 -0.105013214 -0.0747248 0.019435572 0.038248703 -0.09911954
0.0712885 -0.1399818 -0.050699927 0.044041052 -0.13065271 -0.111333236 -0.0005689889 0.009823979
-0.0774146 0.054270364 -0.034275528 -0.08034877 -0.0037060296 -0.07923743 0.0012167784 0.033961903
0.036778778 0.0015926956 -0.065934375 -0.1149276 -0.04735999 -0.10273119 0.021899458 -0.13182056
-0.004462288 -0.06777162 0.016980322 -0.16565916 0.056018304 -0.11420147 -0.10654866 0.006724495
-0.025690766 -0.078462504 0.002934654 -0.14751704 -0.0038934995 -0.1201498 0.025735391 -0.05854357
-0.041981135 -0.18291458 -0.03150412 -0.11217935 0.034746137 0.021946006 0.045981675 0.07862155
-0.16038388 0.003919743 -0.1717007 0.0040694615 -0.02994187 -0.021616759 -0.006065081 -0.08175333
0.047477253 0.07027151 -0.047789343 -0.0214321 -0.055222385 0.0026297795 -0.057517394 -0.108719826
0.07235194 -0.06361946 0.0033322119 -0.060741767 -0.035430606 0.0009508986 0.17205021 -0.07252047
0.009128731 -0.09156474 -0.121282145 0.075173296 -0.113116026 -0.12003918 -0.08798849 -0.036960352
0.021510614 -0.10426871 -0.016701944 -0.11525303 -0.09429409 0.052870806 -0.029415702 -0.013997656
-0.07014955 0.0066862134 -0.08640805 -0.1310454 0.04613379 0.023867564 -0.121432476 -0.10842448
-0.08875908 0.04399596 -0.11698377 -0.21879213 -0.04497899 -0.09861575 -0.16905972 0.0073661692

actor.4.weight f4 [128, 128]
00000000: d87c 89bd 0768 51bc 349c 9dbd 4ceb a03d
00000010: de9d 2a3d 012c e53d 14d8 57bd e343 4b3d
00000020: 1d9d f13d df65 4bbd 8a89 18bd 7dfd f1bd
00000030: d482 b0bd 2a8d 3e3c 7b7a 263d 3872 81bb
00000040: eda3 2bbd c844 fb3c 5101 02bd a51f a4bd
00000050: 032b d0bc d48f 333d 23c9 6f3d 5ab2 093e
00000060: 8427 3f3d e038 203c 25c2 15bd afff 983d
00000070: e288 263c 2be3 243d 6e81 123c 9ff8 b93d
00000080: 2633 88bd 2641 26bd fb6b ff3c 92fa bc3d
00000090: 00c1 8dbd df70 443d 3a90 04bd 632c 8a3c
000000a0: e243 363d 657e 9f3c 6cb2 f2bd 3c7e 5ebd
000000b0: 96f3 643d 33c4 1b3d 61bd 25bd 146f 05bd
000000c0: 71fd e8bd 0166 c3bd 60cf 1f3b f509 b13b
000000d0: c2c6 b53c 89f2 933d 79f0 4f3d 6132 cb3d
000000e0: e004 15bc d5c7 0c3e f115 15bd 3419 063e
000000f0: cbf5 d03a c5a7 c03c b46f b8bd ec00 91bd
00000100: a030 83bb c692 34bd 33d7 633d e475 883d
00000110: 6ff1 0cbd 3d3c 87bd c230 c33d 99e2 643b
00000120: 903b f93c 4b49 433c de3e 6abd c346 2e3e
00000130: 680c 073e e3c4 d2bc 4776 25bc 0928 633c
00000140: 479a 493d 5b83 373d 83a3 04be e1ec 993d
00000150: 6495 5cbb c12c a53d 9a88 7abd 1bf3 42bd
00000160: de21 0abd f9e7 0f3d 1b5b c53d 5db3 f63d
00000170: a9d6 efbd bac4 f73d a577 bdbb 17c7 5dbd
00000180: 4ec2 993c 9713 bc3d 3c88 2a3c 4fa2 a3bd
00000190: bf50 263d edb4 933d 8933 cc3d 398a b0bd
000001a0: 9eac 92bd d1bb 193d 3c5d b33d d3f2 09bd
000001b0: 52e2 783d 646b b93c 0872 123d bd9a 433c
000001c0: a574 dcbb 1f4d 5a3d 4be8 bdbb d689 76bd
000001d0: c8cc 00bd 6ec3 b1bd 6d56 963d aa47 30bd
000001e0: c88c bbbd dc11 9bbd 0a9e e4bd 074c 48bd
000001f0: 2d49 923c e5b2 39ba ae2b a53d 6e91 c03c
00000200: daea ffbc 5fd5 c2bd fb4a 583c 9fff 823d
00000210: cd5f b13c 48e6 13be 860b a7bd 43d3 1e3c
00000220: 8d17 a23c a247 f03d ec44 a33d 9666 42bc
00000230: ec99 89bc 9aa9 b83d e1c7 673c 00ce 313d
00000240: 00c7 9fbd c727 d83c 463b 43bd 2ce7 923d
00000250: 9b97 83bc 6f7b 89bd 17a9 9bba 3e6b 6b3d
00000260: 1ec2 62bc e8b2 a43d 37d2 b83d 620a 933c
00000270: bd95 7fbd 27a0 5e3d 215b ff3d 3514 043d
00000280: c5a1 5d3d 7445 d9bc 4cc0 d2bc 9c47 87bc
00000290: e4a4 0b3d a2c5 6a3d 99c6 a6bd b476 f2bb
000002a0: b6ac c03d aea0 5fbc bc96 963c cd54 2dbd
000002b0: c361 a9bd 8fbc 57bd 06e0 aabc 579f e2bd
000002c0: 942e 01bd 15fd 9cbd 7830 74bc 2ab6 60bd
000002d0: c248 74bd ac1c 4fbd 431c 893d 76c0 f63c
000002e0: 873a 963c c8fd 843c bc80 c5bc 91f0 eabb
000002f0: c3f9 193d 3287 9f3c 2d3e c63b b5e5 223d
00000300: 170d 32bc a4bc c8bc 37f4 e8bc ca9c f6bd
00000310: 52ea 54bd b30e 2d3d 3463 bfbc 154e 34bd
00000320: 6b7c 483d c476 373c 1baa 19bd 382f 033d
00000330: 8313 96bc 35d0 1dbc 5e45 85bd 5f36 813d
00000340: 1891 253d 40a5 13bd f5e7 76bd 7f26 2a3c
00000350: cf46 83bd f183 08bd 88df 63bd 39d3 233d
00000360: 65e8 7f3c 9263 9c3b bc1e 643d 5e77 10bc
00000370: 2aac 5bbd e8d3 f53b f0a5 70bd fc92 2d3d
00000380: 0a22 7abd 5445 6f3c bcf8 cfbc 4784 8e3c
00000390: 4a22 b4bd b497 07bd 8e7c 7f3c 6ce4 9e3c
000003a0: 3332 45bc 1bfa 8f3b 9ff8 4b3d 5607 413b
000003b0: 702f 233d d3db 45bd 4be8 87bd 6990 13bd
000003c0: 9f05 a3bb 0fa8 f53b b5d7 8a3c 3966 15be
000003d0: 70e1 28bd 124e e2bc 4376 0d3d 40ad 0abd
000003e0: b30e 67bd 9d51 80bd a76a ea3c 27e3 7c3d
000003f0: d802 cfbc b4d9 eebb 9608 a13d 3427 a33c
-0.06713265 -0.01278115 -0.07695809 0.07857379 0.04165446 0.11190034 -0.052696303 0.04962529
0.11797545 -0.0496577 -0.037240542 -0.11815927 -0.086187035 0.011630336 0.04064415 -0.0039503835
-0.04190438 0.030672446 -0.031739537 -0.08013848 -0.025411135 0.043838337 0.05854143 0.13446942
0.046668544 0.009779185 -0.036562104 0.07470643 0.010164471 0.040255707 0.008941991 0.09080624
-0.06650381 -0.040589474 0.031179419 0.0922748 -0.069215775 0.047959205 -0.032364108 0.016866868
0.04449833 0.01946945 -0.118504375 -0.054319605 0.055896364 0.038028907 -0.04046381 -0.032576635
-0.11376465 -0.0954094 0.002438508 0.0054027983 0.022189502 0.07223994 0.050766442 0.099217184
-0.009095401 0.13748105 -0.036397878 0.13095552 0.0015942393 0.023517499 -0.09005681 -0.07080254
-0.0040035993 -0.044085287 0.05562515 0.06663111 -0.034409937 -0.066032864 0.09530784 0.0034925102
0.03042391 0.01191933 -0.05718886 0.17019181 0.13188326 -0.025728649 -0.010099 0.013864526
0.049219396 0.044803005 -0.12953 0.07515884 -0.003365838 0.08065177 -0.06116543 -0.047595125
-0.033723705 0.035133336 0.096365176 0.120459296 -0.11710865 0.120980695 -0.005782085 -0.054144945
0.01876941 0.09183424 0.010408457 -0.07989942 0.04060435 0.07212243 0.09970767 -0.08620114
-0.0716183 0.03753263 0.087580174 -0.03367884 0.06076271 0.022634216 0.03575328 0.011938748
-0.0067277723 0.053296205 -0.0057955137 -0.060190044 -0.031445295 -0.086798534 0.07340703 -0.043037094
-0.09157711 -0.07571766 -0.11162956 -0.04890063 0.017857159 -0.00070838473 0.08064972 0.023506846
-0.031239916 -0.095133536 0.0132014705 0.06396412 0.021652127 -0.14443314 -0.08156495 0.009693923
0.01978662 0.11732413 0.0797213 -0.011865279 -0.016797028 0.09016724 0.014146776 0.043409348
-0.07801628 0.026386155 -0.04766395 0.07172999 -0.016063502 -0.06712996 -0.0011875954 0.05747532
-0.013840226 0.08041936 0.0902447 0.017949287 -0.06239866 0.054351952 0.12468553 0.032245833
0.054109354 -0.026522376 -0.02572646 -0.016513638 0.0340928 0.057317384 -0.08143348 -0.0073994044
0.09407942 -0.013649149 0.018382423 -0.0423172 -0.082706 -0.052670058 -0.020858776 -0.11065548
-0.03153856 -0.07665459 -0.014904134 -0.054861225 -0.0596397 -0.050564453 0.066948436 0.03012107
0.018338455 0.016234294 -0.024109237 -0.007169791 0.037591707 0.019473646 0.0060498924 0.039769847
-0.010867379 -0.024504013 -0.028436763 -0.12041624 -0.051981278 0.042250346 -0.023362733 -0.044019777
0.04894678 0.0111977495 -0.03751574 0.032027453 -0.01831985 -0.00963216 -0.06507371 0.063091986
0.040421575 -0.036046267 -0.060279805 0.010385155 -0.0640999 -0.033328954 -0.055633098 0.03999636
0.015619372 0.004772612 0.055693373 -0.008817522 -0.053630985 0.007502068 -0.058752 0.042376503
-0.06106762 0.014603931 -0.02538716 0.01739706 -0.087956026 -0.03310366 0.015593661 0.01939603
-0.012035894 0.0043938286 0.04979765 0.0029453835 0.03984016 -0.048305344 -0.06636103 -0.036026392
-0.0049750353 0.007496841 0.01694856 -0.14589776 -0.04123062 -0.027625117 0.03453661 -0.03385663
-0.056410503 -0.062655665 0.028615309 0.061740067 -0.02526991 -0.007289136 0.07862966 0.019916154

actor.4.bias f4 [128]
00000000: 6076 033e 3083 14bd 6281 0cbe 3498 8d39
00000010: 6c56 39b8 47d4 a13d 4a8b a3bc ae7f d5bd
00000020: 0df2 a63c 5a28 2bbe 5fe1 f7bd 7363 9abd
00000030: 5cd8 0fbc 150d c2bd e1cb 80bc 16ef bebc
00000040: b2f3 04be ad11 1a3d 9cc1 8bbd 5a5f a73c
00000050: 7614 a33c 8326 16be d163 5dbd 410c 143d
00000060: e8fc 0e3c 026a ab3d 21c8 d8bd 631b 0cbd
00000070: 5b35 0dbc 4f0f b2bd 8f2b 57bc 4739 1cbd
00000080: 962b a3bd b9d4 33bd b805 c93c 6fe6 693c
00000090: f45b c9bd d7db 83bd d3ae 71bd 6364 94bd
000000a0: 20a8 d7bb cfe1 303d 8cfc 33bd 8fe2 1cbd
000000b0: 34c7 393d 5246 1bbe 2db6 933c 4bab b5bc
000000c0: 44fb fd3c e9af db3c b8c7 23be 963f cdbd
000000d0: 9263 51bd d224 543d 6e1d 30bd eee4 6d3c
000000e0: 4730 eabc fec0 13be 8854 933d d49f 003d
000000f0: b51b 12bd 104f 5a3d 8a30 1e3c 9537 8bbc
00000100: 3017 943d 529d 10bc f414 69bd c3c6 cdbd
00000110: 7ca0 2cbb 74ed 70bd 6ecd e83c b377 d93c
00000120: 543c 14be 6d4c c3bd 217b 4f3d 48d9 bc3c
00000130: f58e 17bd 6ff4 683d 5428 52bd aeac 4c3b
00000140: f3c9 70bd e19d 4b3d 2cbc 5ebd c1eb 59bd
00000150: 9f35 c6bd 1c18 c73d f759 823d 8025 903d
00000160: de2e 11bd ee7f 35be c09f 41bd d2b3 dd3c
00000170: f887 d73c e469 b2bc 9318 b2bd 9e54 0bbe
00000180: 0a19 f1bd cda8 3dbe 113b 4cbc 96d3 3f3d
00000190: 5754 40bd 2428 86bc d3e0 60bd aa63 17be
000001a0: a125 bf3c a25d 163d fbe7 b93b 3b44 60bc
000001b0: b791 81bd 15ed dcbc 7a69 85bd 1b61 fe3c
000001c0: eff3 b5bd 5321 54bc bca8 933d 4d08 a93d
000001d0: 055c 293c 4e86 84bb 3ea0 913c 6452 b3bd
000001e0: 6375 cbbd 2182 78bd 1818 5bbe 787b 07be
000001f0: 0f75 0fbe f38d 28be bd86 3bbd 495f 2fbd
0.12838125 -0.036257923 -0.1372123 0.00027007016 -4.4187924e-05 0.07901817 -0.01996388 -0.104247436
0.02037909 -0.16714612 -0.12103533 -0.075385 -0.008779611 -0.094751514 -0.015722217 -0.023307364
-0.12983587 0.037614513 -0.068240374 0.02043121 0.019907217 -0.14663129 -0.05405027 0.0361445
0.00872729 0.08369829 -0.105850466 -0.034205806 -0.008618678 -0.08694326 -0.013132944 -0.03814056
-0.07967298 -0.04390404 0.02453886 0.014276131 -0.09831992 -0.064384155 -0.059004616 -0.0724571
-0.0065813214 0.043184098 -0.04394202 -0.038302 0.04535599 -0.15163544 0.018031204 -0.022176405
0.031003602 0.026817279 -0.15994155 -0.10021894 -0.05112035 0.051792927 -0.042996816 0.014519913
-0.028587474 -0.1442909 0.071938574 0.031402424 -0.035670955 0.053298056 0.009655127 -0.016994277
0.07230985 -0.008826571 -0.056904748 -0.100476764 -0.0026340773 -0.058820203 0.028418269 0.026546335
-0.14476138 -0.095360614 0.050654534 0.023052827 -0.03700157 0.056873735 -0.05130799 0.0031230855
-0.058786344 0.049711112 -0.054378673 -0.053203348 -0.09678196 0.097213954 0.06364816 0.070384026
-0.035445087 -0.17724583 -0.04727149 0.027063284 0.026309952 -0.021779008 -0.086960934 -0.13606498
-0.11772354 -0.18521424 -0.012465254 0.046832643 -0.046955433 -0.016376562 -0.05490191 -0.14784113
0.023333373 0.03671039 0.005673406 -0.013688142 -0.06326621 -0.026968518 -0.06514259 0.031052163
-0.08884417 -0.012947398 0.07209918 0.082535364 0.010336881 -0.0040443307 0.017776605 -0.08755949
-0.09934499 -0.060670976 -0.2139591 -0.13230693 -0.14009498 -0.164604 -0.045782793 -0.04281548

actor.6.weight f4 [12, 128]
00000000: 79fe 31bd 012e 883c caee 67bd fb07 1e3d
00000010: 6bac 863b 4bda 823d b3b3 2c3d cc5e 753b
00000020: 7b62 5a3d e811 e73c 288b d3bc 5352 12bd
00000030: 0f7a 883d 91de 403d 5c76 a13d 34da 0abd
00000040: b5f7 63ba 5173 0b3d b22b dbbd 1c70 b13d
00000050: 1c34 2aba 8bcd 8ebc 9968 f33a f7d8 8d3a
00000060: 3109 003b f844 103b 930a c43c 068a 683d
00000070: 36ec 853b 1283 89bb ac4e ec3c 9529 383c
00000080: 737c 273d bdee 12b9 81cf 0bbc 1192 d6bd
00000090: 222e 70bd d9ae 053d 48fc efbc 7e41 db3b
000000a0: 1e36 ecbc 8692 b93b 9c0b 2fbd 34ff 073c
000000b0: d4ef 1f39 c7df 693d 1422 25bc 035a 453d
000000c0: cfdd 12bd eb42 b7b9 01e0 c4bd 9f7b 5abd
000000d0: 02fc 0dbd 4ef3 23b9 f289 34bc 22c2 e8bc
000000e0: f904 2abc 2131 2a3a 56e8 7dbc 8047 63bd
000000f0: 5fe7 fd3c b70e 7c3c 0925 823c b34c 4ebd
00000100: df7a e8bb 6fd0 c03b 3710 9f3d 620d 3a3d
00000110: 683a 5abc 886d babc 969a b43c 4b31 acba
00000120: cf7d bc3c 5837 a23d 1499 92ba 9b76 7f3c
00000130: 653e babb c3fc 153c f22f 393c 4095 4cbc
00000140: 597e c03c ce26 c33c c929 32bd a55d 253c
00000150: d0b0 b13c df0c d0bc 4e5c 2cbd 9699 50bb
00000160: 8845 39bc eb53 263e 130e db3c 20a9 87bc
00000170: 7c6e e7bd c98c bb3c 40e0 263c 9501 3d3d
00000180: ddf3 753b 8a15 d03d 7155 0f3b 73f7 9ebc
00000190: 588f 09bb 66ec e1bc 5f53 4d3b de27 54bd
000001a0: 7093 8bbc 91b4 103d b80c cf3b e9b3 9ebc
000001b0: fb15 b23b 1a2c f8bb e73e d43b ae6b ca3b
000001c0: cb96 6b3b 1c9e 5cbd 6fee a8bc ce2c 1cbc
000001d0: f85d 15bc 8338 083c 57f0 14bc 45ff fabc
000001e0: 7068 cd3b 5f16 3bbc ea2e 103d 2c77 51bb
000001f0: 680c d73d 1b64 5d3c 5196 20bc 176f 5abc
00000200: 557e bfbb 0bc2 a73a cf28 a0bd 165c 61bd
00000210: cae7 ba3a 1b98 78bc 6f67 1cbd bb9b fabb
00000220: 2877 ae3d b389 9ebc cb22 7ebd 0ed4 e53c
00000230: d39b 3cbd 2076 2b3d 8a1f e83c 1dc5 ed3b
00000240: d295 ecba 1337 93bd d266 383d 4061 16bd
00000250: cfd5 1b3b 5fa0 423d 7163 84bc b2e7 acbb
00000260: c5bc 403c 3810 1abc 029c 0e3d cb08 dcbc
00000270: 9d6e f4bb c796 e13c 40b5 8fbc f918 aebc
00000280: 92a0 253c cecc d9bb 329c 5a3b a8bd 4e3d
00000290: 3005 6fbd 896d 07bd 60f8 b63d 08ea d3bc
000002a0: b261 46bd 0835 aa3d f8b6 80bc f158 1fbc
000002b0: ec44 143d 5b5f 94bb 9499 14bd 22bf 2a3d
000002c0: bf4d 8e3c 1352 f33a 1363 173e b4ec 5a3c
000002d0: fbce 12bb 17eb ae3c a932 933d 5423 a23d
000002e0: 40a4 90bb 9664 bdbc ffde 81ba 2707 29bd
000002f0: 2e7b 373b 3139 5b3d 49fc b1bd 2ae3 f7bc
00000300: 8cb5 0d3c 4e93 493d 38b8 5e3d 72e9 80bd
00000310: 68b5 91bd 7561 063c b2df b13b 71d1 0b3d
00000320: 0995 17bd 7355 06bd 6179 6238 166d 2e3d
00000330: fd7c 1bba 4581 4f3c 7493 7e3c eb6f 6a3d
00000340: 03ba 8fbd 704e c2bc 9b19 2ebd 7fb9 e13b
00000350: b958 aabb c189 c7bb 41d5 193d e180 8d3b
00000360: 63a4 473c 87db 453d 6771 f2bb 9f5c cd3a
00000370: 8c62 9c3c 5111 4c3d 0509 50bc 5478 0e3c
00000380: a16d ca3c eada d4bd 6d68 82bd b512 ffbc
00000390: 4c0a cfba 87a6 d9bc e0d6 fdbd cbc8 023d
000003a0: d2e3 023d 3eee 943c d558 a9bb 5fdf 62bc
000003b0: d023 c8bb b2f2 43bd badf d2bc 5124 0eba
000003c0: 1515 c4bc 3bb8 d4bc aa06 773c f990 7cbb
000003d0: bf5d 80bd 5386 acbc a4d1 26bc 7861 24bd
000003e0: 33cf a43b 8019 abbb f69e 4dbd f6fb 54bc
000003f0: d1de 793c 6559 dd3c 739f bcbc aa29 0bbc
-0.043455575 0.016623499 -0.05662421 0.03858183 0.0041099093 0.06389292 0.042163562 0.0037440537
0.053316575 0.02820678 -0.02582319 -0.03572304 0.06663906 0.047087256 0.078839034 -0.0338995
-0.0008696274 0.03404552 -0.107016936 0.08663961 -0.000649275 -0.017431995 0.0018570601 0.0010822107
0.0019536729 0.0022013765 0.023930823 0.056772254 0.0040869964 -0.004196533 0.028846107 0.011240383
0.04089017 -0.00014012582 -0.0085333595 -0.10477079 -0.058637746 0.03263745 -0.029295102 0.006691157
-0.028834399 0.005663219 -0.04273568 0.008300591 0.00015252765 0.057098176 -0.010078926 0.048181545
-0.035856064 -0.00034954338 -0.09613038 -0.05334055 -0.03466416 -0.0001563553 -0.011019217 -0.028412882
-0.010377162 0.0006492306 -0.015497288 -0.05548811 0.030994115 0.015384368 0.0158868 -0.050366115
-0.0070947255 0.005884222 0.077667646 0.04542292 -0.013319589 -0.022757307 0.022046369 -0.0013137249
0.023009209 0.07920712 -0.0011184537 0.015592243 -0.0056837075 0.009154501 0.011302935 -0.012486756
0.023497747 0.023822214 -0.04349688 0.010093127 0.021690756 -0.025396762 -0.042080216 -0.0031829826
-0.011308081 0.1624295 0.02674011 -0.016560137 -0.1130037 0.02289428 0.010185301 0.046144087
0.0037529387 0.10160358 0.0021870995 -0.019405102 -0.002098998 -0.027578544 0.003133021 -0.051795833
-0.017038077 0.03532845 0.006318655 -0.019372897 0.005434749 -0.0075736167 0.006477225 0.006177387
0.0035948034 -0.053861722 -0.020621506 -0.009532167 -0.009116642 0.008314255 -0.009090505 -0.0306393
0.0062685534 -0.011418908 0.03520099 -0.00319619 0.10500413 0.013512637 -0.009801463 -0.01333215
-0.0058439174 0.0012798918 -0.078202836 -0.05501946 0.0014259752 -0.0151729835 -0.03818458 -0.007647959
0.08518821 -0.01935277 -0.0620449 0.028055217 -0.046047043 0.0418607 0.028335351 0.0072561637
-0.0018050021 -0.07188239 0.045019932 -0.03671384 0.0023778563 0.047516223 -0.016160699 -0.0052766437
0.011763756 -0.009403281 0.03481675 -0.026859662 -0.007459475 0.027537717 -0.017542481 -0.021252142
0.010109084 -0.006646729 0.003335726 0.05047384 -0.058354557 -0.033063445 0.089340925 -0.02586843
-0.048433013 0.08310896 -0.015712246 -0.009725795 0.03619854 -0.004527969 -0.036279276 0.041686185
0.017371057 0.0018563889 0.14783888 0.0133620985 -0.0022401202 0.021352334 0.07187397 0.079168946
-0.0044141114 -0.023119252 -0.0009908377 -0.041266587 0.0027997005 0.05352134 -0.08690698 -0.030259687
0.008649241 0.049212746 0.054374903 -0.06294526 -0.071146786 0.0082019465 0.005428278 0.034135286
-0.037007365 -0.032796334 5.399564e-05 0.0425845 -0.00059314055 0.012665098 0.015538085 0.05723564
-0.07017901 -0.023719043 -0.042504888 0.006888568 -0.005198565 -0.0060894196 0.03755689 0.004318342
0.012185189 0.04830506 -0.0073987725 0.0015667862 0.01908996 0.0498212 -0.012697463 0.008695681
0.024710478 -0.10393317 -0.06367574 -0.03113685 -0.0015795915 -0.026568664 -0.123945 0.031929772
0.031955548 0.018180009 -0.0051680603 -0.013847201 -0.006107785 -0.047838874 -0.025741447 -0.00054222817
-0.023935834 -0.025966754 0.015077272 -0.003853856 -0.06267881 -0.021060145 -0.010181818 -0.040132016
0.005029583 -0.0052215457 -0.050200425 -0.012999525 0.0152508775 0.027020166 -0.02302525 -0.00849382

actor.6.bias f4 [12]
00000000: c879 7bbd 0a74 403d 1db1 5b3a 742a 7b3c
00000010: c8d4 f33c 82bc a3bd cd1e acbb 337e 39bd
00000020: 1589 cd3c ee5b ef3d 1fb5 093e a88e 523c
-0.061395437 0.046985663 0.0008380579 0.015329946 0.029764548 -0.079949394 -0.005252695 -0.04528637
0.02508978 0.11687456 0.13447998 0.012851395
