tested_policies/go2/go2_flat_delay/exported/cuncurrent_state_estimator.pth (torch, 170873 bytes, 6 tensors)

fc1.weight f4 [128, 260]
-0.00071479665 -0.0024993827 -0.0010117715 0.045745645 -0.114765644 0.06362874 -0.7788062 -1.8868154
0.36261848 -0.72121346 -0.36446154 0.0057678195 -0.116374485 0.82966083 -1.199867 1.2853465
0.35838014 -0.6405795 -1.0520093 0.28674796 0.32864445 1.2003531 0.9626756 1.2479864
-0.011307562 -0.014978327 0.0059190993 -0.011351616 -0.02892827 -0.011654031 -0.063427046 0.003559347
0.004934259 -0.011716207 -0.040789597 0.023186676 -0.016880421 0.05104696 -0.023093542 0.03815766
0.016838653 0.054120507 -0.021217244 -0.004513601 -0.039424933 0.11470838 0.09150291 0.09846714
0.09815425 -0.27725697 -0.3134463 0.098498896 -0.004211695 0.0012667037 -0.0019250488 0.06618522
-0.16097353 0.03990296 -0.39132795 -1.1731523 0.30668178 -0.8666558 -0.09956321 0.03834357
-0.16301394 0.74075556 -0.7706105 0.7435708 0.7138466 -0.47238362 -0.77320194 0.4774672
-0.12187915 0.8191805 0.51233464 0.8142821 0.0065430077 0.03140545 -0.07765985 0.03387404
0.012154823 -0.039181747 -0.022258468 -0.015767312 0.018797047 -0.023583736 0.047739193 0.020865511
-0.045938175 -0.024794884 0.023984084 0.031697053 -0.02388217 0.07394502 0.012033717 -0.016323218
-0.028912127 0.10174115 0.11552833 0.026250638 0.34549052 -0.15605745 -0.15095912 0.27131826
-0.0066523836 -0.0020160684 -0.001681527 0.1584175 -0.024749558 -0.23467639 0.5010102 -0.23825634
0.10320656 -0.36876208 0.084367156 0.050976634 -0.18766257 0.72871304 -0.24575895 0.043876722
0.59150445 -0.28409678 -0.68224573 0.6063428 -0.2594315 0.3577335 0.44745728 0.09377097
-0.0055752913 0.04107848 0.028799558 0.060630653 0.005358678 -0.02475443 -0.02805054 0.037293933
0.011484418 0.03241148 -0.006526243 0.037469372 -0.062913835 0.004849143 -0.08920181 -0.04065768
0.023303417 0.053822186 0.015386043 0.07214313 -0.071130924 0.014295599 0.054101277 -0.06157434
0.10792655 -0.15034394 -0.2775777 0.10123672 -0.0064516305 -0.0039023934 -0.003839902 0.059400138
-0.109077714 0.0064787325 0.65847045 0.32493228 0.3133075 -0.29689935 0.047904044 0.119152136
0.1547345 0.5118147 0.13022631 -0.6145982 0.44891092 0.045189805 0.041986488 -0.04539884
-0.9560943 0.121408485 0.27120075 -0.47428355 0.005918899 0.06771728 -0.04120018 0.02609979
0.024189422 -0.06442453 -0.10972797 -0.014356132 0.009484672 0.07057938 0.05698147 0.038249556
-0.009166014 -0.037265964 -0.085956976 -0.091804735 0.019234454 0.023371069 0.035101216 0.06980951
-0.14099526 -0.122793905 -0.12132898 -0.18600683 0.11008097 -0.23721185 -0.18853645 0.091134295
-0.007244709 -0.0050599896 0.0028116684 -0.19936338 0.12037945 0.02475518 1.1002334 1.9108584
0.0076827863 1.2205518 0.06551908 -0.13610789 0.7255054 -2.7094173 2.630505 -0.5471911
-2.0830047 1.8346246 3.525883 -1.673332 1.6381242 -1.4817407 -1.9235206 -0.44337988
-0.005051607 0.049663626 -0.1110742 0.012741174 0.04641638 -0.027576013 -0.017593293 0.048269562
0.0042228154 0.13036834 0.12400403 0.06940223 -0.061115433 -0.081036076 0.15220246 -0.111147895
-0.03855117 0.03291423 0.04171077 -0.047306824 -0.118188605 -0.34017745 -0.34100077 -0.25282538
00000000: 3161 3bba afcc 23bb 6b9d 84ba c95f 3b3d
00000010: 400a ebbd c94f 823d d85f 47bf 2b83 f1bf
00000020: 21a9 b93e 72a1 38bf b49a babe faff bc3b
00000030: bf55 eebd a764 543f 3e95 99bf 3c86 a43f
00000040: 9a7d b73e 05fd 23bf 3ea8 86bf a1d0 923e
00000050: 1644 a83e 2ca5 993f e871 763f 05be 9f3f
00000060: 5a43 39bc a867 75bc 01f5 c13b 21fc 39bc
00000070: fbfa ecbc 8df0 3ebc 0ae6 81bd ef43 693b
00000080: 91af a13b 55f5 3fbc fe12 27bd fcf1 bd3c
00000090: cf48 8abc 9e16 513d ab2e bdbc 354b 1c3d
000000a0: 37f1 893c 77ad 5d3d c9cf adbc d4e6 93bb
000000b0: 0a7c 21bd 3aec ea3d e165 bb3d 24a9 c93d
000000c0: 1805 c93d a0f4 8dbe 097c a0be cab9 c93d
000000d0: 4202 8abb 8607 a63a eb51 fcba 1e8c 873d
000000e0: 3fd6 24be 4971 233d 235c c8be db29 96bf
000000f0: 6505 9d3e 28dd 5dbf cce7 cbbd 260e 1d3d
00000100: 20ed 26be 28a2 3d3f bb46 45bf a85a 3e3f
00000110: a7be 363f 44dc f1be 90f0 45bf 9576 f43e
00000120: c79b f9bd d0b5 513f 5d28 033f cb74 503f
00000130: ba66 d63b 00a3 003d 210c 9fbd 81bf 0a3d
00000140: 0625 473c 0a7d 20bd 6457 b6bc 732a 81bc
00000150: 44fc 993c ae32 c1bc 2c8a 433d 26ee aa3c
00000160: ab29 3cbd a41e cbbc 457a c43c c5d4 013d
00000170: 8aa4 c3bc 7d70 973d 1129 453c 45b8 85bc
00000180: 20d9 ecbc aa5d d03d 1e9a ec3d 940b d73c
00000190: 22e4 b03e 86cd 1fbe 0795 1abe 3aea 8a3e
000001a0: 3dfc d9bb 0420 04bb af66 dcba 3238 223e
000001b0: 96bf cabc 024f 70be 3442 003f 78f9 73be
000001c0: f65d d33d 62ce bcbe b0c8 ac3d e0cc 503d
000001d0: 9e2a 40be f08c 3a3f 3ca8 7bbe 14b8 333d
000001e0: d66c 173f 2275 91be a8a7 2ebf 4839 1b3f
000001f0: 35d4 84be d828 b73e 1f19 e53e ff0a c03d
00000200: efb0 b6bb e941 283d 0ded eb3c d957 783d
00000210: d997 af3b cdc9 cabc 3fca e5bc 86c1 183d
00000220: 2429 3c3c e6c1 043d 18da d5bb 7c79 193d
00000230: f8d8 80bd 8fe5 9e3b 70af b6bd ab88 26bd
00000240: cfe6 be3c a774 5c3d be15 7c3c c7bf 933d
00000250: 17ad 91bd 1738 6a3c 4d99 5d3d 6035 7cbd
00000260: 9808 dd3d c3f3 19be aa1e 8ebe 3355 cf3d
00000270: 3368 d3bb 4cbf 7fbb dea6 7bbb 8f4d 733d
00000280: 2364 dfbd 8c4b d43b 8591 283f 865d a63e
00000290: d769 a03e 3103 98be 0837 443d 0906 f43d
000002a0: b972 1e3e 4a06 033f 0c5a 053e 4f56 1dbf
000002b0: a7d7 e53e f218 393d 06fa 2b3d 22f4 39bd
000002c0: 99c2 74bf 03a5 f83d d3da 8a3e 4bd5 f2be
000002d0: 53f3 c13b 5baf 8a3d 85c1 28bd 3acf d53c
000002e0: e528 c63c 02f1 83bd 0fb9 e0bd fb35 6bbc
000002f0: 9965 1b3c ec8b 903d 6765 693d 91ab 1c3d
00000300: 0d2d 16bc 32a4 18bd 360a b0bd 1f04 bcbd
00000310: 9391 9d3c af74 bf3c 4bc6 0f3d 4af8 8e3d
00000320: 1061 10be 5f7b fbbd 547b f8bd 9378 3ebe
00000330: 2272 e13d aae7 72be b30f 41be 9ea4 ba3d
00000340: 0665 edbb 45ce a5bb f843 383b ea25 4cbe
00000350: 8089 f63d 60cb ca3c 73d4 8c3f 0297 f43f
00000360: e2bf fb3b 0b3b 9c3f de2e 863d de5f 0bbe
00000370: b9ba 393f 1867 2dc0 325a 2840 b714 0cbf
00000380: f34f 05c0 fbd4 ea3f 11a8 6140 be2f d6bf
00000390: 0eae d13f aea9 bdbf ec35 f6bf b002 e3be
000003a0: f387 a5bb 166c 4b3d df7a e3bd 5bc0 503c
000003b0: 1a1f 3e3d 17e7 e1bc cf1f 90bc 4eb6 453d
000003c0: 8b5f 8a3b 477f 053e d3f5 fd3d c222 8e3d
000003d0: 2d54 7abd 3ef6 a5bd f6da 1b3e 82a1 e3bd
000003e0: d5e7 1dbd 12d1 063d ead8 2a3d cdc4 41bd
000003f0: de0c f2bd bd2b aebe a797 aebe 5472 81be

fc1.bias f4 [128]
-0.40680718 0.08682992 -0.061771184 -0.017872786 -0.106113024 0.017682979 -0.30182913 0.08140397
0.07187962 -0.08656263 -0.0028272513 -0.009967585 -0.07347094 -0.11077585 0.14244513 -0.025778178
-0.0011296843 -0.0072862054 -0.023768315 -0.06544213 -0.16719355 0.108501524 0.01570544 0.0161825
-0.06789083 0.0312096 -0.11103412 -1.0688081 -0.13595438 0.15277085 -0.015739469 0.045416195
0.040793534 0.025713814 -0.14092018 -0.009540438 0.0812939 0.00074673933 0.019423695 -0.075813696
-0.02725061 0.0681758 -0.15779756 0.060130194 -0.102870755 0.085198104 0.019723635 -0.08038561
-0.13014424 -0.18794487 -0.039701115 -0.07143899 -0.07593805 0.043722834 0.07557971 -0.013484737
0.10010758 -0.32784218 0.04759486 0.069898166 -0.0744941 0.069079295 -0.08402698 0.038833786
-0.015816888 -0.05760814 0.010952019 0.11690425 0.07373483 -0.79751027 -0.16484353 0.122371145
-0.029916871 0.0852481 -0.007641554 0.07948 -0.02534289 -1.0999595 0.011597589 -0.02942938
0.01932335 -0.25249323 -0.09866666 -0.10951481 0.035688557 0.020901509 0.0880864 0.040045038
-0.107232146 -0.010331758 -0.27054203 -0.08352292 0.041671377 -0.097300984 0.114895314 -0.10690542
-0.028047059 0.16927664 0.084449984 -0.117415085 0.015504383 0.22747023 0.0058549657 0.04341758
0.052624565 -0.036127288 0.0015655296 0.028750136 -0.074627854 -0.040282615 0.030786611 0.049323235
0.17177522 -0.10723682 -0.03597203 -0.020035366 0.15326136 -0.099629186 -0.20397313 0.0142553495
-0.2122361 0.05912782 -1.4048399 0.14882994 -0.003827999 0.0052800006 -0.64889735 -0.087282926
00000000: 0849 d0be e3d3 b13d c803 7dbd f369 92bc
00000010: c951 d9bd e5db 903c 5989 9abe 20b7 a63d
00000020: 9f35 933d c047 b1bd 6849 39bb 154f 23bc
00000030: ef77 96bd 73de e2bd 23dd 113e c22c d3bc
00000040: ea11 94ba 1fc1 eebb c5b5 c2bc 8606 86bd
00000050: c934 2bbe 0c36 de3d b2a8 803c 2a91 843c
00000060: 590a 8bbd 46ab ff3c db65 e3bd b4ce 88bf
00000070: a037 0bbe f66f 1c3e 0ff0 80bc 5506 3a3d
00000080: 1f17 273d c7a5 d23c 614d 10be 7f4f 1cbc
00000090: 6b7d a63d d4c0 433a 711e 9f3c 3644 9bbd
000000a0: ac3c dfbc c19f 8b3d af95 21be 144b 763d
000000b0: e7ad d2bd 587c ae3d 7693 a13c 36a1 a4bd
000000c0: 8844 05be 9f74 40be a39d 22bd 9b4e 92bd
000000d0: 6985 9bbd b716 333d 89c9 9a3d 16ef 5cbc
000000e0: 3405 cd3d eeda a7be d4f2 423d c526 8f3d
000000f0: 5d90 98bd 7279 8d3d 5616 acbd 2d10 1f3d
00000100: 6b92 81bc 83f6 6bbd 1970 333c 7f6b ef3d
00000110: 4902 973d a229 4cbf becc 28be b99d fa3d
00000120: 3a14 f5bc 8e96 ae3d 0066 fabb 69c6 a23d
00000130: e49b cfbc 79cb 8cbf d003 3e3c e215 f1bc
00000140: 014c 9e3c cb46 81be bf11 cabd 4d49 e0bd
00000150: 2a2e 123d a439 ab3c a466 b43d 4406 243d
00000160: 879c dbbd 8946 29bc 7c84 8abe 110e abbd
00000170: 9baf 2a3d bd45 c7bd 3c4e eb3d 3bf1 dabd
00000180: f2c2 e5bc db56 2d3e 1df4 ac3d 5277 f0bd
00000190: 1806 7e3c f5ed 683e 03db bf3b a2d6 313d
000001a0: db8c 573d 35fa 13bd 7532 cd3a 6885 eb3c
000001b0: 7dd6 98bd 62ff 24bd 3434 fc3c 2907 4a3d
000001c0: d8e5 2f3e fa9e dbbd 6857 13bd 3521 a4bc
000001d0: 8cf0 1c3e 630a ccbd 55de 50be 458f 693c
000001e0: 6c54 59be 0330 723d cbd1 b3bf e066 183e
000001f0: 2bdf 7abb db03 ad3b 231e 26bf 64c1 b2bd

fc2.weight f4 [64, 128]
-0.050296206 -0.0156216035 -0.18300472 0.010442561 -0.07806837 -0.036581848 0.14723611 0.025590612
-0.17233035 -0.05325544 0.034157544 0.36844274 0.23207544 -0.032473966 -0.020240298 -0.065781265
-0.14426081 -0.028159887 -0.07403535 0.20460585 -0.1265121 0.018213553 -0.0034084762 0.13430347
-0.03481066 -0.0075276415 -0.010547205 -0.13658677 -0.014552388 -0.051425103 0.13497095 0.033435207
0.2530867 0.09453658 -0.11902949 0.17936708 0.006422375 0.0033257226 -0.076350614 0.06828862
-0.04504386 0.01412853 -0.019214839 0.036907904 -0.09002136 0.12619607 -0.16368498 0.2009411
-0.12681471 0.0585748 -0.07203195 -0.0073519642 -0.012327366 -0.019019311 0.040969983 0.18299212
0.023362473 -0.07608828 -0.036921296 -0.04786081 -0.1039925 -0.1142424 0.1441886 0.017086294
-0.025044156 0.046455853 -0.007523175 0.20841944 0.059525248 0.008551555 -0.153028 -0.033015005
-0.3704013 -0.11976567 0.036327295 -0.019156523 -0.04576663 -0.33580077 -0.06995898 -0.4228268
0.07066653 -0.07087427 -0.07075164 0.118610345 0.16417536 0.024498561 -0.0051076883 -0.14451969
-0.03281378 0.07785222 -0.04242808 -0.28901133 0.1901909 -0.22305225 -0.1164642 0.07511474
-0.019884119 -0.23118104 -0.08913938 -0.054573655 0.0071850955 -0.15200153 0.09944202 0.120635554
-0.007436696 0.17998882 0.027480897 0.035852656 0.08385888 -0.016466713 -0.16285229 0.14006987
-0.12124123 0.25441808 0.027052429 0.23842472 -0.10128932 -0.05245766 -0.16241567 0.057022907
-0.10099683 -0.06747458 -0.5059856 0.10190352 -0.047887333 0.0821549 0.0699383 -0.07488766
-0.12398637 -0.05708021 -0.46757483 -0.24069545 -0.017927457 6.216541e-05 0.0069676633 0.037966043
0.0033210397 -0.23698542 -0.19988221 -0.18628833 0.05105585 0.019415582 -0.063806996 0.057359003
0.01975901 -0.013449179 0.039924026 0.19617023 0.21411787 -0.10857795 -0.028086362 -0.2466074
-0.15001494 0.053460747 0.09249556 -0.7209041 -0.08370902 0.010681191 0.07484842 0.106090166
-0.046960168 0.05519747 -0.0626935 -0.07126172 -0.1178414 0.051775 -0.2620488 -0.21196094
0.012147063 0.0653766 -0.40153888 0.06262355 0.08084392 -0.16041018 -0.031777684 0.05051922
-0.24889332 0.05689778 0.060591772 -0.16751562 -0.09094219 -0.32694516 0.2023829 -0.15994911
-0.21678798 0.24265161 0.048539355 -0.03346366 -0.07951104 0.072727 0.02901619 -0.10841468
0.0077023515 0.13611431 0.016307462 0.07295206 -0.07937375 -0.30220357 -0.12729621 -0.177626
-0.030459171 0.06117484 0.20062861 0.029468225 0.16551702 -0.39842066 0.2072389 -0.07268623
0.017507419 0.07112796 -0.09753011 -0.035229135 0.23646511 -0.18745326 -0.15199675 -0.09347562
0.008470194 -0.054902457 0.1054864 -0.014791161 0.034588482 -0.09708178 0.033381015 0.009342252
-0.08206544 -0.25602585 -0.08359253 -0.29566926 0.13883707 -0.040594652 -0.00813296 0.1819734
-0.05968319 0.008844686 0.023618521 -0.09116363 0.018333647 -0.062379368 -0.22826089 -0.21772182
-0.16127926 -0.2484988 0.11954993 0.07174547 0.02270436 -0.09397629 -0.075009465 -0.057711344
-0.018043865 -0.11358763 -0.11458088 0.1639397 -0.5502493 0.08264532 -0.03943635 -0.08044924
00000000: 6503 4ebd c1f1 7fbc 9765 3bbe 4617 2b3c
00000010: 4fe2 9fbd d9d6 15bd 10c5 163e 67a3 d13c
00000020: 5e77 30be 6022 5abd c8e8 0b3d 87a4 bc3e
00000030: 2fa5 6d3e 6c03 05bd fbce a5bc 54b8 86bd
00000040: 1bb9 13be 90af e6bc d89f 97bd 3284 513e
00000050: 638c 01be 9734 953c be60 5fbb d986 093e
00000060: 9f95 0ebd 6faa f6bb 2fce 2cbc 67dd 0bbe
00000070: 246d 6ebc 21a3 52bd d335 0a3e 5bf3 083d
00000080: 9494 813e 659c c13d bcc5 f3bd 01ac 373e
00000090: c972 d23b 5ef4 593b b65d 9cbd e7da 8b3d
000000a0: e97f 38bd 5a7b 673c 7068 9dbc be2c 173d
000000b0: 1e5d b8bd 8b39 013e 099d 27be 81c3 4d3e
000000c0: b7db 01be 21ec 6f3d 7d85 93bd bfe8 f0bb
000000d0: b8f8 49bc 63ce 9bbc 24d0 273d 4962 3b3e
000000e0: a862 bf3c 2cd4 9bbd c93a 17bd b209 44bd
000000f0: 05fa d4bd ebf7 e9bd 2da6 133e 8ef8 8b3c
00000100: 6729 cdbc 7e48 3e3d f784 f6bb e86b 553e
00000110: bfd0 733d d21b 0c3c 5fb3 1cbe be3a 07bd
00000120: 3da5 bdbe b447 f5bd eecb 143d 24ee 9cbc
00000130: ca75 3bbd 14ee abbe a746 8fbd c17c d8be
00000140: 9db9 903d 8726 91bd 3ce6 90bd fbe9 f23d
00000150: 961d 283e 35b1 c83c 655e a7bb f8fc 13be
00000160: be67 06bd fc70 9f3d 11c9 2dbd 4bf9 93be
00000170: 67c1 423e cf67 64be c884 eebd c2d5 993d
00000180: 05e4 a2bc b9ba 6cbe b58e b6bd a088 5fbd
00000190: f370 eb3b 4aa6 1bbe 42a8 cb3d c60f f73d
000001a0: 87af f3bb fd4e 383e 9e1f e13c 3cda 123d
000001b0: 34be ab3d 33e5 86bc c0c2 26be 7a6e 0f3e
000001c0: 524d f8bd 1643 823e 0e9d dd3c 9c25 743e
000001d0: c670 cfbd d8dd 56bd 4b50 26be da90 693d
000001e0: 6dd7 cebd 1d30 8abd 4688 01bf cbb2 d03d
000001f0: 8225 44bd d440 a83d d03b 8f3d b45e 99bd
00000200: 91ec fdbd f0cc 69bd f865 efbe de78 76be
00000210: 9adc 92bc cd5e 8238 ff50 e43b 4882 1b3d
00000220: cda5 593b 4eac 72be ecad 4cbe 5ec2 3ebe
00000230: f01f 513d 6d0d 9f3c 3ead 82bd 46f1 6a3d
00000240: a6dd a13c f259 5cbc 6087 233d d9e0 483e
00000250: b741 5b3e 1e5e debd 5f15 e6bc a686 7cbe
00000260: 849d 19be a8f9 5a3d 506e bd3d 2c8d 38bf
00000270: a26f abbd 2a00 2f3c 214a 993d cd45 d93d
00000280: 4e59 40bd be16 623d 7365 80bd aaf1 91bd
00000290: d556 f1bd 0612 543d 432b 86be 4a0c 59be
000002a0: 7a04 473c 2be4 853d 8196 cdbe c740 803d
000002b0: 7f91 a53d 9142 24be 5129 02bd 3eed 4e3d
000002c0: e4dd 7ebe a60d 693d 142f 783d 3789 2bbe
000002d0: e63f babd 5b65 a7be 773d 4f3e b3c9 23be
000002e0: abfd 5dbe aa79 783e 34d1 463d 3111 09bd
000002f0: afd6 a2bd e5f1 943d 5cb3 ed3c 8408 debd
00000300: 0264 fc3b 8d61 0b3e 3a97 853c e467 953d
00000310: b48e a2bd 6dba 9abe f059 02be 97e3 35be
00000320: 8385 f9bc 7892 7a3d 9671 4d3e 5967 f13c
00000330: 4b7d 293e cbfd cbbe 6f36 543e 85dc 94bd
00000340: b86b 8f3c 89ab 913d debd c7bd 6d4c 10bd
00000350: e923 723e bff3 3fbe 09a5 1bbe 2570 bfbd
00000360: 92c6 0a3c 66e1 60bd 4109 d83d a056 72bc
00000370: a7ac 0d3d d0d2 c6bd 88ba 083d 3f10 193c
00000380: ed11 a8bd d215 83be 8f32 abbd f661 97be
00000390: 4e2b 0e3e 9446 26bd 1b40 05bc 3c57 3a3e
000003a0: 5c76 74bd 4de9 103c a17b c13c ffb3 babd
000003b0: 7230 963c 8281 7fbd 39bd 69be 78f2 5ebe
000003c0: 6426 25be 7876 7ebe 98d6 f43d 4aef 923d
000003d0: 7efe b93c a476 c0bd 909e 99bd bb62 6cbd
000003e0: bad0 93bc a2a0 e8bd 61a9 eabd cfdf 273e
000003f0: 23dd 0cbf f341 a93d 0388 21bd 92c2 a4bd

fc2.bias f4 [64]
-0.043469843 -0.38226688 -0.0055740993 -0.26507908 0.05850663 0.045566358 -0.07839439 0.121682845
-0.09328117 -0.57270503 0.05419455 -0.42917335 -0.13674538 -0.21537699 -0.026004959 -0.2572793
-0.19172019 -0.4817929 -0.051218927 -0.3982255 0.021411046 0.33237913 -0.12351048 -0.19454981
-0.2579802 0.025066404 -0.19905522 -0.06124917 -0.068996534 -0.01984693 0.022051714 -0.38378537
0.013665976 -0.046290495 -0.9204048 0.12499979 0.014726722 -0.14713298 -0.031916443 -0.20866717
-0.016104165 -0.05687259 0.0140947895 0.13129972 0.037417382 -0.5797425 0.034275234 -0.10919847
-0.05409128 0.05872017 -0.038431887 0.18427838 0.097363584 -0.18691282 -0.0065447083 0.09877461
-0.110829055 0.044901337 0.05257092 0.118837066 0.042026468 -0.0638249 0.00787419 -0.107531734
00000000: 6f0d 32bd 7cb8 c3be efa6 b6bb 72b8 87be
00000010: a6a4 6f3d caa3 3a3d 3d8d a0bd db34 f93d
00000020: 330a bfbd cc9c 12bf 1bfb 5d3d 9cbc dbbe
00000030: fb06 0cbe c98b 5cbe 5a08 d5bc 1dba 83be
00000040: 4c52 44be 8fad f6be f0ca 51bd 36e4 cbbe
00000050: 3866 af3c 992d aa3e 10f3 fcbd 1138 47be
00000060: fb15 84be 0f58 cd3c 22d5 4bbe 69e0 7abd
00000070: 0e4e 8dbd 0796 a2bc cca5 b43c 847f c4be
00000080: 42e7 5f3c 1a9b 3dbd a69f 6bbf e4ff ff3d
00000090: 5948 713c 07aa 16be d1ba 02bd d9ac 55be
000000a0: e2ec 83bc 3cf3 68bd d5ed 663c 6f73 063e
000000b0: f842 193d 016a 14bf 3064 0c3d 73a3 dfbd
000000c0: d18e 5dbd 9084 703d c16a 1dbd 79b3 3c3e
000000d0: 8f66 c73d 1366 3fbe fe74 d6bb 584a ca3d
000000e0: 58fa e2bd 77ea 373d 9b54 573d d960 f33d
000000f0: f223 2c3d a1b6 82bd bf02 013c 9939 dcbd

fc3.weight f4 [3, 64]
0.007484537 0.071605094 -0.0032563687 -0.041959744 0.03470516 0.070238285 -0.039522503 -0.0013019879
0.0017836697 0.030754112 -0.10756714 0.052777555 -0.023159498 -0.0030532728 -0.01768808 0.09903903
0.03571987 0.041254662 0.01097564 0.012142423 0.0009554175 0.06607397 0.0096761985 -0.040538188
0.016500717 0.05590579 0.2386825 0.022159392 0.07856008 -0.011353471 0.04234955 -0.026176324
-0.11919722 -0.051739786 -0.0038304098 0.0757751 0.07892972 0.020108646 0.009526478 0.00021896853
0.006433096 0.06838576 0.07697655 -0.05814267 0.0020190952 0.039919857 -0.0043917377 -0.23522612
-0.016096761 0.00079018617 -0.07508798 0.013273332 -0.028340874 -0.039494924 -0.057815023 -0.004885344
-0.046009667 -0.08094607 -0.0010992982 -0.072438315 -0.046218883 0.012470701 0.017084002 0.009777942
-0.048002265 0.07870271 0.0026480607 0.014764918 0.03392638 -0.018211836 0.0093247555 0.024052855
-0.0030605334 -0.00810841 -0.041187815 -0.04703657 -0.028794937 -0.010439475 -0.02570638 0.088874124
-0.008337436 -0.014057967 -0.06288999 -0.024462325 0.07010086 0.005208909 0.020740837 -0.008187352
0.06945034 0.0008427985 0.089002885 0.07123773 -0.020833485 0.0006702307 -0.0027764803 -0.0045551024
-0.054975614 -0.046935502 0.015458118 -0.04521126 -0.020818567 0.021278303 0.013598378 0.046933003
-0.062139742 0.039686244 0.01896281 0.006711808 0.012402991 0.06468585 0.030256968 0.07315409
-0.087330565 -0.007883652 0.012546986 0.058535814 -0.053240538 0.008329296 0.027314188 -0.013505738
-0.10719199 0.047826044 -0.08465154 0.028611505 0.03814651 -0.07524747 -0.046655614 -0.013898077
0.008601803 -0.011979612 0.027226266 0.00061245036 0.012970381 0.053580165 0.019052899 0.03227247
-0.018641999 -0.0009083489 -0.016021244 0.004492986 -0.009398496 0.028980851 -0.016690537 0.09886152
-0.0073423795 -0.0064175944 0.0039541433 0.09564099 -0.0015923701 0.026714517 0.0005602755 0.057074074
0.0037212663 -0.056891337 0.019041765 -0.05202189 0.006615837 0.07139483 0.0021395336 -0.045750104
0.006479092 -0.04649552 0.26852754 -0.03146338 0.039701886 -0.005804072 -0.059351392 -0.0044172634
0.028491242 -0.0043950817 0.04615384 0.0010515462 -0.0034718323 -0.0018281363 0.044196483 0.0029297222
-0.021085078 -0.17265673 -0.041756794 -0.0068618264 0.04541261 -0.012041754 0.04512849 0.0067823925
0.054258358 -0.07414102 0.0008203398 0.05813089 0.035219036 -0.091126174 0.05719647 -0.027213933
00000000: d940 f53b b1a5 923d cd68 55bb fbdd 2bbd
00000010: ff26 0e3d 17d9 8f3d 59e2 21bd 77a7 aaba
00000020: 06ca e93a 0cf0 fb3c 294c dcbd 472d 583d
00000030: fdb8 bdbc 6b19 48bb 98e6 90bc fad4 ca3d
00000040: 004f 123d a6fa 283d 2cd3 333c 03f1 463c
00000050: fc74 7a3a ca51 873d eb88 1e3c 5f0b 26bd
00000060: 832c 873c 78fd 643d 2f69 743e 9d87 b53c
00000070: 1be4 a03d e903 3abc b976 2d3d bb6f d6bc
00000080: ac1d f4bd 19ed 53bd 9d07 7bbb fa2f 9b3d
00000090: e8a5 a13d e3ba a43c f214 1c3c eb9a 6539
000000a0: b8cc d23b d50d 8c3d e2a5 9d3d 0227 6ebd
000000b0: cc52 043b 0183 233d 91e8 8fbb 1edf 70be
000000c0: 5bdd 83bc 7f24 4f3a bac7 99bd 6478 593c
000000d0: 1f2b e8bc 6ec5 21bd 72cf 6cbd 3c15 a0bb
000000e0: a274 3cbd 0ec7 a5bd 5416 90ba 8a5a 94bd
000000f0: 0350 3dbd e951 4c3c c0f3 8b3c a933 203c
00000100: 069e 44bd e32e a13d 168b 2d3b 8ee8 713c
00000110: 63f6 0a3d fd30 95bc dcc6 183c 7e0a c53c
00000120: 3b93 48bb 23d9 04bc 8eb4 28bd 6ba9 40bd
00000130: 5ce3 ebbc 550a 2bbc 3096 d2bc a303 b63d
00000140: be99 08bc 6353 66bc 78cc 80bd 3765 c8bc
00000150: 0a91 8f3d 7faf aa3b b0e8 a93c 3e24 06bc
00000160: fb3b 8e3d 40ef 5c3a 2547 b63d 16e5 913d
00000170: fcaa aabc 6cb2 2f3a 9cf5 35bb f842 95bb
00000180: 1c2e 61bd 713f 40bd 0c44 7d3c 712f 39bd
00000190: b38b aabc d64f ae3c bbcb 5e3c d23c 403d
000001a0: 3e86 7ebd 0b8e 223d e557 9b3c baee db3b
000001b0: ea35 4b3c 047a 843d 76dd f73c d0d1 953d
000001c0: 5eda b2bd 6f2a 01bc e091 4d3c 40c3 6f3d
000001d0: c012 5abd 9977 083c 01c2 df3c 2c47 5dbc
000001e0: 7987 dbbd 3ee5 433d c95d adbd ad62 ea3c
000001f0: 843f 1c3d 581b 9abd f519 3fbd c3b4 63bc
00000200: 94ee 0c3c 2246 44bc 9e09 df3c d98c 203a
00000210: b981 543c e076 5b3d d314 9c3c 2330 043d
00000220: 1bb7 98bc 431e 6eba fc3e 83bc e639 933b
00000230: 26fc 19bc 4069 ed3c 98ba 88bc e977 ca3d
00000240: 5898 f0bb af4a d2bb c291 813b 6cdf c33d
00000250: 13b7 d0ba 67d8 da3c 74df 123a 81c6 693d
00000260: 7de0 733b e406 69bd 7afd 9b3c e814 55bd
00000270: aac9 d83b 7437 923d 6b37 0c3b 7664 3bbd
00000280: 904e d43b 1672 3ebd 717c 893e bfdf 00bd
00000290: 729e 223d 1630 bebb 721a 73bd b1be 90bb
000002a0: 7766 e93c 9e04 90bb cf0b 3d3d 09d4 893a
000002b0: ae87 63bb 139e efba 5f07 353d 9500 403b
000002c0: 9dba acbc edcc 30be 2c09 2bbd 2cd9 e0bb
000002d0: 9302 3a3d c74a 45bc a7d8 383d d53e de3b
000002e0: 033e 5e3d 3fd7 97bd 120c 573a a81a 6e3d
000002f0: d641 103d 5ca0 babd d946 6a3d c1ef debc

fc3.bias f4 [3]
0.0047529293 -0.010072968 -0.07400086
00000000: 76be 9b3b 1709 25bc c38d 97bd
