tested_policies/go2/go2_flat_delay/exported/policy.onnx (onnx, 273175 bytes, 8 tensors)

actor.0.weight f4 [128, 260]
00000000: dea5 833d 45c9 39be e12e 793d a9e1 0c3d
00000010: 4a19 733c 23b5 b5bd d717 573e df3d 9c3e
00000020: e142 6abd cfe0 ccbd c85f d8bd 2dab e6bb
00000030: eafb a63d febc f63c fc85 8e3e 60b3 483c
00000040: e356 b73a 2350 5abe 0fa5 2ebe ac10 21be
00000050: 242d 2fbd 40f1 88bb 84f3 ccbd fe4a c7bb
00000060: dc73 f43b 32e5 b03c 70c6 01bc 045b af3c
00000070: 0036 0ebc b937 18bb ad4c 8dbc ea3e e83c
00000080: b39c 74bc 92a6 53bb 35d1 0a3c 6ff6 263c
00000090: 3cc4 17bd d2f3 d13c 3412 0ebe f1f0 a6bd
000000a0: 6090 58bb fc95 eb3c 5ac5 ab3c 799b ce39
000000b0: 38b1 123d eb1e 08bd 7ccc 5b3b 03c4 2dbd
000000c0: 3827 95bd bc1d 52bc c5f8 0cbd 6ced 0b3d
000000d0: e042 2d3d b138 06be 9f35 8b3d 1982 653d
000000e0: 11d9 503d 939a 8bbd 7935 353e 1bd7 c23e
000000f0: 3444 c53a 42a6 0fbe 3f94 13be 6dc8 25bd
00000100: 5707 6d3d 2473 b03d e39b 9b3e e9ab 423d
00000110: d121 8b3b ebde 35be 0ed7 45bd 86d9 9abd
00000120: c4dc b0bd cec7 3dbc 02a5 14ba 02a4 9d3d
00000130: 658c 663c fed9 c33c b65d 903c 1e95 833c
00000140: 29d7 733c eec6 94bc 29ed 833b 435e 503b
00000150: a816 763a 2efd 243c a6a6 36bc 6a51 29bc
00000160: 17f9 9cbd 2e1d 883c 8fde 28be 5143 45be
00000170: 96de 39bd c005 ee3b cb86 47bd 4b95 8bbc
00000180: dff6 b03d 86d8 9bbd f007 703d 0e36 4abd
00000190: ae0f 723c 3fc0 8f3c 1f49 16bd 2075 9abc
000001a0: efdd 2e3e fedf dc3d f175 dc3d b835 163c
000001b0: 46b0 bdbb 2415 0a3b 4558 853e 3e14 853e
000001c0: 0b1f 0cbd 985a 08be 8ef4 e7bd 1d3b 74bd
000001d0: fa0c 0d3e 8858 9b3d 6f17 b03e b163 363d
000001e0: 9dcf d3bb 12c6 45be e963 42bd 698c 47be
000001f0: b847 4abd b6bc 813d 3154 ab3c e84d 013d
00000200: 22f7 a63c 4b5f 843c 2cdd 0c3d 2863 0d3c
00000210: 8db0 f8bb 793a ae3c 434a 8ebc 1b2e 2b3b
00000220: f2b5 79bb fa43 0dba 4e61 07bc 1c69 b6bc
00000230: 26f7 44bd fa50 9cbc d879 0ebe 98f9 48be
00000240: 2ab5 9dbc 5bcb 3c3c 83b7 9abd 9aef 12bd
00000250: e949 963d d556 00be 96cd 933d b32f 19bb
00000260: ccaa f93c bb4b 8ebd a392 8a3b 95d6 3f3d
00000270: da50 5f3e 849f e53e bba4 41be 72ea d7bd
00000280: 3a39 383d 69a6 9f3c ceb2 873e 089d 933e
00000290: fd41 93bd be59 53be 28d2 54be 7bac f1bd
000002a0: 3837 113e b2da b23d f408 993e 3fc8 1a3d
000002b0: 7719 72bd 572f 49be 291b e4bc 27e2 f3bd
000002c0: 8058 b3bc 5cd8 813d 726d 66bc 800c c33c
000002d0: 1cd8 6d3b a265 e33c 0a7d bebb 75a0 79bc
000002e0: 3674 8bbb c164 8fbc 4d8a 35bc a027 e23c
000002f0: 9d5f a3bb b083 b4bb b226 833c 0914 52bc
00000300: 09fb 973b 4f7f 06bc abc6 26be 1d81 1dbe
00000310: 0ebf 2bbc eaee 19bc aaa3 f1bd 4c46 de3c
00000320: b06b f53c 60ca e1bd a612 f63c 54d1 d5bb
00000330: 3472 cfbb 4d39 0a3d 8a1c e7bc 2d23 16bd
00000340: ce6f f93e ebf5 873f 04de 8fbf 4b73 7abe
00000350: bc67 eabe 0df3 9e3e 7f51 4a3e 6e38 d03e
00000360: 24d4 b1bd fae7 57be 2c40 8ebe 09db 29be
00000370: e407 213e 17e1 f33d 75be c83e 7f17 f5bc
00000380: 737a 4ebd a4f2 00be 19f5 fb3c d810 b2bd
00000390: 1b23 43bd 107e e63c 29b0 fb3c d795 023e
000003a0: 003b bebb b08b cebc 8392 59bd 1946 ab3c
000003b0: e95b 1cbc d0f6 d4bc ffa2 edbc ddfe 40bd
000003c0: 979f 383d 2d03 ee3a 0586 583d f825 f63c
000003d0: 2030 c73c e87e 0cbe 1ee2 f8bd 3964 cd3d
000003e0: 1dde 883d 4c61 483c 28f3 c93d e2ce 463e
000003f0: 949b 323c bffa f3bc a436 27be 08a3 0abd
0.06428121 -0.18143184 0.060835723 0.034394894 0.014837572 -0.0887244 0.21005188 0.30515954
-0.057192687 -0.10003816 -0.10565144 -0.0070394487 0.081535175 0.030119415 0.27836597 0.012249798
0.0013987686 -0.21319632 -0.17055152 -0.15729016 -0.04276766 -0.00417915 -0.100073844 -0.006081938
0.0074601006 0.021593664 -0.007920846 0.021405704 -0.008679867 -0.0023226573 -0.017248476 0.028350312
-0.014929938 -0.0032295329 0.00847273 0.01019059 -0.037052378 0.025628958 -0.13874131 -0.08151425
-0.0033045039 0.028758042 0.020968128 0.00039407218 0.03581354 -0.03323261 0.003353863 -0.04242326
-0.07282871 -0.012824472 -0.034416933 0.03416197 0.042300105 -0.13107564 0.06797337 0.056032274
0.05098826 -0.06816592 0.1769618 0.38054737 0.0015050233 -0.14028266 -0.1441202 -0.040474344
0.057868328 0.08615711 0.3039237 0.047527228 0.0042459746 -0.17760818 -0.048300795 -0.075610206
-0.08635858 -0.011583282 -0.000567034 0.07697298 0.014071559 0.023907658 0.01762281 0.016062316
0.014882841 -0.018161263 0.0040260744 0.0031794466 0.00093875313 0.010070128 -0.0111481305 -0.010334352
-0.076646976 0.016615476 -0.1649115 -0.1926396 -0.04537829 0.007263869 -0.048712533 -0.017038962
0.08640837 -0.07609658 0.05860132 -0.049367957 0.014774246 0.017547725 -0.036690827 -0.018854678
0.17076848 0.107849106 0.10764683 0.009168081 -0.0057888357 0.002106973 0.26043907 0.25992006
-0.034209292 -0.13315809 -0.11325942 -0.059626687 0.13774481 0.07585245 0.34392878 0.044528667
-0.0064639584 -0.19313839 -0.047458563 -0.19487156 -0.049384803 0.06334822 0.020914169 0.031568438
0.020381514 0.01615872 0.034390613 0.008629598 -0.007589406 0.021268116 -0.017369395 0.002612001
-0.0038102833 -0.00053888524 -0.008262945 -0.022266917 -0.04808726 -0.019081581 -0.13913667 -0.19626462
-0.019251425 0.011523093 -0.07554533 -0.035873033 0.07338316 -0.12533124 0.07216947 -0.0023374378
0.03047695 -0.06948038 0.0042289062 0.0468355 0.21808186 0.44848263 -0.18910496 -0.10542764
0.04497645 0.01948853 0.26503605 0.28830743 -0.07190321 -0.20639703 -0.20783293 -0.11800476
0.1418122 0.08733119 0.29889643 0.037788626 -0.059106316 -0.19646965 -0.027844982 -0.119083695
-0.021892786 0.063400954 -0.01406418 0.023809671 0.0036292141 0.027758423 -0.0058132457 -0.01523601
-0.004255797 -0.017504098 -0.011080337 0.027606785 -0.004985763 -0.0055088624 0.016009662 -0.01282216
0.00463808 -0.008209064 -0.16286723 -0.15381284 -0.010482563 -0.00939534 -0.117987946 0.02713313
0.029958576 -0.11024928 0.03003819 -0.006525198 -0.0063307527 0.033746053 -0.02821185 -0.03665464
0.48718113 1.0621923 -1.1239629 -0.24458043 -0.45782268 0.31044808 0.19757651 0.40668052
-0.08683041 -0.21084586 -0.27783334 -0.16587462 0.15725666 0.11908167 0.39207807 -0.02991843
-0.050409745 -0.1259256 0.03075652 -0.08694619 -0.0476409 0.028136283 0.030723648 0.12752472
-0.005805373 -0.025213093 -0.05311824 0.020907449 -0.009543397 -0.025996596 -0.029008387 -0.047118057
0.04507407 0.0018158905 0.052862186 0.030047402 0.02431494 -0.13720286 -0.121525034 0.100288816
0.0668299 0.012230229 0.098608315 0.19414857 0.0109013505 -0.029782651 -0.16329437 -0.033846885

actor.0.bias f4 [128]
00000000: 9b05 c13d f099 083d 85e8 39bd 8418 76bd
00000010: 36b8 a3bc 5c94 16bd 3595 27bd 96a1 0dbc
00000020: 9f51 59bd e54d 0b3c 506d f53c 1644 61bd
00000030: 7968 623c 5799 fabb 5710 9e3c 0a57 133d
00000040: 0d01 833c ca64 4fbc 05a9 593d 3053 093c
00000050: 8420 8d3d fb98 0dbd a378 263d d3fb fd3b
00000060: 5105 78bc f003 853d 7e24 153d 3024 a63d
00000070: bc6a 8d3d 666a 5cbd 3261 fbbc 6866 c1bc
00000080: 87c6 85bb b298 37bd f512 9f3c cbdd 4bbd
00000090: 3ede a1bd 7568 ce3c 18c8 9ebd 4724 a93d
000000a0: 2348 cb3c 68ef 633d 68a3 debc f6f4 cfbc
000000b0: f0f5 713d 920c b6bb 9bcb 903d adef 13bd
000000c0: d795 b63d 122e 7abd ebc4 903c 781d b03b
000000d0: 5b4f 393d 1fdd ed3c c330 3abd c6fa 3fbc
000000e0: 351c e43c b3e5 44bc 212f b439 fd0d 483c
000000f0: 42bc 003d 119f e73d 727e a9bd afb9 87bb
00000100: 4d88 633d 25e1 1f3d 4fdd 0ebd af43 69bd
00000110: fb87 9a3d ee6f 5d3d b26e 883c ae6c 2abd
00000120: bce8 0bbc f945 423d f6ee de3c be92 23ba
00000130: 0ea5 7fbd 4dc6 ccbd 2f71 b9bc 33e7 58bc
00000140: c6be 8c3c e908 14bd ce88 3d3d f5f0 e5bc
00000150: 396b 613d 6a99 013d 2525 87bd 5229 b7bd
00000160: 5186 cd3c d437 093d 0a23 793d f9bd 3b3d
00000170: bf38 a83c 2488 79bd 6671 ff3c 170f 9b3d
00000180: 4350 563d c2e7 e7bc 1a9b a2bc b937 d93d
00000190: 7b55 453d e8ff d9bb e087 e7bc 3387 b03c
000001a0: e879 fdbc 13a8 f8bc 18c5 2dbd ab21 bfbd
000001b0: 3b3d 2dbc 018a b4bd e7f2 d93d 8e5d 78bd
000001c0: 1a15 063d f0d3 20bd 8a41 56bd e2da ba3a
000001d0: b442 8dba 668f 96bb e600 d53d f4f3 88bc
000001e0: 9670 95bc 168f 0a3d 70d4 25bd 66c7 72bc
000001f0: f2ba 3fbd 28c6 d83d 2fd2 083c 4386 de3d
0.09424897 0.03334993 -0.045387764 -0.060081974 -0.0199853 -0.03676258 -0.04091378 -0.008644482
-0.053056356 0.008502458 0.02995935 -0.054996572 0.013818854 -0.007647674 0.0192949 0.03597168
0.015991712 -0.012658307 0.053139705 0.00838165 0.068909675 -0.03456972 0.040642392 0.007750967
-0.015137986 0.06494892 0.036411755 0.08112371 0.069051236 -0.053812407 -0.030685995 -0.023608401
-0.004082504 -0.044823356 0.01941822 -0.049772065 -0.079037175 0.025196293 -0.077530086 0.082588725
0.02481467 0.055648237 -0.027177528 -0.025385361 0.059072435 -0.0055556977 0.07070085 -0.036117245
0.089152984 -0.061079092 0.017672023 0.0053746067 0.045241695 0.029036103 -0.04545666 -0.011717504
0.027845481 -0.012017655 0.0003436739 0.012210366 0.031429537 0.113096364 -0.08276071 -0.0041420083
0.05554991 0.039033074 -0.034879025 -0.056949314 0.075454675 0.054061823 0.016654346 -0.04160755
-0.008539375 0.047430012 0.027213555 -0.0006239823 -0.062413268 -0.0999876 -0.022636978 -0.013238716
0.017180812 -0.03614131 0.046273045 -0.028068999 0.055033896 0.031640448 -0.06598882 -0.08943428
0.025088461 0.033500507 0.06082443 0.04583547 0.020534871 -0.06092085 0.031182002 0.075712375
0.052322637 -0.028308753 -0.019849349 0.106063314 0.048177224 -0.006652821 -0.028263032 0.021548843
-0.030941918 -0.030353582 -0.04242429 -0.093325935 -0.0105736805 -0.08815385 0.10642033 -0.060636096
0.032734968 -0.03926462 -0.052308597 0.0014255906 -0.0010777325 -0.004594731 0.10400562 -0.016717888
-0.018242162 0.033827864 -0.0404858 -0.014818048 -0.046809144 0.1058467 0.008350893 0.10865452

actor.2.weight f4 [128, 128]
00000000: 94c0 6cbd 4862 b4bd ef46 1dbd ab22 973c
00000010: 3445 80bd 65ab ba3c 4526 953d d3e8 f43c
00000020: a4b0 bd3d 67fe 4f3c 276c e9bc 0547 273c
00000030: a7cd fd3d 157a 893c e2ab d33c aab0 a1bc
00000040: 3176 17bd 6792 dbbb 073c 413c 0592 5fbe
00000050: 06af a23d 30d5 b3bc 8b25 a8bd 3e99 803d
00000060: 1d87 923d ce52 e6bd c044 7c3c c542 e33c
00000070: fb35 9b3d 189d c4bc 6dcb 7e3d 424a 9f3d
00000080: 95cb 393b 39d0 b03d 9b3c c7bd bcd5 933d
00000090: 27e6 d3bd ae2a a83d 7285 acbd c169 103a
000000a0: c905 963d 92e5 87bd 29af d83c cf3e ae3c
000000b0: f386 263e 90cb 90bd 8254 0e3d 3710 c03d
000000c0: c6d2 39bd 7655 b6bb 0e90 8abc 981e c63c
000000d0: 2604 643d 5940 9abd 6592 4d3d 55b1 13bd
000000e0: 4e2b a83d a646 cfbd 8a9d c93c de9a 77bc
000000f0: f31b 263e 6d7b 93bd 52ee 723c 4b4d 9abd
00000100: d3d4 863d 69c5 a93d 4148 293d c878 a3bd
00000110: 2c9c 403d ea28 da3c 9342 c6bd 9da4 373d
00000120: 8a1b 903d 98ed d1bc 2898 b53c 0784 a53d
00000130: e622 39ba e9c0 993c 66e8 713d 639b 8bbd
00000140: eac4 0b3d fc09 213d a62b 8a3c b0f5 a1bd
00000150: 0a13 9f3d 05da 66bd c78e 183d f356 29bd
00000160: 26df 113d cb65 e53c 37ba 4abd c93e d8bd
00000170: 97a0 3dbd 1435 fdbc f902 29bd b402 083d
00000180: da7b 93bc 0517 f2bd 7470 d1bd 06d0 fabc
00000190: 1c11 803b ccc9 233d ec44 a0bd 152d c43d
000001a0: 50e3 12bc 80f3 0bbd 0dc9 13be 777a 313d
000001b0: 60de 8b3c a8a4 afbb 8971 95bc b162 1bbc
000001c0: bd11 153d 9cad 64ba a0f2 37bc 706a 1dbd
000001d0: 4bc3 a4bc 5254 4f3d 275e d53b c0a0 ccbd
000001e0: 65e3 a73d 58b1 66bd 21a6 9abc 224f 1a3e
000001f0: 772b 373d c3f8 3a3d dbc2 f73c a584 a6bc
00000200: 4685 02be 7de8 963d aaf0 aebd 3005 f0bd
00000210: b0fc 1bbc bb3d 1abe 78c5 3f3d 9d72 253d
00000220: 8f34 98bd 6410 503d fed7 95bd a3fd d6bd
00000230: 47fb 36bd aa8b 1b3d 35b9 5abc 8cd8 7bbd
00000240: 4e21 78bd a0ce 7fbb f0a9 113d 4de3 6a3d
00000250: 6ef8 c3bc 1156 053e dc15 49bd cea7 2d3c
00000260: ae95 eebd 39a4 fdbd 3783 773a 38e9 67bd
00000270: 87c8 3abd a859 1f3c b1eb 39be d209 c0bd
00000280: 67e1 9e3d 5193 423e 7624 ba3d d118 663d
00000290: 40ea e03d d517 0c3e 807f 8d3d 7b93 91bd
000002a0: 705f ed3c 3b28 893c be5e 16be 81d9 ebbc
000002b0: 1a9b 22be a6b6 a13d 9913 e0bd 0c6d 953b
000002c0: 03c4 cabd c7ac 1cbd e394 d23d 7de1 53be
000002d0: 2677 45be 82c4 0ebe 7ecf ba3d 75a8 223e
000002e0: cecc 353b 50c7 ffbc 9144 1abe 15cd ad3c
000002f0: 1d89 72bd c4bb 9abd eb2d 70be bfb1 983d
00000300: 50e4 303e 822f 24bc b4de 0dbe 6fbe 0fbe
00000310: 4963 39bc fba7 7e3c 7406 27be 230a 7cbe
00000320: 0e76 ba3b d0d7 ff3c 666c dfbd ff22 41be
00000330: 45f6 ccbd 98ff 66bd 7f73 6ebd b65f 513d
00000340: a0ac 20bd 35fd 813d 9898 9bbc 806e f3bd
00000350: 949d 88bd fd84 2cbd a3ba 2cbd 758c ce3c
00000360: be67 813c 506a 853e 7b75 923d 75ab 9f3d
00000370: 41dc 55bd a41a 653c fd42 14bd c9be b3bd
00000380: 88d9 483e 8204 d53d 5eb2 d2bd 3269 083e
00000390: 7c62 0abd 6a48 1c3d 787c 683d 8868 febd
000003a0: 6338 ebbd f17e df3d 2520 32bd eac8 c6bd
000003b0: cb91 29bd 5cb7 f1bd 4c01 d63d d715 5a3b
000003c0: 1288 5ebd dbd7 8d3d 4db9 1c3d ee87 013e
000003d0: 5505 35be 3cbf cc3d d75f a1bc 2bff 03be
000003e0: 1a5b b4bc a94d b73d cae3 283e c325 f73d
000003f0: fd95 16bd 6bf6 bf3d 4204 493d 9dfc 8ebd
-0.057800844 -0.08807808 -0.038397726 0.018449148 -0.062631994 0.022786805 0.0728269 0.029896175
0.09262207 0.012694932 -0.028493954 0.0102098035 0.12392741 0.016781846 0.025838796 -0.01973756
-0.03697795 -0.006700802 0.011794097 -0.21833046 0.07943539 -0.021952242 -0.08210286 0.06279229
0.07154677 -0.112462625 0.015397251 0.0277418 0.07578655 -0.02400069 0.06220572 0.077778354
0.0028350104 0.08633465 -0.097283565 0.07218501 -0.103466325 0.082112655 -0.0842389 0.00055089226
0.07325322 -0.06635584 0.02645071 0.021270184 0.16262417 -0.070700765 0.03474856 0.09378093
-0.045367025 -0.005564387 -0.016914394 0.02418451 0.05566802 -0.075318046 0.05018844 -0.03605779
0.08211385 -0.10120897 0.024611253 -0.015112607 0.162216 -0.07201276 0.014827328 -0.07534274
0.06583562 0.08289606 0.041328672 -0.079820216 0.047023937 0.026630837 -0.09680667 0.04483472
0.07036503 -0.025625989 0.02216728 0.08081823 -0.000706239 0.018768745 0.059059523 -0.06816747
0.03412334 0.039316162 0.016866516 -0.07908189 0.07767303 -0.056360263 0.037245538 -0.041342687
0.0356132 0.02800264 -0.049493995 -0.1055885 -0.04629573 -0.030909099 -0.0412626 0.033205703
-0.018003393 -0.11820797 -0.10226527 -0.030616771 0.0039082896 0.03998737 -0.07825646 0.09578911
-0.008965328 -0.034167767 -0.14432164 0.043329682 0.01707381 -0.0053602047 -0.018242614 -0.009483979
0.03639387 -0.00087233796 -0.01122728 -0.038431585 -0.020112654 0.050617523 0.006511468 -0.09991598
0.08197669 -0.056321472 -0.018878045 0.1506925 0.044719186 0.045647394 0.030244282 -0.020326922
-0.12746152 0.07368562 -0.08541997 -0.117197394 -0.009520695 -0.15062611 0.04681918 0.040392507
-0.074319 0.05079688 -0.07316588 -0.10497596 -0.04467323 0.03797499 -0.013349821 -0.061485812
-0.060578637 -0.003903307 0.035562456 0.057345677 -0.023922171 0.13021113 -0.049093112 0.01059909
-0.11649643 -0.123848386 0.0009441855 -0.0566189 -0.045601394 0.009725966 -0.18156315 -0.09376873
0.07757836 0.19001509 0.090889856 0.05617601 0.1098218 0.13680966 0.06909084 -0.07108208
0.028976172 0.016742816 -0.14684579 -0.028790237 -0.15879479 0.078961655 -0.10941238 0.0045601185
-0.099006675 -0.03825071 0.10282304 -0.20691486 -0.19283733 -0.1394215 0.09121607 0.15884574
0.0027740481 -0.03122297 -0.15065219 0.021215955 -0.059212793 -0.07555345 -0.23455016 0.074557774
0.17274594 -0.010021092 -0.13854486 -0.14037488 -0.011315175 0.015542979 -0.16311055 -0.24613242
0.0056903427 0.031230837 -0.10909347 -0.18861006 -0.1000791 -0.056396097 -0.058215614 0.051116668
-0.039227128 0.063471235 -0.01899366 -0.118863106 -0.06670681 -0.042119015 -0.04217018 0.02521346
0.015796538 0.26057673 0.07151314 0.07796375 -0.052212004 0.013983402 -0.036196698 -0.08776624
0.19614232 0.104012504 -0.10287927 0.13321379 -0.03378533 0.038154997 0.056759328 -0.124222815
-0.11485364 0.10912884 -0.043487687 -0.0970629 -0.041398805 -0.11802551 0.10449466 0.0033277178
-0.054328986 0.06925937 0.038262654 0.1264951 -0.17677815 0.099974126 -0.01969902 -0.12890308
-0.022016097 0.089503594 0.16493145 0.12067749 -0.036764134 0.093731724 0.049076326 -0.06981776

actor.2.bias f4 [128]
00000000: 7cf9 023d c0cf 453d 8f38 e73d 8a0d fb3c
00000010: c07b 4ebd 71b1 20be 3e44 a5bb bbad 40be
00000020: efd0 c3bd f915 6a3d 8c4a c2bd 5c2d e03b
00000030: ce3d 86bc 34b8 abbc 5c91 0a3d d0d5 a2bd
00000040: e2b0 e13c 47c7 42bd 178e 85bd 63ef bdbc
00000050: f1ae c6bd 0cd1 e2bd 957d 1b3d f599 323d
00000060: 2f86 d53d 8b0d 8ebd 1a5d e1bd 0343 6abd
00000070: 0923 113e ebcd 96bb ed1d 91bd c298 8abd
00000080: 30e4 27bd 2e07 c7bd d205 8fbd 2860 293d
00000090: 5b88 6ebd 5489 9d3c d26a eebd cd35 2abc
000000a0: 37bf 89bd 99c8 cdbd 9fd6 97bd ea5d e2bd
000000b0: d381 113d 7a3f 03be 79eb 033d 7aa8 8e3d
000000c0: ca62 873c ac48 27bc ce00 403c f199 44be
000000d0: 099b 983d 22b3 78bd b495 8dbc 7ff1 093e
000000e0: 2fb7 0c3e ec65 44bc 0b04 b1bd b143 50bd
000000f0: d13b db3c 735b e7bd 4259 dabd 629a 583d
00000100: 1210 84bd 359f c63d 0453 523d 4d23 b3bd
00000110: 1a8c 77bd d65f 31bd 6f36 043c a37d 2d3c
00000120: 6d2c 393b 2004 563c 978a 5dbd ca7b bfbd
00000130: 08e9 10bd d544 0bbe 5698 8fbc 83d8 34bd
00000140: fa53 51be 2bf4 81bd a1be 123d 2f13 d3bd
00000150: 181e 3fbd 8795 4bbd 6c6e 95bd 37cc 75bd
00000160: f43d 9e3d cef0 afbc 827e 2b3d 0a39 e23c
00000170: 635c 4c3a 99db 68bd 971b 25bd 9d63 303b
00000180: 3839 fabd c197 15bd 9c56 1c3e 9e70 803d
00000190: f5e6 823d fc3b 72be 05a0 b9bd 86a1 12bd
000001a0: bbad 2a3d 1a4f bbbd e3d2 74bd 5c1e 253d
000001b0: ee7b 5dbc e5b3 bcbd 59b0 b8bd c3ed 2cbe
000001c0: 194b 48bc ed1d 5e3e 6912 1fbd 6eed c5bd
000001d0: 0d49 e0bd 2890 873d a09e df3d f80b 9abd
000001e0: 3ae2 e7bd f9a8 66bd 9247 b1bb cbeb a5bd
000001f0: 39cc a9bd 136e f6bd 9b61 36bd fbc2 b6bd
0.031976208 0.04829383 0.112900846 0.030646104 -0.050410986 -0.15692689 -0.0050435355 -0.18816273
-0.09561335 0.05714986 -0.09486875 0.0068413448 -0.016386893 -0.020961858 0.03383003 -0.07950938
0.027550165 -0.047553327 -0.06521242 -0.023185438 -0.09701336 -0.11075029 0.03796156 0.043603856
0.10425984 -0.06936177 -0.11004086 -0.057192814 0.14173521 -0.004602184 -0.07085786 -0.067674175
-0.0409891 -0.09718166 -0.06983532 0.041351467 -0.058235507 0.019230522 -0.11641468 -0.010388804
-0.067259245 -0.100480266 -0.074139826 -0.11053069 0.0355242 -0.12817183 0.032206986 0.06965728
0.016526598 -0.010210197 0.011718942 -0.19199349 0.074514456 -0.06071771 -0.017283298 0.1347103
0.13741754 -0.011987191 -0.08643349 -0.050845806 0.026761921 -0.112967394 -0.10661556 0.052881606
-0.06448378 0.09698335 0.0513487 -0.087469675 -0.060436346 -0.043304287 0.008069619 0.010589036
0.002825524 0.013062507 -0.054087248 -0.09349783 -0.035378486 -0.13600476 -0.017528694 -0.044151794
-0.20442191 -0.063453995 0.03582633 -0.10306393 -0.04665956 -0.049703147 -0.07296452 -0.060009208
0.0772666 -0.02147713 0.041868694 0.027615089 0.0007795749 -0.05685005 -0.040309515 0.0026914843
-0.12217945 -0.036521677 0.15267414 0.0627148 0.06391708 -0.23655695 -0.090637244 -0.035798572
0.04166959 -0.09145947 -0.05977143 0.040312156 -0.013518317 -0.09214 -0.09018011 -0.16887574
-0.012224936 0.21691103 -0.038835917 -0.09664427 -0.10951433 0.066192925 0.10918927 -0.07521814
-0.11322446 -0.05631349 -0.005410143 -0.081016146 -0.082909055 -0.12032714 -0.044526678 -0.08923908

actor.4.weight f4 [128, 128]
00000000: c436 d1bd 9816 b3bb 69e2 39bc ab4a 83bc
00000010: 0ee4 ec3d 5d97 d63d 594e c93b 6207 db3d
00000020: dc14 0fbd 766e a6bc 366b 30bd 5c02 26bc
00000030: 5421 afbc 95d6 323c 8774 a0bb cb20 e9bd
00000040: 9507 263e c305 c8bc 6415 d03d 46da bdbc
00000050: f647 8ebd aae3 14bd 6e9d 8fbd cd5e 3d3d
00000060: 4f4b 343c 8a79 33bd d613 ecbd b1c9 9cbd
00000070: 3bbb b4bc 428f c6bc ccd8 b73c a926 d43d
00000080: 5ad2 61bd d506 b93d fa0a a5bd 35e9 afbd
00000090: 991d 6ebc 89f2 ad3c ea9b 76bb 5eea 21bd
000000a0: 45c1 27bc 3048 c1bd 05e8 8b3d 5d57 a6bd
000000b0: 5523 d5bc 9ca5 f538 6972 943d 5cb1 e6bd
000000c0: 44f5 fa3c 32c7 5f3d 06b2 f2ba c941 90bd
000000d0: 9ce8 e53d a94b 0ebd da53 a1bd 6d8a abbc
000000e0: 5a1e d5bd eff5 193d db00 17bc 81e6 86bc
000000f0: 0446 7f3d 214c 91bd 442d febc 6f94 293e
00000100: 5c39 1abe b99a acbd 7d33 66bd c1d9 b73d
00000110: ae2e 16be 4e58 ac3d dd58 353d 1102 d1bc
00000120: e2da e03d a458 5a3d c884 dd3c 2f3d 553d
00000130: 02a9 8bbc 5dd8 073d 1140 a9bd 95a6 10bd
00000140: 88b7 18bc 6c03 aebd d379 3ebd 9921 3cbe
00000150: b205 bbbd 2ae6 903c 90d6 8b3d 216e 65bc
00000160: 681e 16bc cc5e f0bb ea41 eabd 57f6 113d
00000170: da5b 4d3d d00b 0dbe d9e9 bc3c 2b2a a8bd
00000180: 1dcd 9f3d 73d9 14bd fbf9 b5bd 4157 acbd
00000190: 0ecb b33d 3973 10be 4575 ed3c c21d e9bc
000001a0: 2d3b 01bd 684f 003e fa0f 4c3d 6804 823d
000001b0: 17e6 c6bd 6dad e53d aec4 abbd f601 383c
000001c0: 35ef 44bd 1c8d c7bd 7249 ce3d 05ed a43c
000001d0: 61b7 453d c968 e9bc 6208 e3bc de0b 1fbe
000001e0: 34ac 213c 5e2e 913c 1161 1dbe ebef 14bd
000001f0: f1c0 693e f8fa 43bd 30f0 4fbd bd96 b8bd
00000200: 41df 8abc 0bbe de3c f487 773d 147e 2fbd
00000210: 6929 a6bd b97b 9cbd 268d 86bd 3d3d 7c3d
00000220: 50b8 063c 44ef 7ebd 0ab9 62bd 66eb 3dbe
00000230: f57a 493d b7e3 bbba c6f4 cebc d2d3 32bd
00000240: 9650 223d 9fb5 9abd be82 4fbc 5caa ac3c
00000250: d234 1fbd bc23 30bd 77f7 3bbe 578e 3bbe
00000260: 753c 173d eaa2 733d e496 a5bd c524 50bd
00000270: b312 1dbd 4e12 cdbd 9f0f fd3c 018b 30bd
00000280: 9e62 26bc a9f7 cb3d 56d7 aabd 7701 bd3c
00000290: 4b0e 2cbd 9d4b 603c 5716 8b3d fdcb 9a3d
000002a0: ef9b 8c3b b4ea ac3d 085c cebd ffe7 053e
000002b0: c1df c03d 47d4 7dba 43a6 01bc 7983 a9bd
000002c0: b678 2bbd d0c5 4d3c 7644 b23c bac7 3a3c
000002d0: fb92 a1bc 3e91 8cbd 45bb 9abc 9f87 4d3d
000002e0: 6bb7 32bd 0b64 be3d 814c 1e3c 99a5 273d
000002f0: 170f d53c f8ec e6bb 4d55 46bd 1f2b 9f3d
00000300: 0713 063c 5069 023e 20ad 043d c520 be3d
00000310: 26ce 13bd 8af8 a3bc 6dce 8d3d 02cb d13c
00000320: a4a1 063c 443b e83d d5bf 97bd ad9c d03d
00000330: 96fb d93c dbbf 113e 32c8 0cbd 5878 70bc
00000340: dc66 973d 5ced 343d 8a24 b2bd e394 ac3c
00000350: 95f1 78bd 211d b0bd 5afa 8abd d412 4b3d
00000360: 3a8d a23c 3fdf ab3d d01a c8bd bb44 f23d
00000370: 09b1 93bd 18a8 ef3d d6e3 8c3c e6ba aa3d
00000380: ae1e ce3c 9692 d23c 53ba 373c e243 2abc
00000390: 06b7 75bd 7231 c93a a36b 67bd 0d3a 9e3d
000003a0: 39de 14bd e8ad a0bd 99d3 ee3b be27 273c
000003b0: 5ddd b73c 6632 dabd cdc1 9dbd af39 9c3d
000003c0: 6e7a d83d 75a8 f7bd 84a3 1abd 309a fabb
000003d0: b03c 0e3d 4212 00bd fd79 47bd 35a4 153d
000003e0: 25ae 333d 81db 61bc 35b1 73bd 1db3 a33d
000003f0: 8fff aebd 149d a83d 32fa a23b 46a9 803c
-0.10215524 -0.00546534 -0.011345484 -0.016026815 0.115669355 0.10478089 0.006143373 0.106947675
-0.034932002 -0.020316344 -0.043070994 -0.010132398 -0.021378197 0.010915418 -0.0048967036 -0.11383208
0.1621383 -0.02441681 0.1016033 -0.02317537 -0.06947319 -0.03634993 -0.07012449 0.046232987
0.011004283 -0.04381708 -0.11527221 -0.07655657 -0.022061935 -0.024238233 0.022442244 0.10358936
-0.055132248 0.09034506 -0.08058734 -0.085894026 -0.014533424 0.021233814 -0.0037629553 -0.03953015
-0.01023895 -0.09437597 0.068313636 -0.08122132 -0.026017824 0.000117133575 0.072483845 -0.11264297
0.03063453 0.054633327 -0.001851619 -0.070437975 0.11226007 -0.034740124 -0.078773215 -0.02094003
-0.1040618 0.037588056 -0.009216513 -0.016467335 0.06232263 -0.070945986 -0.031027444 0.16560529
-0.15060943 -0.084279485 -0.056201447 0.0897708 -0.14666244 0.0841528 0.0442742 -0.02551368
0.109792486 0.05330719 0.027040854 0.052060302 -0.017048363 0.033165324 -0.08264173 -0.035315115
-0.009321101 -0.084967464 -0.0465029 -0.18372191 -0.09131946 0.017687876 0.06828034 -0.014003308
-0.009162523 -0.0073355194 -0.11438353 0.03563532 0.050136425 -0.13774037 0.023060726 -0.08211168
0.07802794 -0.03634019 -0.088855706 -0.0841508 0.08778964 -0.14106454 0.028986583 -0.028456572
-0.031550575 0.12530291 0.049819924 0.06348497 -0.09711855 0.11214719 -0.08387123 0.011230936
-0.048079688 -0.09743711 0.10072602 0.020132551 0.048270587 -0.028492348 -0.027713958 -0.1553187
0.009867717 0.017722305 -0.15369059 -0.036361616 0.22827508 -0.047846764 -0.05076617 -0.09013126
-0.016952159 0.027190229 0.06043239 -0.042844847 -0.08113367 -0.07640786 -0.06569891 0.06158184
0.008222654 -0.0622399 -0.05535225 -0.18546829 0.049189527 -0.0014334832 -0.025263201 -0.04365904
0.039627634 -0.07554173 -0.012665449 0.021077327 -0.038868733 -0.04300283 -0.18356119 -0.18316017
0.03692289 0.05948154 -0.08085421 -0.050816316 -0.03834791 -0.10013257 0.030891238 -0.043101314
-0.010155348 0.09959347 -0.08341853 0.023071988 -0.04200582 0.013689903 0.0679137 0.07558439
0.0042910497 0.084432036 -0.10076147 0.1307678 0.09417678 -0.0009682816 -0.007913175 -0.082770295
-0.041863166 0.012559369 0.02176116 0.011400158 -0.019723406 -0.0686364 -0.018888125 0.050178166
-0.043631952 0.092964254 0.009661795 0.04092941 0.026008172 -0.007047292 -0.048421193 0.077718966
0.008183247 0.12735486 0.032391667 0.09283594 -0.03608527 -0.020015974 0.06924138 0.025609497
0.008217249 0.11339429 -0.07409636 0.101861335 0.026609223 0.14233343 -0.03437061 -0.01467713
0.07392666 0.044171676 -0.086983755 0.021067088 -0.060777266 -0.08599306 -0.06786032 0.049578503
0.019842733 0.0839219 -0.09770739 0.118295155 -0.07211501 0.11701983 0.017198484 0.08336429
0.025161114 0.025704663 0.011213857 -0.010392161 -0.059988998 0.0015349819 -0.056499135 0.07725916
-0.03634474 -0.0784567 0.007288408 0.010202346 0.022444421 -0.10654144 -0.0770298 0.0762819
0.105702266 -0.120926775 -0.037753597 -0.007647775 0.034725845 -0.031267412 -0.04870032 0.036533553
0.04386725 -0.013785244 -0.05949517 0.079931475 -0.08544838 0.08233085 0.0049736733 0.015705716

actor.4.bias f4 [128]
00000000: 5184 a1bc ede8 20be c04c 2fbe 9c80 8a3d
00000010: 0dcc bd3d a5ea 49be e5c8 6dbd ede5 71bc
00000020: a056 17be ace0 3cbe d806 93bc 008a 34be
00000030: 6889 9c3c 6d25 b8bd 9e17 803d fb6f 043c
00000040: ffe5 36be a48e 27bc ba8d a3bd 8fa9 2e3d
00000050: 48f7 e53d f345 9eb9 6f95 0bbd 2ab1 c9bd
00000060: 2e5b c23d a52c 8a3d 4dae 67bd 9b0c e33c
00000070: 442d 3e3d 45a8 06be 1462 adbd 72b0 dabd
00000080: cb86 c3bd 39bf 7fbd 71d3 8fbd 2e3e 40bd
00000090: 8c03 01bd a05f ad3d 1299 f0bd 3e42 dbbc
000000a0: e13c 673d 87ae 1e3d 8e18 86bd be6d babd
000000b0: fec6 a5ba f057 673d 2973 07be 3bcf 05be
000000c0: 12ad 95bd c82f ddbd cb19 b0bd 16d8 c33b
000000d0: ecf3 f2bd 2478 47be ae2f a2bd b45d 6cbd
000000e0: 4b9a 6c3d 5096 82bd 9dc7 4e3d 0421 35be
000000f0: 6f1e ad3b c5f8 ecbd e0ac c2bc 10dc bcbc
00000100: b330 14bb e9ae 1dbd 379d 783c d58c efbd
00000110: ba1f b7bd 71f5 bcbd ac54 5cbd 995b 12be
00000120: 91ab 8fbc 37e0 5d3d b328 18be 4d27 77bd
00000130: 058c 39be b85d acbd d437 ad39 3137 923c
00000140: d613 46bd c887 8abd cee5 603d a364 bfbd
00000150: 7a74 4cbc 08d7 c63b eefd febd ab90 e4bd
00000160: aaa4 89be 8985 633d 657f 5fbd a89e a0bd
00000170: 9e86 1dbe 6b77 a5bd b3cf c3bd 12b0 6fbd
00000180: 2669 94bd bce4 95bb 692f eabd 27fa 613d
00000190: 9ed2 313d 5c7b eebd 8592 98bd b189 c6bb
000001a0: 22cc 943c 378c cfbd 2ea4 3dbe 60e7 eebd
000001b0: 13e3 ddbd 1c4a 9dbe 5a68 50bc 6cc8 c4bd
000001c0: c8fc ba3c 0053 5bbe c24b 9a3c 1f22 03be
000001d0: 3b88 5dbc 89fc c9bd 3ef8 e6bd a965 26be
000001e0: 7778 093e 52b8 d7bd 2c53 3dbe d190 4ebd
000001f0: be04 103d 0596 32be f0f2 f3bd 19e3 d7bc
-0.019716414 -0.15713854 -0.17119122 0.067628115 0.09267435 -0.19718416 -0.058052916 -0.014764291
-0.14779139 -0.1844508 -0.0179476 -0.17630768 0.01910849 -0.089915134 0.062545046 0.008083339
-0.17861174 -0.010226879 -0.079860166 0.042642172 0.11228806 -0.00030188225 -0.034078058 -0.098482445
0.094900474 0.067467965 -0.05656271 0.027715972 0.046429887 -0.13150127 -0.084659725 -0.106781855
-0.09547194 -0.062438224 -0.07022751 -0.0469343 -0.031497523 0.08465505 -0.11747946 -0.026764985
0.056454543 0.03874066 -0.06547652 -0.09102963 -0.0012647805 0.056480348 -0.13227524 -0.13067333
-0.07308401 -0.10800129 -0.085986696 0.005976687 -0.11862931 -0.19479424 -0.079192504 -0.05770655
0.057764333 -0.06376326 0.050483335 -0.17688376 0.005283169 -0.115708865 -0.023764074 -0.023054153
-0.0022612035 -0.038496885 0.015174202 -0.116967835 -0.08941598 -0.09226502 -0.053791687 -0.14292754
-0.017537864 0.054168906 -0.14859276 -0.060340215 -0.1811982 -0.08416313 0.00033038727 0.017848583
-0.04835876 -0.067641795 0.05490666 -0.09345367 -0.012478942 0.006068114 -0.12450777 -0.11160406
-0.2688344 0.05554727 -0.054564852 -0.07842761 -0.15383384 -0.08079418 -0.095611 -0.058517523
-0.07246618 -0.0045743864 -0.11434824 0.055170204 0.04341375 -0.11644623 -0.074498214 -0.0060588946
0.018163744 -0.10134166 -0.18519661 -0.11665225 -0.108343266 -0.30720603 -0.012720192 -0.0960854
0.022825614 -0.2141838 0.018834952 -0.12805985 -0.013521249 -0.098626204 -0.11277817 -0.16249718
0.1342486 -0.10533203 -0.18488759 -0.050431076 0.035160773 -0.1744004 -0.11911571 -0.026353406

actor.6.weight f4 [12, 128]
00000000: 3de4 9d3c 6324 de3d a20f 99bc 11dd 20bd
00000010: 0517 8abc f298 86bc 7bc6 ffbb 9682 07bc
00000020: 5a00 0c3c 741b 57bc ecde 853d f223 e43b
00000030: 576a ef3b 0b98 683d e637 c43c 73d0 8dbc
00000040: 2aae 0b3c 44da 123d e478 3d3d a4d5 8dbc
00000050: 022c e3bb 0b89 883c f59b 0a3d 15f8 83bd
00000060: 910f a33b 8de8 f23c aad8 f23c d34c 16bc
00000070: a456 25bd a3a8 033b 5f96 6b3c 99d3 a53c
00000080: c017 cebb c41c 9f3c 358d b4bc 33fd fe3c
00000090: be05 493d ec32 23bd dfd8 0dbc 74b2 b03c
000000a0: fa49 96ba b3d7 263d ebfc d33c 52a4 aabd
000000b0: b543 0e3d 44d6 84bc 91c6 d0bd 105b 3eb7
000000c0: 4da2 f13c 4943 3a3c 9db3 9a3c aad4 143d
000000d0: 1143 c7bc 414e 853d e848 583a 8195 2bbb
000000e0: a074 ac3c 7859 adbb fa79 8cbc 0174 9b3d
000000f0: 015b 11bd 1ac3 783d 454c ab3c 0162 5fba
00000100: bed6 183c d01d 863c e569 d53c 856f 02bc
00000110: 7fa9 52bc 7b6c ac3c 514d bcbb 68ac 48bd
00000120: 370e 09bd 0eaf 7ebb eee9 f9bd f01f 113d
00000130: f312 b23c b7d5 113d a56e 02bd 6c91 d4bb
00000140: 3228 393d 8f3a d7bb 43c9 09bd df0d 7b3c
00000150: 1609 c83c d357 f63b f3a6 32bd 0038 5c3c
00000160: a3fc 6cba d1c0 fe3c 04d8 f8bb 3a18 a9bc
00000170: a306 4fbc e10c 0cbd 705d d83c d1db 923c
00000180: 4e5f 57bc 72df 913c 7807 c53d 63cf e6bc
00000190: a5b2 933b 8e6e 65bc 3bb4 2bbd 7a0e d03c
000001a0: 3ea9 a03c aed8 23bc ffbc 233d 5801 a1bc
000001b0: 3da9 d839 f9c1 f13c 69b1 163c 46d1 e9bc
000001c0: 9962 99bc 9bc4 ff3c 0403 2fbc 4c79 aa3c
000001d0: 46b3 6a3d 762b 713c 58f0 dfbb 92b7 1a3d
000001e0: 29e2 12bd 3620 783c 76bf e63b 1a99 2e3c
000001f0: b9ba 0ebd cf6a 08bd 3f9d 0f3d df7e 4c3c
00000200: 7eab b73c 6b0e 40bc 3c24 24bd 77ea 983b
00000210: 7e0e bfba 41bc 23bc ba8f a2bc 6141 d83c
00000220: 0156 a639 79d0 213a 4769 a1bc 1e05 a73b
00000230: 2e78 a73b 63b4 203d cc23 0e3d ee44 553c
00000240: 0bec 24bd b58a 403d ec21 6abb 71d2 c3bb
00000250: 507b a5bc 6137 97bc 8cdf 1f3d f491 a83d
00000260: e586 62bc 5181 56bc 1e3c e83c bb30 76bd
00000270: dcab bdbc 5282 9eb9 8559 08bd b6f7 68bc
00000280: 0668 2dbd 3a8f 38bd 0423 963c 2553 5d3c
00000290: 037b 2cbc 7797 963c 93b5 06bd bb3c 133d
000002a0: 4c62 18bc 8acf d63c c2c2 a5bc fdda de3c
000002b0: 3e00 91bb d591 84ba 8c18 27bc 30f4 023d
000002c0: 1a43 27bb 8621 3a3d 1028 f8ba b1e8 c6bc
000002d0: 7cca 34bb 67e1 1c3d 8c82 fdbc 1193 c63c
000002e0: 65d6 47bc 0817 cfbc 0638 f6bb e6df 02bd
000002f0: 890d e43b b056 c2bc 9a74 0fbc f44a 5b3c
00000300: 6cd2 9dbb b9ef 2cbd 3e37 92bb 67a3 c7bc
00000310: c9ef 3e3d 7052 e1bc e265 fd3c 9c9f dfbc
00000320: f0b2 f6bc 352b 063c f6a1 e13d dfb9 34bb
00000330: 6c40 673b 41d1 ffbc 4d03 84bc b264 923c
00000340: 2dfc b73b 8d3d 453c 68c7 c4bc ac66 c73c
00000350: 4590 89bd 1dbc 27bb 4bc0 48bd 77a9 01bc
00000360: c4d7 73bc a720 ff3a 8539 c53b 6b1e 63bd
00000370: 14d5 afbd ecf6 ec3b 9af8 29bc 135a 3bbb
00000380: 40db e2bb c02c 433d d58c b43b c9e0 63bd
00000390: a4f6 8b3a 985a 00bd d186 863d 2ee9 113d
000003a0: ec10 febc cfa5 d5bc 2f71 2abc 6d61 b6bc
000003b0: 765c a1bd 51c0 96ba 9f70 f43c ec03 d23d
000003c0: 829e 51bc 6a55 af3c f5d7 d93c ee9f 40bc
000003d0: 5ff4 cdbc 2c12 3bbd 4b83 883c 2f86 7bbb
000003e0: 6c3a 3abc f67c 06bb 4f9c 3cbd 526a acbc
000003f0: 7b2d 62bc 40de f73d a2bc fdbc 0419 423d
0.019273872 0.10846784 -0.018684212 -0.039273325 -0.01685668 -0.016430352 -0.007805643 -0.00827088
0.008545006 -0.013129104 0.065366596 0.006962293 0.007306378 0.056785624 0.023952436 -0.01731131
0.008525411 0.035852686 0.04625787 -0.017313786 -0.0069327364 0.01666691 0.03384014 -0.06443802
0.004976221 0.029651904 0.02964433 -0.00917359 -0.04036583 0.002008953 0.014379113 0.0202425
-0.0062894523 0.019422896 -0.022039989 0.031126594 0.04907774 -0.039843485 -0.008657663 0.021569468
-0.0011466139 0.04073305 0.025877437 -0.08332123 0.03473254 -0.016215451 -0.101941235 -1.1346085e-05
0.029496336 0.011368581 0.018884474 0.036335625 -0.024323972 0.065090664 0.000825061 -0.002618164
0.021051705 -0.0052902065 -0.017148007 0.07590485 -0.03548718 0.06073294 0.020910392 -0.00085213786
0.009328542 0.016371638 0.026051471 -0.007961159 -0.012857794 0.021047821 -0.0057465215 -0.048992544
-0.033460822 -0.0038861665 -0.12202822 0.03543085 0.021737551 0.035604205 -0.0318438 -0.006487062
0.04520435 -0.00656826 -0.033639204 0.015323131 0.024418395 0.0075177937 -0.043616246 0.013441086
-0.00090403314 0.031097801 -0.0075941104 -0.020641435 -0.01263586 -0.03419197 0.026411742 0.017927082
-0.013145281 0.017806742 0.09620565 -0.028175062 0.00450738 -0.014003409 -0.041919928 0.025397528
0.019611951 -0.010000391 0.039975163 -0.019653961 0.00041324823 0.029511439 0.009197571 -0.028542172
-0.018723773 0.031221678 -0.010681871 0.020809792 0.057299875 0.014719835 -0.006834071 0.037772723
-0.035860214 0.015144398 0.007041867 0.010656619 -0.03484604 -0.033304986 0.03506207 0.01248142
0.022420641 -0.0117221875 -0.04007362 0.0046666223 -0.0014576463 -0.009993614 -0.019843925 0.026398363
0.00031726065 0.00061727274 -0.01970352 0.0050970456 0.005110762 0.03923453 0.034702107 0.013016922
-0.04026417 0.04700728 -0.0035725785 -0.0059760143 -0.020200402 -0.018459024 0.03903155 0.08230963
-0.013826107 -0.013092355 0.028348979 -0.060105067 -0.023153238 -0.00030233205 -0.033288497 -0.014219215
-0.042335533 -0.045058466 0.018327244 0.013508593 -0.010527375 0.018382771 -0.032888006 0.03594659
-0.00930078 0.02622201 -0.02023447 0.027204031 -0.0044250777 -0.0010114262 -0.0101987235 0.031971157
-0.0025522173 0.045442127 -0.0018932838 -0.024280878 -0.002758651 0.038300898 -0.030946039 0.024240049
-0.012197112 -0.025279537 -0.0075140027 -0.031951807 0.0069596213 -0.023722976 -0.008755827 0.013384569
-0.004816344 -0.042220805 -0.004462152 -0.024369908 0.046615396 -0.02750513 0.03093237 -0.027297787
-0.03011462 0.008189012 0.1101722 -0.0027576608 0.00352862 -0.03122771 -0.016114855 0.01787028
0.0056147785 0.012038601 -0.024020866 0.02434095 -0.0671697 -0.0025594302 -0.04901151 -0.007913939
-0.0148829855 0.0019464687 0.0060188198 -0.05544893 -0.08585563 0.007231584 -0.010374213 -0.0028587624
-0.0069231093 0.0476501 0.0055099525 -0.055634294 0.0010678363 -0.031336397 0.06568683 0.035622768
-0.031013928 -0.02608004 -0.010402962 -0.022263253 -0.07878964 -0.0011501407 0.029838858 0.10254654
-0.012794139 0.021403033 0.026592234 -0.01175688 -0.02514094 -0.045671627 0.016664168 -0.003837954
-0.011366468 -0.002052126 -0.046047505 -0.021046791 -0.013804789 0.12102938 -0.030973736 0.047387138

actor.6.bias f4 [12]
00000000: 3d90 9cbd 33d8 d23d f36a 82bd 191d 973c
00000010: b1e5 92bb f91a 25bd 4ba7 983d 7a1e 063d
00000020: 69e8 a83d a20a ef3d 1e00 ca3d e428 b33d
-0.07644699 0.10295143 -0.06368055 0.018446492 -0.0044829478 -0.040308926 0.074537836 0.03274391
0.08247454 0.1167195 0.098633036 0.08748034
